<?xml version="1.0"?>
<net name="TensorFlow_Frontend_IR" version="11">
	<layers>
		<layer id="0" name="input_1" type="Parameter" version="opset1">
			<data shape="?,224,224,3" element_type="f32" />
			<output>
				<port id="0" precision="FP32" names="input_1">
					<dim>-1</dim>
					<dim>224</dim>
					<dim>224</dim>
					<dim>3</dim>
				</port>
			</output>
		</layer>
		<layer id="1" name="Constant_23547" type="Const" version="opset1">
			<data element_type="i64" shape="4" offset="0" size="32" />
			<output>
				<port id="0" precision="I64">
					<dim>4</dim>
				</port>
			</output>
		</layer>
		<layer id="2" name="Transpose_23548" type="Transpose" version="opset1">
			<input>
				<port id="0" precision="FP32">
					<dim>-1</dim>
					<dim>224</dim>
					<dim>224</dim>
					<dim>3</dim>
				</port>
				<port id="1" precision="I64">
					<dim>4</dim>
				</port>
			</input>
			<output>
				<port id="2" precision="FP32">
					<dim>-1</dim>
					<dim>3</dim>
					<dim>224</dim>
					<dim>224</dim>
				</port>
			</output>
		</layer>
		<layer id="3" name="Unsqueeze_23550" type="Const" version="opset1">
			<data element_type="f32" shape="1, 1, 1, 1" offset="32" size="4" />
			<output>
				<port id="0" precision="FP32">
					<dim>1</dim>
					<dim>1</dim>
					<dim>1</dim>
					<dim>1</dim>
				</port>
			</output>
		</layer>
		<layer id="4" name="Unsqueeze_23554" type="Const" version="opset1">
			<data element_type="f32" shape="1, 1, 1, 1" offset="36" size="4" />
			<output>
				<port id="0" precision="FP32">
					<dim>1</dim>
					<dim>1</dim>
					<dim>1</dim>
					<dim>1</dim>
				</port>
			</output>
		</layer>
		<layer id="5" name="Unsqueeze_23558" type="Const" version="opset1">
			<data element_type="f32" shape="1, 1, 1, 1" offset="32" size="4" />
			<output>
				<port id="0" precision="FP32">
					<dim>1</dim>
					<dim>1</dim>
					<dim>1</dim>
					<dim>1</dim>
				</port>
			</output>
		</layer>
		<layer id="6" name="Unsqueeze_23562" type="Const" version="opset1">
			<data element_type="f32" shape="1, 1, 1, 1" offset="36" size="4" />
			<output>
				<port id="0" precision="FP32">
					<dim>1</dim>
					<dim>1</dim>
					<dim>1</dim>
					<dim>1</dim>
				</port>
			</output>
		</layer>
		<layer id="7" name="Transpose_11668" type="FakeQuantize" version="opset1">
			<data levels="256" auto_broadcast="numpy" />
			<input>
				<port id="0" precision="FP32">
					<dim>-1</dim>
					<dim>3</dim>
					<dim>224</dim>
					<dim>224</dim>
				</port>
				<port id="1" precision="FP32">
					<dim>1</dim>
					<dim>1</dim>
					<dim>1</dim>
					<dim>1</dim>
				</port>
				<port id="2" precision="FP32">
					<dim>1</dim>
					<dim>1</dim>
					<dim>1</dim>
					<dim>1</dim>
				</port>
				<port id="3" precision="FP32">
					<dim>1</dim>
					<dim>1</dim>
					<dim>1</dim>
					<dim>1</dim>
				</port>
				<port id="4" precision="FP32">
					<dim>1</dim>
					<dim>1</dim>
					<dim>1</dim>
					<dim>1</dim>
				</port>
			</input>
			<output>
				<port id="5" precision="FP32" names="mobilenetv2_1.00_224/input_1/fake_quantize/SymmQuant/FakeQuantWithMinMaxVars,mobilenetv2_1.00_224/input_1/fake_quantize/SymmQuant/FakeQuantWithMinMaxVars:0">
					<dim>-1</dim>
					<dim>3</dim>
					<dim>224</dim>
					<dim>224</dim>
				</port>
			</output>
		</layer>
		<layer id="8" name="Constant_28228" type="Const" version="opset1">
			<data element_type="i8" shape="32, 3, 3, 3" offset="40" size="864" />
			<output>
				<port id="0" precision="I8">
					<dim>32</dim>
					<dim>3</dim>
					<dim>3</dim>
					<dim>3</dim>
				</port>
			</output>
		</layer>
		<layer id="9" name="Convert_28229" type="Convert" version="opset1">
			<data destination_type="f32" />
			<input>
				<port id="0" precision="I8">
					<dim>32</dim>
					<dim>3</dim>
					<dim>3</dim>
					<dim>3</dim>
				</port>
			</input>
			<output>
				<port id="1" precision="FP32">
					<dim>32</dim>
					<dim>3</dim>
					<dim>3</dim>
					<dim>3</dim>
				</port>
			</output>
		</layer>
		<layer id="10" name="Constant_28230" type="Const" version="opset1">
			<data element_type="f32" shape="32, 1, 1, 1" offset="904" size="128" />
			<output>
				<port id="0" precision="FP32">
					<dim>32</dim>
					<dim>1</dim>
					<dim>1</dim>
					<dim>1</dim>
				</port>
			</output>
		</layer>
		<layer id="11" name="Multiply_27450" type="Multiply" version="opset1">
			<data auto_broadcast="numpy" />
			<input>
				<port id="0" precision="FP32">
					<dim>32</dim>
					<dim>3</dim>
					<dim>3</dim>
					<dim>3</dim>
				</port>
				<port id="1" precision="FP32">
					<dim>32</dim>
					<dim>1</dim>
					<dim>1</dim>
					<dim>1</dim>
				</port>
			</input>
			<output>
				<port id="2" precision="FP32">
					<dim>32</dim>
					<dim>3</dim>
					<dim>3</dim>
					<dim>3</dim>
				</port>
			</output>
		</layer>
		<layer id="12" name="Multiply_26724" type="Convolution" version="opset1">
			<data strides="2, 2" dilations="1, 1" pads_begin="0, 0" pads_end="0, 0" auto_pad="same_upper" />
			<input>
				<port id="0" precision="FP32">
					<dim>-1</dim>
					<dim>3</dim>
					<dim>224</dim>
					<dim>224</dim>
				</port>
				<port id="1" precision="FP32">
					<dim>32</dim>
					<dim>3</dim>
					<dim>3</dim>
					<dim>3</dim>
				</port>
			</input>
			<output>
				<port id="2" precision="FP32">
					<dim>-1</dim>
					<dim>32</dim>
					<dim>112</dim>
					<dim>112</dim>
				</port>
			</output>
		</layer>
		<layer id="13" name="Constant_26732" type="Const" version="opset1">
			<data element_type="f32" shape="1, 32, 1, 1" offset="1032" size="128" />
			<output>
				<port id="0" precision="FP32">
					<dim>1</dim>
					<dim>32</dim>
					<dim>1</dim>
					<dim>1</dim>
				</port>
			</output>
		</layer>
		<layer id="14" name="Transpose_14927" type="Add" version="opset1">
			<data auto_broadcast="numpy" />
			<input>
				<port id="0" precision="FP32">
					<dim>-1</dim>
					<dim>32</dim>
					<dim>112</dim>
					<dim>112</dim>
				</port>
				<port id="1" precision="FP32">
					<dim>1</dim>
					<dim>32</dim>
					<dim>1</dim>
					<dim>1</dim>
				</port>
			</input>
			<output>
				<port id="2" precision="FP32">
					<dim>-1</dim>
					<dim>32</dim>
					<dim>112</dim>
					<dim>112</dim>
				</port>
			</output>
		</layer>
		<layer id="15" name="Transpose_14929" type="Clamp" version="opset1">
			<data min="0" max="6" />
			<input>
				<port id="0" precision="FP32">
					<dim>-1</dim>
					<dim>32</dim>
					<dim>112</dim>
					<dim>112</dim>
				</port>
			</input>
			<output>
				<port id="1" precision="FP32">
					<dim>-1</dim>
					<dim>32</dim>
					<dim>112</dim>
					<dim>112</dim>
				</port>
			</output>
		</layer>
		<layer id="16" name="Transpose_14933" type="Const" version="opset1">
			<data element_type="f32" shape="1, 32, 1, 1" offset="1160" size="128" />
			<output>
				<port id="0" precision="FP32">
					<dim>1</dim>
					<dim>32</dim>
					<dim>1</dim>
					<dim>1</dim>
				</port>
			</output>
		</layer>
		<layer id="17" name="Transpose_14937" type="Const" version="opset1">
			<data element_type="f32" shape="1, 32, 1, 1" offset="1288" size="128" />
			<output>
				<port id="0" precision="FP32">
					<dim>1</dim>
					<dim>32</dim>
					<dim>1</dim>
					<dim>1</dim>
				</port>
			</output>
		</layer>
		<layer id="18" name="Transpose_14941" type="Const" version="opset1">
			<data element_type="f32" shape="1, 32, 1, 1" offset="1160" size="128" />
			<output>
				<port id="0" precision="FP32">
					<dim>1</dim>
					<dim>32</dim>
					<dim>1</dim>
					<dim>1</dim>
				</port>
			</output>
		</layer>
		<layer id="19" name="Transpose_14945" type="Const" version="opset1">
			<data element_type="f32" shape="1, 32, 1, 1" offset="1288" size="128" />
			<output>
				<port id="0" precision="FP32">
					<dim>1</dim>
					<dim>32</dim>
					<dim>1</dim>
					<dim>1</dim>
				</port>
			</output>
		</layer>
		<layer id="20" name="Transpose_14947" type="FakeQuantize" version="opset1">
			<data levels="256" auto_broadcast="numpy" />
			<input>
				<port id="0" precision="FP32">
					<dim>-1</dim>
					<dim>32</dim>
					<dim>112</dim>
					<dim>112</dim>
				</port>
				<port id="1" precision="FP32">
					<dim>1</dim>
					<dim>32</dim>
					<dim>1</dim>
					<dim>1</dim>
				</port>
				<port id="2" precision="FP32">
					<dim>1</dim>
					<dim>32</dim>
					<dim>1</dim>
					<dim>1</dim>
				</port>
				<port id="3" precision="FP32">
					<dim>1</dim>
					<dim>32</dim>
					<dim>1</dim>
					<dim>1</dim>
				</port>
				<port id="4" precision="FP32">
					<dim>1</dim>
					<dim>32</dim>
					<dim>1</dim>
					<dim>1</dim>
				</port>
			</input>
			<output>
				<port id="5" precision="FP32">
					<dim>-1</dim>
					<dim>32</dim>
					<dim>112</dim>
					<dim>112</dim>
				</port>
			</output>
		</layer>
		<layer id="21" name="Constant_28232" type="Const" version="opset1">
			<data element_type="i8" shape="3, 3, 32, 1" offset="1416" size="288" />
			<output>
				<port id="0" precision="I8">
					<dim>3</dim>
					<dim>3</dim>
					<dim>32</dim>
					<dim>1</dim>
				</port>
			</output>
		</layer>
		<layer id="22" name="Convert_28233" type="Convert" version="opset1">
			<data destination_type="f32" />
			<input>
				<port id="0" precision="I8">
					<dim>3</dim>
					<dim>3</dim>
					<dim>32</dim>
					<dim>1</dim>
				</port>
			</input>
			<output>
				<port id="1" precision="FP32">
					<dim>3</dim>
					<dim>3</dim>
					<dim>32</dim>
					<dim>1</dim>
				</port>
			</output>
		</layer>
		<layer id="23" name="Constant_28234" type="Const" version="opset1">
			<data element_type="f32" shape="1, 1, 32, 1" offset="1704" size="128" />
			<output>
				<port id="0" precision="FP32">
					<dim>1</dim>
					<dim>1</dim>
					<dim>32</dim>
					<dim>1</dim>
				</port>
			</output>
		</layer>
		<layer id="24" name="mobilenetv2_1.00_224/expanded_conv_depthwise/Reshape_1" type="Multiply" version="opset1">
			<data auto_broadcast="numpy" />
			<input>
				<port id="0" precision="FP32">
					<dim>3</dim>
					<dim>3</dim>
					<dim>32</dim>
					<dim>1</dim>
				</port>
				<port id="1" precision="FP32">
					<dim>1</dim>
					<dim>1</dim>
					<dim>32</dim>
					<dim>1</dim>
				</port>
			</input>
			<output>
				<port id="2" precision="FP32" names="mobilenetv2_1.00_224/expanded_conv_depthwise/Reshape_1,mobilenetv2_1.00_224/expanded_conv_depthwise/Reshape_1:0">
					<dim>3</dim>
					<dim>3</dim>
					<dim>32</dim>
					<dim>1</dim>
				</port>
			</output>
		</layer>
		<layer id="25" name="Constant_23600" type="Const" version="opset1">
			<data element_type="i64" shape="4" offset="1832" size="32" />
			<output>
				<port id="0" precision="I64">
					<dim>4</dim>
				</port>
			</output>
		</layer>
		<layer id="26" name="Transpose_23601" type="Transpose" version="opset1">
			<input>
				<port id="0" precision="FP32">
					<dim>3</dim>
					<dim>3</dim>
					<dim>32</dim>
					<dim>1</dim>
				</port>
				<port id="1" precision="I64">
					<dim>4</dim>
				</port>
			</input>
			<output>
				<port id="2" precision="FP32">
					<dim>32</dim>
					<dim>1</dim>
					<dim>3</dim>
					<dim>3</dim>
				</port>
			</output>
		</layer>
		<layer id="27" name="Constant_23602" type="Const" version="opset1">
			<data element_type="i64" shape="1" offset="1864" size="8" />
			<output>
				<port id="0" precision="I64">
					<dim>1</dim>
				</port>
			</output>
		</layer>
		<layer id="28" name="Transpose_11719" type="Unsqueeze" version="opset1">
			<input>
				<port id="0" precision="FP32">
					<dim>32</dim>
					<dim>1</dim>
					<dim>3</dim>
					<dim>3</dim>
				</port>
				<port id="1" precision="I64">
					<dim>1</dim>
				</port>
			</input>
			<output>
				<port id="2" precision="FP32">
					<dim>32</dim>
					<dim>1</dim>
					<dim>1</dim>
					<dim>3</dim>
					<dim>3</dim>
				</port>
			</output>
		</layer>
		<layer id="29" name="Reshape_27453" type="Const" version="opset1">
			<data element_type="f32" shape="32, 1, 1, 1, 1" offset="1872" size="128" />
			<output>
				<port id="0" precision="FP32">
					<dim>32</dim>
					<dim>1</dim>
					<dim>1</dim>
					<dim>1</dim>
					<dim>1</dim>
				</port>
			</output>
		</layer>
		<layer id="30" name="Multiply_27454" type="Multiply" version="opset1">
			<data auto_broadcast="numpy" />
			<input>
				<port id="0" precision="FP32">
					<dim>32</dim>
					<dim>1</dim>
					<dim>1</dim>
					<dim>3</dim>
					<dim>3</dim>
				</port>
				<port id="1" precision="FP32">
					<dim>32</dim>
					<dim>1</dim>
					<dim>1</dim>
					<dim>1</dim>
					<dim>1</dim>
				</port>
			</input>
			<output>
				<port id="2" precision="FP32">
					<dim>32</dim>
					<dim>1</dim>
					<dim>1</dim>
					<dim>3</dim>
					<dim>3</dim>
				</port>
			</output>
		</layer>
		<layer id="31" name="Multiply_26738" type="GroupConvolution" version="opset1">
			<data strides="1, 1" pads_begin="0, 0" pads_end="0, 0" dilations="1, 1" auto_pad="same_upper" />
			<input>
				<port id="0" precision="FP32">
					<dim>-1</dim>
					<dim>32</dim>
					<dim>112</dim>
					<dim>112</dim>
				</port>
				<port id="1" precision="FP32">
					<dim>32</dim>
					<dim>1</dim>
					<dim>1</dim>
					<dim>3</dim>
					<dim>3</dim>
				</port>
			</input>
			<output>
				<port id="2" precision="FP32">
					<dim>-1</dim>
					<dim>32</dim>
					<dim>112</dim>
					<dim>112</dim>
				</port>
			</output>
		</layer>
		<layer id="32" name="Constant_26746" type="Const" version="opset1">
			<data element_type="f32" shape="1, 32, 1, 1" offset="2000" size="128" />
			<output>
				<port id="0" precision="FP32">
					<dim>1</dim>
					<dim>32</dim>
					<dim>1</dim>
					<dim>1</dim>
				</port>
			</output>
		</layer>
		<layer id="33" name="Transpose_14999" type="Add" version="opset1">
			<data auto_broadcast="numpy" />
			<input>
				<port id="0" precision="FP32">
					<dim>-1</dim>
					<dim>32</dim>
					<dim>112</dim>
					<dim>112</dim>
				</port>
				<port id="1" precision="FP32">
					<dim>1</dim>
					<dim>32</dim>
					<dim>1</dim>
					<dim>1</dim>
				</port>
			</input>
			<output>
				<port id="2" precision="FP32">
					<dim>-1</dim>
					<dim>32</dim>
					<dim>112</dim>
					<dim>112</dim>
				</port>
			</output>
		</layer>
		<layer id="34" name="Transpose_15001" type="Clamp" version="opset1">
			<data min="0" max="6" />
			<input>
				<port id="0" precision="FP32">
					<dim>-1</dim>
					<dim>32</dim>
					<dim>112</dim>
					<dim>112</dim>
				</port>
			</input>
			<output>
				<port id="1" precision="FP32">
					<dim>-1</dim>
					<dim>32</dim>
					<dim>112</dim>
					<dim>112</dim>
				</port>
			</output>
		</layer>
		<layer id="35" name="Transpose_15005" type="Const" version="opset1">
			<data element_type="f32" shape="1, 1, 1, 1" offset="2128" size="4" />
			<output>
				<port id="0" precision="FP32">
					<dim>1</dim>
					<dim>1</dim>
					<dim>1</dim>
					<dim>1</dim>
				</port>
			</output>
		</layer>
		<layer id="36" name="Transpose_15009" type="Const" version="opset1">
			<data element_type="f32" shape="1, 1, 1, 1" offset="2132" size="4" />
			<output>
				<port id="0" precision="FP32">
					<dim>1</dim>
					<dim>1</dim>
					<dim>1</dim>
					<dim>1</dim>
				</port>
			</output>
		</layer>
		<layer id="37" name="Transpose_15013" type="Const" version="opset1">
			<data element_type="f32" shape="1, 1, 1, 1" offset="2128" size="4" />
			<output>
				<port id="0" precision="FP32">
					<dim>1</dim>
					<dim>1</dim>
					<dim>1</dim>
					<dim>1</dim>
				</port>
			</output>
		</layer>
		<layer id="38" name="Transpose_15017" type="Const" version="opset1">
			<data element_type="f32" shape="1, 1, 1, 1" offset="2132" size="4" />
			<output>
				<port id="0" precision="FP32">
					<dim>1</dim>
					<dim>1</dim>
					<dim>1</dim>
					<dim>1</dim>
				</port>
			</output>
		</layer>
		<layer id="39" name="Transpose_15019" type="FakeQuantize" version="opset1">
			<data levels="256" auto_broadcast="numpy" />
			<input>
				<port id="0" precision="FP32">
					<dim>-1</dim>
					<dim>32</dim>
					<dim>112</dim>
					<dim>112</dim>
				</port>
				<port id="1" precision="FP32">
					<dim>1</dim>
					<dim>1</dim>
					<dim>1</dim>
					<dim>1</dim>
				</port>
				<port id="2" precision="FP32">
					<dim>1</dim>
					<dim>1</dim>
					<dim>1</dim>
					<dim>1</dim>
				</port>
				<port id="3" precision="FP32">
					<dim>1</dim>
					<dim>1</dim>
					<dim>1</dim>
					<dim>1</dim>
				</port>
				<port id="4" precision="FP32">
					<dim>1</dim>
					<dim>1</dim>
					<dim>1</dim>
					<dim>1</dim>
				</port>
			</input>
			<output>
				<port id="5" precision="FP32">
					<dim>-1</dim>
					<dim>32</dim>
					<dim>112</dim>
					<dim>112</dim>
				</port>
			</output>
		</layer>
		<layer id="40" name="Constant_28236" type="Const" version="opset1">
			<data element_type="i8" shape="16, 32, 1, 1" offset="2136" size="512" />
			<output>
				<port id="0" precision="I8">
					<dim>16</dim>
					<dim>32</dim>
					<dim>1</dim>
					<dim>1</dim>
				</port>
			</output>
		</layer>
		<layer id="41" name="Convert_28237" type="Convert" version="opset1">
			<data destination_type="f32" />
			<input>
				<port id="0" precision="I8">
					<dim>16</dim>
					<dim>32</dim>
					<dim>1</dim>
					<dim>1</dim>
				</port>
			</input>
			<output>
				<port id="1" precision="FP32">
					<dim>16</dim>
					<dim>32</dim>
					<dim>1</dim>
					<dim>1</dim>
				</port>
			</output>
		</layer>
		<layer id="42" name="Constant_28238" type="Const" version="opset1">
			<data element_type="f32" shape="16, 1, 1, 1" offset="2648" size="64" />
			<output>
				<port id="0" precision="FP32">
					<dim>16</dim>
					<dim>1</dim>
					<dim>1</dim>
					<dim>1</dim>
				</port>
			</output>
		</layer>
		<layer id="43" name="Multiply_27457" type="Multiply" version="opset1">
			<data auto_broadcast="numpy" />
			<input>
				<port id="0" precision="FP32">
					<dim>16</dim>
					<dim>32</dim>
					<dim>1</dim>
					<dim>1</dim>
				</port>
				<port id="1" precision="FP32">
					<dim>16</dim>
					<dim>1</dim>
					<dim>1</dim>
					<dim>1</dim>
				</port>
			</input>
			<output>
				<port id="2" precision="FP32">
					<dim>16</dim>
					<dim>32</dim>
					<dim>1</dim>
					<dim>1</dim>
				</port>
			</output>
		</layer>
		<layer id="44" name="Multiply_26752" type="Convolution" version="opset1">
			<data strides="1, 1" dilations="1, 1" pads_begin="0, 0" pads_end="0, 0" auto_pad="same_upper" />
			<input>
				<port id="0" precision="FP32">
					<dim>-1</dim>
					<dim>32</dim>
					<dim>112</dim>
					<dim>112</dim>
				</port>
				<port id="1" precision="FP32">
					<dim>16</dim>
					<dim>32</dim>
					<dim>1</dim>
					<dim>1</dim>
				</port>
			</input>
			<output>
				<port id="2" precision="FP32">
					<dim>-1</dim>
					<dim>16</dim>
					<dim>112</dim>
					<dim>112</dim>
				</port>
			</output>
		</layer>
		<layer id="45" name="Constant_26760" type="Const" version="opset1">
			<data element_type="f32" shape="1, 16, 1, 1" offset="2712" size="64" />
			<output>
				<port id="0" precision="FP32">
					<dim>1</dim>
					<dim>16</dim>
					<dim>1</dim>
					<dim>1</dim>
				</port>
			</output>
		</layer>
		<layer id="46" name="Transpose_15071" type="Add" version="opset1">
			<data auto_broadcast="numpy" />
			<input>
				<port id="0" precision="FP32">
					<dim>-1</dim>
					<dim>16</dim>
					<dim>112</dim>
					<dim>112</dim>
				</port>
				<port id="1" precision="FP32">
					<dim>1</dim>
					<dim>16</dim>
					<dim>1</dim>
					<dim>1</dim>
				</port>
			</input>
			<output>
				<port id="2" precision="FP32">
					<dim>-1</dim>
					<dim>16</dim>
					<dim>112</dim>
					<dim>112</dim>
				</port>
			</output>
		</layer>
		<layer id="47" name="Transpose_15075" type="Const" version="opset1">
			<data element_type="f32" shape="1, 1, 1, 1" offset="2776" size="4" />
			<output>
				<port id="0" precision="FP32">
					<dim>1</dim>
					<dim>1</dim>
					<dim>1</dim>
					<dim>1</dim>
				</port>
			</output>
		</layer>
		<layer id="48" name="Transpose_15079" type="Const" version="opset1">
			<data element_type="f32" shape="1, 1, 1, 1" offset="2780" size="4" />
			<output>
				<port id="0" precision="FP32">
					<dim>1</dim>
					<dim>1</dim>
					<dim>1</dim>
					<dim>1</dim>
				</port>
			</output>
		</layer>
		<layer id="49" name="Transpose_15083" type="Const" version="opset1">
			<data element_type="f32" shape="1, 1, 1, 1" offset="2776" size="4" />
			<output>
				<port id="0" precision="FP32">
					<dim>1</dim>
					<dim>1</dim>
					<dim>1</dim>
					<dim>1</dim>
				</port>
			</output>
		</layer>
		<layer id="50" name="Transpose_15087" type="Const" version="opset1">
			<data element_type="f32" shape="1, 1, 1, 1" offset="2780" size="4" />
			<output>
				<port id="0" precision="FP32">
					<dim>1</dim>
					<dim>1</dim>
					<dim>1</dim>
					<dim>1</dim>
				</port>
			</output>
		</layer>
		<layer id="51" name="Transpose_15089" type="FakeQuantize" version="opset1">
			<data levels="256" auto_broadcast="numpy" />
			<input>
				<port id="0" precision="FP32">
					<dim>-1</dim>
					<dim>16</dim>
					<dim>112</dim>
					<dim>112</dim>
				</port>
				<port id="1" precision="FP32">
					<dim>1</dim>
					<dim>1</dim>
					<dim>1</dim>
					<dim>1</dim>
				</port>
				<port id="2" precision="FP32">
					<dim>1</dim>
					<dim>1</dim>
					<dim>1</dim>
					<dim>1</dim>
				</port>
				<port id="3" precision="FP32">
					<dim>1</dim>
					<dim>1</dim>
					<dim>1</dim>
					<dim>1</dim>
				</port>
				<port id="4" precision="FP32">
					<dim>1</dim>
					<dim>1</dim>
					<dim>1</dim>
					<dim>1</dim>
				</port>
			</input>
			<output>
				<port id="5" precision="FP32">
					<dim>-1</dim>
					<dim>16</dim>
					<dim>112</dim>
					<dim>112</dim>
				</port>
			</output>
		</layer>
		<layer id="52" name="Constant_28240" type="Const" version="opset1">
			<data element_type="i8" shape="96, 16, 1, 1" offset="2784" size="1536" />
			<output>
				<port id="0" precision="I8">
					<dim>96</dim>
					<dim>16</dim>
					<dim>1</dim>
					<dim>1</dim>
				</port>
			</output>
		</layer>
		<layer id="53" name="Convert_28241" type="Convert" version="opset1">
			<data destination_type="f32" />
			<input>
				<port id="0" precision="I8">
					<dim>96</dim>
					<dim>16</dim>
					<dim>1</dim>
					<dim>1</dim>
				</port>
			</input>
			<output>
				<port id="1" precision="FP32">
					<dim>96</dim>
					<dim>16</dim>
					<dim>1</dim>
					<dim>1</dim>
				</port>
			</output>
		</layer>
		<layer id="54" name="Constant_28242" type="Const" version="opset1">
			<data element_type="f32" shape="96, 1, 1, 1" offset="4320" size="384" />
			<output>
				<port id="0" precision="FP32">
					<dim>96</dim>
					<dim>1</dim>
					<dim>1</dim>
					<dim>1</dim>
				</port>
			</output>
		</layer>
		<layer id="55" name="Multiply_27461" type="Multiply" version="opset1">
			<data auto_broadcast="numpy" />
			<input>
				<port id="0" precision="FP32">
					<dim>96</dim>
					<dim>16</dim>
					<dim>1</dim>
					<dim>1</dim>
				</port>
				<port id="1" precision="FP32">
					<dim>96</dim>
					<dim>1</dim>
					<dim>1</dim>
					<dim>1</dim>
				</port>
			</input>
			<output>
				<port id="2" precision="FP32">
					<dim>96</dim>
					<dim>16</dim>
					<dim>1</dim>
					<dim>1</dim>
				</port>
			</output>
		</layer>
		<layer id="56" name="Multiply_26766" type="Convolution" version="opset1">
			<data strides="1, 1" dilations="1, 1" pads_begin="0, 0" pads_end="0, 0" auto_pad="same_upper" />
			<input>
				<port id="0" precision="FP32">
					<dim>-1</dim>
					<dim>16</dim>
					<dim>112</dim>
					<dim>112</dim>
				</port>
				<port id="1" precision="FP32">
					<dim>96</dim>
					<dim>16</dim>
					<dim>1</dim>
					<dim>1</dim>
				</port>
			</input>
			<output>
				<port id="2" precision="FP32">
					<dim>-1</dim>
					<dim>96</dim>
					<dim>112</dim>
					<dim>112</dim>
				</port>
			</output>
		</layer>
		<layer id="57" name="Constant_26774" type="Const" version="opset1">
			<data element_type="f32" shape="1, 96, 1, 1" offset="4704" size="384" />
			<output>
				<port id="0" precision="FP32">
					<dim>1</dim>
					<dim>96</dim>
					<dim>1</dim>
					<dim>1</dim>
				</port>
			</output>
		</layer>
		<layer id="58" name="Transpose_15141" type="Add" version="opset1">
			<data auto_broadcast="numpy" />
			<input>
				<port id="0" precision="FP32">
					<dim>-1</dim>
					<dim>96</dim>
					<dim>112</dim>
					<dim>112</dim>
				</port>
				<port id="1" precision="FP32">
					<dim>1</dim>
					<dim>96</dim>
					<dim>1</dim>
					<dim>1</dim>
				</port>
			</input>
			<output>
				<port id="2" precision="FP32">
					<dim>-1</dim>
					<dim>96</dim>
					<dim>112</dim>
					<dim>112</dim>
				</port>
			</output>
		</layer>
		<layer id="59" name="Transpose_15143" type="Clamp" version="opset1">
			<data min="0" max="6" />
			<input>
				<port id="0" precision="FP32">
					<dim>-1</dim>
					<dim>96</dim>
					<dim>112</dim>
					<dim>112</dim>
				</port>
			</input>
			<output>
				<port id="1" precision="FP32">
					<dim>-1</dim>
					<dim>96</dim>
					<dim>112</dim>
					<dim>112</dim>
				</port>
			</output>
		</layer>
		<layer id="60" name="Transpose_15147" type="Const" version="opset1">
			<data element_type="f32" shape="1, 96, 1, 1" offset="5088" size="384" />
			<output>
				<port id="0" precision="FP32">
					<dim>1</dim>
					<dim>96</dim>
					<dim>1</dim>
					<dim>1</dim>
				</port>
			</output>
		</layer>
		<layer id="61" name="Transpose_15151" type="Const" version="opset1">
			<data element_type="f32" shape="1, 96, 1, 1" offset="5472" size="384" />
			<output>
				<port id="0" precision="FP32">
					<dim>1</dim>
					<dim>96</dim>
					<dim>1</dim>
					<dim>1</dim>
				</port>
			</output>
		</layer>
		<layer id="62" name="Transpose_15155" type="Const" version="opset1">
			<data element_type="f32" shape="1, 96, 1, 1" offset="5088" size="384" />
			<output>
				<port id="0" precision="FP32">
					<dim>1</dim>
					<dim>96</dim>
					<dim>1</dim>
					<dim>1</dim>
				</port>
			</output>
		</layer>
		<layer id="63" name="Transpose_15159" type="Const" version="opset1">
			<data element_type="f32" shape="1, 96, 1, 1" offset="5472" size="384" />
			<output>
				<port id="0" precision="FP32">
					<dim>1</dim>
					<dim>96</dim>
					<dim>1</dim>
					<dim>1</dim>
				</port>
			</output>
		</layer>
		<layer id="64" name="Transpose_15161" type="FakeQuantize" version="opset1">
			<data levels="256" auto_broadcast="numpy" />
			<input>
				<port id="0" precision="FP32">
					<dim>-1</dim>
					<dim>96</dim>
					<dim>112</dim>
					<dim>112</dim>
				</port>
				<port id="1" precision="FP32">
					<dim>1</dim>
					<dim>96</dim>
					<dim>1</dim>
					<dim>1</dim>
				</port>
				<port id="2" precision="FP32">
					<dim>1</dim>
					<dim>96</dim>
					<dim>1</dim>
					<dim>1</dim>
				</port>
				<port id="3" precision="FP32">
					<dim>1</dim>
					<dim>96</dim>
					<dim>1</dim>
					<dim>1</dim>
				</port>
				<port id="4" precision="FP32">
					<dim>1</dim>
					<dim>96</dim>
					<dim>1</dim>
					<dim>1</dim>
				</port>
			</input>
			<output>
				<port id="5" precision="FP32">
					<dim>-1</dim>
					<dim>96</dim>
					<dim>112</dim>
					<dim>112</dim>
				</port>
			</output>
		</layer>
		<layer id="65" name="Constant_28244" type="Const" version="opset1">
			<data element_type="i8" shape="3, 3, 96, 1" offset="5856" size="864" />
			<output>
				<port id="0" precision="I8">
					<dim>3</dim>
					<dim>3</dim>
					<dim>96</dim>
					<dim>1</dim>
				</port>
			</output>
		</layer>
		<layer id="66" name="Convert_28245" type="Convert" version="opset1">
			<data destination_type="f32" />
			<input>
				<port id="0" precision="I8">
					<dim>3</dim>
					<dim>3</dim>
					<dim>96</dim>
					<dim>1</dim>
				</port>
			</input>
			<output>
				<port id="1" precision="FP32">
					<dim>3</dim>
					<dim>3</dim>
					<dim>96</dim>
					<dim>1</dim>
				</port>
			</output>
		</layer>
		<layer id="67" name="Constant_28246" type="Const" version="opset1">
			<data element_type="f32" shape="1, 1, 96, 1" offset="6720" size="384" />
			<output>
				<port id="0" precision="FP32">
					<dim>1</dim>
					<dim>1</dim>
					<dim>96</dim>
					<dim>1</dim>
				</port>
			</output>
		</layer>
		<layer id="68" name="mobilenetv2_1.00_224/block_1_depthwise/Reshape_1" type="Multiply" version="opset1">
			<data auto_broadcast="numpy" />
			<input>
				<port id="0" precision="FP32">
					<dim>3</dim>
					<dim>3</dim>
					<dim>96</dim>
					<dim>1</dim>
				</port>
				<port id="1" precision="FP32">
					<dim>1</dim>
					<dim>1</dim>
					<dim>96</dim>
					<dim>1</dim>
				</port>
			</input>
			<output>
				<port id="2" precision="FP32" names="mobilenetv2_1.00_224/block_1_depthwise/Reshape_1,mobilenetv2_1.00_224/block_1_depthwise/Reshape_1:0">
					<dim>3</dim>
					<dim>3</dim>
					<dim>96</dim>
					<dim>1</dim>
				</port>
			</output>
		</layer>
		<layer id="69" name="Constant_23672" type="Const" version="opset1">
			<data element_type="i64" shape="4" offset="1832" size="32" />
			<output>
				<port id="0" precision="I64">
					<dim>4</dim>
				</port>
			</output>
		</layer>
		<layer id="70" name="Transpose_23673" type="Transpose" version="opset1">
			<input>
				<port id="0" precision="FP32">
					<dim>3</dim>
					<dim>3</dim>
					<dim>96</dim>
					<dim>1</dim>
				</port>
				<port id="1" precision="I64">
					<dim>4</dim>
				</port>
			</input>
			<output>
				<port id="2" precision="FP32">
					<dim>96</dim>
					<dim>1</dim>
					<dim>3</dim>
					<dim>3</dim>
				</port>
			</output>
		</layer>
		<layer id="71" name="Constant_23674" type="Const" version="opset1">
			<data element_type="i64" shape="1" offset="1864" size="8" />
			<output>
				<port id="0" precision="I64">
					<dim>1</dim>
				</port>
			</output>
		</layer>
		<layer id="72" name="Transpose_11885" type="Unsqueeze" version="opset1">
			<input>
				<port id="0" precision="FP32">
					<dim>96</dim>
					<dim>1</dim>
					<dim>3</dim>
					<dim>3</dim>
				</port>
				<port id="1" precision="I64">
					<dim>1</dim>
				</port>
			</input>
			<output>
				<port id="2" precision="FP32">
					<dim>96</dim>
					<dim>1</dim>
					<dim>1</dim>
					<dim>3</dim>
					<dim>3</dim>
				</port>
			</output>
		</layer>
		<layer id="73" name="Reshape_27464" type="Const" version="opset1">
			<data element_type="f32" shape="96, 1, 1, 1, 1" offset="7104" size="384" />
			<output>
				<port id="0" precision="FP32">
					<dim>96</dim>
					<dim>1</dim>
					<dim>1</dim>
					<dim>1</dim>
					<dim>1</dim>
				</port>
			</output>
		</layer>
		<layer id="74" name="Multiply_27465" type="Multiply" version="opset1">
			<data auto_broadcast="numpy" />
			<input>
				<port id="0" precision="FP32">
					<dim>96</dim>
					<dim>1</dim>
					<dim>1</dim>
					<dim>3</dim>
					<dim>3</dim>
				</port>
				<port id="1" precision="FP32">
					<dim>96</dim>
					<dim>1</dim>
					<dim>1</dim>
					<dim>1</dim>
					<dim>1</dim>
				</port>
			</input>
			<output>
				<port id="2" precision="FP32">
					<dim>96</dim>
					<dim>1</dim>
					<dim>1</dim>
					<dim>3</dim>
					<dim>3</dim>
				</port>
			</output>
		</layer>
		<layer id="75" name="Multiply_26780" type="GroupConvolution" version="opset1">
			<data strides="2, 2" pads_begin="0, 0" pads_end="1, 1" dilations="1, 1" auto_pad="explicit" />
			<input>
				<port id="0" precision="FP32">
					<dim>-1</dim>
					<dim>96</dim>
					<dim>112</dim>
					<dim>112</dim>
				</port>
				<port id="1" precision="FP32">
					<dim>96</dim>
					<dim>1</dim>
					<dim>1</dim>
					<dim>3</dim>
					<dim>3</dim>
				</port>
			</input>
			<output>
				<port id="2" precision="FP32">
					<dim>-1</dim>
					<dim>96</dim>
					<dim>56</dim>
					<dim>56</dim>
				</port>
			</output>
		</layer>
		<layer id="76" name="Constant_26788" type="Const" version="opset1">
			<data element_type="f32" shape="1, 96, 1, 1" offset="7488" size="384" />
			<output>
				<port id="0" precision="FP32">
					<dim>1</dim>
					<dim>96</dim>
					<dim>1</dim>
					<dim>1</dim>
				</port>
			</output>
		</layer>
		<layer id="77" name="Transpose_15236" type="Add" version="opset1">
			<data auto_broadcast="numpy" />
			<input>
				<port id="0" precision="FP32">
					<dim>-1</dim>
					<dim>96</dim>
					<dim>56</dim>
					<dim>56</dim>
				</port>
				<port id="1" precision="FP32">
					<dim>1</dim>
					<dim>96</dim>
					<dim>1</dim>
					<dim>1</dim>
				</port>
			</input>
			<output>
				<port id="2" precision="FP32">
					<dim>-1</dim>
					<dim>96</dim>
					<dim>56</dim>
					<dim>56</dim>
				</port>
			</output>
		</layer>
		<layer id="78" name="Transpose_15238" type="Clamp" version="opset1">
			<data min="0" max="6" />
			<input>
				<port id="0" precision="FP32">
					<dim>-1</dim>
					<dim>96</dim>
					<dim>56</dim>
					<dim>56</dim>
				</port>
			</input>
			<output>
				<port id="1" precision="FP32">
					<dim>-1</dim>
					<dim>96</dim>
					<dim>56</dim>
					<dim>56</dim>
				</port>
			</output>
		</layer>
		<layer id="79" name="Transpose_15242" type="Const" version="opset1">
			<data element_type="f32" shape="1, 1, 1, 1" offset="2128" size="4" />
			<output>
				<port id="0" precision="FP32">
					<dim>1</dim>
					<dim>1</dim>
					<dim>1</dim>
					<dim>1</dim>
				</port>
			</output>
		</layer>
		<layer id="80" name="Transpose_15246" type="Const" version="opset1">
			<data element_type="f32" shape="1, 1, 1, 1" offset="2132" size="4" />
			<output>
				<port id="0" precision="FP32">
					<dim>1</dim>
					<dim>1</dim>
					<dim>1</dim>
					<dim>1</dim>
				</port>
			</output>
		</layer>
		<layer id="81" name="Transpose_15250" type="Const" version="opset1">
			<data element_type="f32" shape="1, 1, 1, 1" offset="2128" size="4" />
			<output>
				<port id="0" precision="FP32">
					<dim>1</dim>
					<dim>1</dim>
					<dim>1</dim>
					<dim>1</dim>
				</port>
			</output>
		</layer>
		<layer id="82" name="Transpose_15254" type="Const" version="opset1">
			<data element_type="f32" shape="1, 1, 1, 1" offset="2132" size="4" />
			<output>
				<port id="0" precision="FP32">
					<dim>1</dim>
					<dim>1</dim>
					<dim>1</dim>
					<dim>1</dim>
				</port>
			</output>
		</layer>
		<layer id="83" name="Transpose_15256" type="FakeQuantize" version="opset1">
			<data levels="256" auto_broadcast="numpy" />
			<input>
				<port id="0" precision="FP32">
					<dim>-1</dim>
					<dim>96</dim>
					<dim>56</dim>
					<dim>56</dim>
				</port>
				<port id="1" precision="FP32">
					<dim>1</dim>
					<dim>1</dim>
					<dim>1</dim>
					<dim>1</dim>
				</port>
				<port id="2" precision="FP32">
					<dim>1</dim>
					<dim>1</dim>
					<dim>1</dim>
					<dim>1</dim>
				</port>
				<port id="3" precision="FP32">
					<dim>1</dim>
					<dim>1</dim>
					<dim>1</dim>
					<dim>1</dim>
				</port>
				<port id="4" precision="FP32">
					<dim>1</dim>
					<dim>1</dim>
					<dim>1</dim>
					<dim>1</dim>
				</port>
			</input>
			<output>
				<port id="5" precision="FP32">
					<dim>-1</dim>
					<dim>96</dim>
					<dim>56</dim>
					<dim>56</dim>
				</port>
			</output>
		</layer>
		<layer id="84" name="Constant_28248" type="Const" version="opset1">
			<data element_type="i8" shape="24, 96, 1, 1" offset="7872" size="2304" />
			<output>
				<port id="0" precision="I8">
					<dim>24</dim>
					<dim>96</dim>
					<dim>1</dim>
					<dim>1</dim>
				</port>
			</output>
		</layer>
		<layer id="85" name="Convert_28249" type="Convert" version="opset1">
			<data destination_type="f32" />
			<input>
				<port id="0" precision="I8">
					<dim>24</dim>
					<dim>96</dim>
					<dim>1</dim>
					<dim>1</dim>
				</port>
			</input>
			<output>
				<port id="1" precision="FP32">
					<dim>24</dim>
					<dim>96</dim>
					<dim>1</dim>
					<dim>1</dim>
				</port>
			</output>
		</layer>
		<layer id="86" name="Constant_28250" type="Const" version="opset1">
			<data element_type="f32" shape="24, 1, 1, 1" offset="10176" size="96" />
			<output>
				<port id="0" precision="FP32">
					<dim>24</dim>
					<dim>1</dim>
					<dim>1</dim>
					<dim>1</dim>
				</port>
			</output>
		</layer>
		<layer id="87" name="Multiply_27468" type="Multiply" version="opset1">
			<data auto_broadcast="numpy" />
			<input>
				<port id="0" precision="FP32">
					<dim>24</dim>
					<dim>96</dim>
					<dim>1</dim>
					<dim>1</dim>
				</port>
				<port id="1" precision="FP32">
					<dim>24</dim>
					<dim>1</dim>
					<dim>1</dim>
					<dim>1</dim>
				</port>
			</input>
			<output>
				<port id="2" precision="FP32">
					<dim>24</dim>
					<dim>96</dim>
					<dim>1</dim>
					<dim>1</dim>
				</port>
			</output>
		</layer>
		<layer id="88" name="Multiply_26794" type="Convolution" version="opset1">
			<data strides="1, 1" dilations="1, 1" pads_begin="0, 0" pads_end="0, 0" auto_pad="same_upper" />
			<input>
				<port id="0" precision="FP32">
					<dim>-1</dim>
					<dim>96</dim>
					<dim>56</dim>
					<dim>56</dim>
				</port>
				<port id="1" precision="FP32">
					<dim>24</dim>
					<dim>96</dim>
					<dim>1</dim>
					<dim>1</dim>
				</port>
			</input>
			<output>
				<port id="2" precision="FP32">
					<dim>-1</dim>
					<dim>24</dim>
					<dim>56</dim>
					<dim>56</dim>
				</port>
			</output>
		</layer>
		<layer id="89" name="Constant_26802" type="Const" version="opset1">
			<data element_type="f32" shape="1, 24, 1, 1" offset="10272" size="96" />
			<output>
				<port id="0" precision="FP32">
					<dim>1</dim>
					<dim>24</dim>
					<dim>1</dim>
					<dim>1</dim>
				</port>
			</output>
		</layer>
		<layer id="90" name="Transpose_15308" type="Add" version="opset1">
			<data auto_broadcast="numpy" />
			<input>
				<port id="0" precision="FP32">
					<dim>-1</dim>
					<dim>24</dim>
					<dim>56</dim>
					<dim>56</dim>
				</port>
				<port id="1" precision="FP32">
					<dim>1</dim>
					<dim>24</dim>
					<dim>1</dim>
					<dim>1</dim>
				</port>
			</input>
			<output>
				<port id="2" precision="FP32">
					<dim>-1</dim>
					<dim>24</dim>
					<dim>56</dim>
					<dim>56</dim>
				</port>
			</output>
		</layer>
		<layer id="91" name="Transpose_15312" type="Const" version="opset1">
			<data element_type="f32" shape="1, 1, 1, 1" offset="10368" size="4" />
			<output>
				<port id="0" precision="FP32">
					<dim>1</dim>
					<dim>1</dim>
					<dim>1</dim>
					<dim>1</dim>
				</port>
			</output>
		</layer>
		<layer id="92" name="Transpose_15316" type="Const" version="opset1">
			<data element_type="f32" shape="1, 1, 1, 1" offset="10372" size="4" />
			<output>
				<port id="0" precision="FP32">
					<dim>1</dim>
					<dim>1</dim>
					<dim>1</dim>
					<dim>1</dim>
				</port>
			</output>
		</layer>
		<layer id="93" name="Transpose_15320" type="Const" version="opset1">
			<data element_type="f32" shape="1, 1, 1, 1" offset="10368" size="4" />
			<output>
				<port id="0" precision="FP32">
					<dim>1</dim>
					<dim>1</dim>
					<dim>1</dim>
					<dim>1</dim>
				</port>
			</output>
		</layer>
		<layer id="94" name="Transpose_15324" type="Const" version="opset1">
			<data element_type="f32" shape="1, 1, 1, 1" offset="10372" size="4" />
			<output>
				<port id="0" precision="FP32">
					<dim>1</dim>
					<dim>1</dim>
					<dim>1</dim>
					<dim>1</dim>
				</port>
			</output>
		</layer>
		<layer id="95" name="Transpose_15326" type="FakeQuantize" version="opset1">
			<data levels="256" auto_broadcast="numpy" />
			<input>
				<port id="0" precision="FP32">
					<dim>-1</dim>
					<dim>24</dim>
					<dim>56</dim>
					<dim>56</dim>
				</port>
				<port id="1" precision="FP32">
					<dim>1</dim>
					<dim>1</dim>
					<dim>1</dim>
					<dim>1</dim>
				</port>
				<port id="2" precision="FP32">
					<dim>1</dim>
					<dim>1</dim>
					<dim>1</dim>
					<dim>1</dim>
				</port>
				<port id="3" precision="FP32">
					<dim>1</dim>
					<dim>1</dim>
					<dim>1</dim>
					<dim>1</dim>
				</port>
				<port id="4" precision="FP32">
					<dim>1</dim>
					<dim>1</dim>
					<dim>1</dim>
					<dim>1</dim>
				</port>
			</input>
			<output>
				<port id="5" precision="FP32">
					<dim>-1</dim>
					<dim>24</dim>
					<dim>56</dim>
					<dim>56</dim>
				</port>
			</output>
		</layer>
		<layer id="96" name="Constant_28252" type="Const" version="opset1">
			<data element_type="i8" shape="144, 24, 1, 1" offset="10376" size="3456" />
			<output>
				<port id="0" precision="I8">
					<dim>144</dim>
					<dim>24</dim>
					<dim>1</dim>
					<dim>1</dim>
				</port>
			</output>
		</layer>
		<layer id="97" name="Convert_28253" type="Convert" version="opset1">
			<data destination_type="f32" />
			<input>
				<port id="0" precision="I8">
					<dim>144</dim>
					<dim>24</dim>
					<dim>1</dim>
					<dim>1</dim>
				</port>
			</input>
			<output>
				<port id="1" precision="FP32">
					<dim>144</dim>
					<dim>24</dim>
					<dim>1</dim>
					<dim>1</dim>
				</port>
			</output>
		</layer>
		<layer id="98" name="Constant_28254" type="Const" version="opset1">
			<data element_type="f32" shape="144, 1, 1, 1" offset="13832" size="576" />
			<output>
				<port id="0" precision="FP32">
					<dim>144</dim>
					<dim>1</dim>
					<dim>1</dim>
					<dim>1</dim>
				</port>
			</output>
		</layer>
		<layer id="99" name="Multiply_27472" type="Multiply" version="opset1">
			<data auto_broadcast="numpy" />
			<input>
				<port id="0" precision="FP32">
					<dim>144</dim>
					<dim>24</dim>
					<dim>1</dim>
					<dim>1</dim>
				</port>
				<port id="1" precision="FP32">
					<dim>144</dim>
					<dim>1</dim>
					<dim>1</dim>
					<dim>1</dim>
				</port>
			</input>
			<output>
				<port id="2" precision="FP32">
					<dim>144</dim>
					<dim>24</dim>
					<dim>1</dim>
					<dim>1</dim>
				</port>
			</output>
		</layer>
		<layer id="100" name="Multiply_26808" type="Convolution" version="opset1">
			<data strides="1, 1" dilations="1, 1" pads_begin="0, 0" pads_end="0, 0" auto_pad="same_upper" />
			<input>
				<port id="0" precision="FP32">
					<dim>-1</dim>
					<dim>24</dim>
					<dim>56</dim>
					<dim>56</dim>
				</port>
				<port id="1" precision="FP32">
					<dim>144</dim>
					<dim>24</dim>
					<dim>1</dim>
					<dim>1</dim>
				</port>
			</input>
			<output>
				<port id="2" precision="FP32">
					<dim>-1</dim>
					<dim>144</dim>
					<dim>56</dim>
					<dim>56</dim>
				</port>
			</output>
		</layer>
		<layer id="101" name="Constant_26816" type="Const" version="opset1">
			<data element_type="f32" shape="1, 144, 1, 1" offset="14408" size="576" />
			<output>
				<port id="0" precision="FP32">
					<dim>1</dim>
					<dim>144</dim>
					<dim>1</dim>
					<dim>1</dim>
				</port>
			</output>
		</layer>
		<layer id="102" name="Transpose_15378" type="Add" version="opset1">
			<data auto_broadcast="numpy" />
			<input>
				<port id="0" precision="FP32">
					<dim>-1</dim>
					<dim>144</dim>
					<dim>56</dim>
					<dim>56</dim>
				</port>
				<port id="1" precision="FP32">
					<dim>1</dim>
					<dim>144</dim>
					<dim>1</dim>
					<dim>1</dim>
				</port>
			</input>
			<output>
				<port id="2" precision="FP32">
					<dim>-1</dim>
					<dim>144</dim>
					<dim>56</dim>
					<dim>56</dim>
				</port>
			</output>
		</layer>
		<layer id="103" name="Transpose_15380" type="Clamp" version="opset1">
			<data min="0" max="6" />
			<input>
				<port id="0" precision="FP32">
					<dim>-1</dim>
					<dim>144</dim>
					<dim>56</dim>
					<dim>56</dim>
				</port>
			</input>
			<output>
				<port id="1" precision="FP32">
					<dim>-1</dim>
					<dim>144</dim>
					<dim>56</dim>
					<dim>56</dim>
				</port>
			</output>
		</layer>
		<layer id="104" name="Transpose_15384" type="Const" version="opset1">
			<data element_type="f32" shape="1, 144, 1, 1" offset="14984" size="576" />
			<output>
				<port id="0" precision="FP32">
					<dim>1</dim>
					<dim>144</dim>
					<dim>1</dim>
					<dim>1</dim>
				</port>
			</output>
		</layer>
		<layer id="105" name="Transpose_15388" type="Const" version="opset1">
			<data element_type="f32" shape="1, 144, 1, 1" offset="15560" size="576" />
			<output>
				<port id="0" precision="FP32">
					<dim>1</dim>
					<dim>144</dim>
					<dim>1</dim>
					<dim>1</dim>
				</port>
			</output>
		</layer>
		<layer id="106" name="Transpose_15392" type="Const" version="opset1">
			<data element_type="f32" shape="1, 144, 1, 1" offset="14984" size="576" />
			<output>
				<port id="0" precision="FP32">
					<dim>1</dim>
					<dim>144</dim>
					<dim>1</dim>
					<dim>1</dim>
				</port>
			</output>
		</layer>
		<layer id="107" name="Transpose_15396" type="Const" version="opset1">
			<data element_type="f32" shape="1, 144, 1, 1" offset="15560" size="576" />
			<output>
				<port id="0" precision="FP32">
					<dim>1</dim>
					<dim>144</dim>
					<dim>1</dim>
					<dim>1</dim>
				</port>
			</output>
		</layer>
		<layer id="108" name="Transpose_15398" type="FakeQuantize" version="opset1">
			<data levels="256" auto_broadcast="numpy" />
			<input>
				<port id="0" precision="FP32">
					<dim>-1</dim>
					<dim>144</dim>
					<dim>56</dim>
					<dim>56</dim>
				</port>
				<port id="1" precision="FP32">
					<dim>1</dim>
					<dim>144</dim>
					<dim>1</dim>
					<dim>1</dim>
				</port>
				<port id="2" precision="FP32">
					<dim>1</dim>
					<dim>144</dim>
					<dim>1</dim>
					<dim>1</dim>
				</port>
				<port id="3" precision="FP32">
					<dim>1</dim>
					<dim>144</dim>
					<dim>1</dim>
					<dim>1</dim>
				</port>
				<port id="4" precision="FP32">
					<dim>1</dim>
					<dim>144</dim>
					<dim>1</dim>
					<dim>1</dim>
				</port>
			</input>
			<output>
				<port id="5" precision="FP32">
					<dim>-1</dim>
					<dim>144</dim>
					<dim>56</dim>
					<dim>56</dim>
				</port>
			</output>
		</layer>
		<layer id="109" name="Constant_28256" type="Const" version="opset1">
			<data element_type="i8" shape="3, 3, 144, 1" offset="16136" size="1296" />
			<output>
				<port id="0" precision="I8">
					<dim>3</dim>
					<dim>3</dim>
					<dim>144</dim>
					<dim>1</dim>
				</port>
			</output>
		</layer>
		<layer id="110" name="Convert_28257" type="Convert" version="opset1">
			<data destination_type="f32" />
			<input>
				<port id="0" precision="I8">
					<dim>3</dim>
					<dim>3</dim>
					<dim>144</dim>
					<dim>1</dim>
				</port>
			</input>
			<output>
				<port id="1" precision="FP32">
					<dim>3</dim>
					<dim>3</dim>
					<dim>144</dim>
					<dim>1</dim>
				</port>
			</output>
		</layer>
		<layer id="111" name="Constant_28258" type="Const" version="opset1">
			<data element_type="f32" shape="1, 1, 144, 1" offset="17432" size="576" />
			<output>
				<port id="0" precision="FP32">
					<dim>1</dim>
					<dim>1</dim>
					<dim>144</dim>
					<dim>1</dim>
				</port>
			</output>
		</layer>
		<layer id="112" name="mobilenetv2_1.00_224/block_2_depthwise/Reshape_1" type="Multiply" version="opset1">
			<data auto_broadcast="numpy" />
			<input>
				<port id="0" precision="FP32">
					<dim>3</dim>
					<dim>3</dim>
					<dim>144</dim>
					<dim>1</dim>
				</port>
				<port id="1" precision="FP32">
					<dim>1</dim>
					<dim>1</dim>
					<dim>144</dim>
					<dim>1</dim>
				</port>
			</input>
			<output>
				<port id="2" precision="FP32" names="mobilenetv2_1.00_224/block_2_depthwise/Reshape_1,mobilenetv2_1.00_224/block_2_depthwise/Reshape_1:0">
					<dim>3</dim>
					<dim>3</dim>
					<dim>144</dim>
					<dim>1</dim>
				</port>
			</output>
		</layer>
		<layer id="113" name="Constant_23744" type="Const" version="opset1">
			<data element_type="i64" shape="4" offset="1832" size="32" />
			<output>
				<port id="0" precision="I64">
					<dim>4</dim>
				</port>
			</output>
		</layer>
		<layer id="114" name="Transpose_23745" type="Transpose" version="opset1">
			<input>
				<port id="0" precision="FP32">
					<dim>3</dim>
					<dim>3</dim>
					<dim>144</dim>
					<dim>1</dim>
				</port>
				<port id="1" precision="I64">
					<dim>4</dim>
				</port>
			</input>
			<output>
				<port id="2" precision="FP32">
					<dim>144</dim>
					<dim>1</dim>
					<dim>3</dim>
					<dim>3</dim>
				</port>
			</output>
		</layer>
		<layer id="115" name="Constant_23746" type="Const" version="opset1">
			<data element_type="i64" shape="1" offset="1864" size="8" />
			<output>
				<port id="0" precision="I64">
					<dim>1</dim>
				</port>
			</output>
		</layer>
		<layer id="116" name="Transpose_12027" type="Unsqueeze" version="opset1">
			<input>
				<port id="0" precision="FP32">
					<dim>144</dim>
					<dim>1</dim>
					<dim>3</dim>
					<dim>3</dim>
				</port>
				<port id="1" precision="I64">
					<dim>1</dim>
				</port>
			</input>
			<output>
				<port id="2" precision="FP32">
					<dim>144</dim>
					<dim>1</dim>
					<dim>1</dim>
					<dim>3</dim>
					<dim>3</dim>
				</port>
			</output>
		</layer>
		<layer id="117" name="Reshape_27475" type="Const" version="opset1">
			<data element_type="f32" shape="144, 1, 1, 1, 1" offset="18008" size="576" />
			<output>
				<port id="0" precision="FP32">
					<dim>144</dim>
					<dim>1</dim>
					<dim>1</dim>
					<dim>1</dim>
					<dim>1</dim>
				</port>
			</output>
		</layer>
		<layer id="118" name="Multiply_27476" type="Multiply" version="opset1">
			<data auto_broadcast="numpy" />
			<input>
				<port id="0" precision="FP32">
					<dim>144</dim>
					<dim>1</dim>
					<dim>1</dim>
					<dim>3</dim>
					<dim>3</dim>
				</port>
				<port id="1" precision="FP32">
					<dim>144</dim>
					<dim>1</dim>
					<dim>1</dim>
					<dim>1</dim>
					<dim>1</dim>
				</port>
			</input>
			<output>
				<port id="2" precision="FP32">
					<dim>144</dim>
					<dim>1</dim>
					<dim>1</dim>
					<dim>3</dim>
					<dim>3</dim>
				</port>
			</output>
		</layer>
		<layer id="119" name="Multiply_26822" type="GroupConvolution" version="opset1">
			<data strides="1, 1" pads_begin="0, 0" pads_end="0, 0" dilations="1, 1" auto_pad="same_upper" />
			<input>
				<port id="0" precision="FP32">
					<dim>-1</dim>
					<dim>144</dim>
					<dim>56</dim>
					<dim>56</dim>
				</port>
				<port id="1" precision="FP32">
					<dim>144</dim>
					<dim>1</dim>
					<dim>1</dim>
					<dim>3</dim>
					<dim>3</dim>
				</port>
			</input>
			<output>
				<port id="2" precision="FP32">
					<dim>-1</dim>
					<dim>144</dim>
					<dim>56</dim>
					<dim>56</dim>
				</port>
			</output>
		</layer>
		<layer id="120" name="Constant_26830" type="Const" version="opset1">
			<data element_type="f32" shape="1, 144, 1, 1" offset="18584" size="576" />
			<output>
				<port id="0" precision="FP32">
					<dim>1</dim>
					<dim>144</dim>
					<dim>1</dim>
					<dim>1</dim>
				</port>
			</output>
		</layer>
		<layer id="121" name="Transpose_15450" type="Add" version="opset1">
			<data auto_broadcast="numpy" />
			<input>
				<port id="0" precision="FP32">
					<dim>-1</dim>
					<dim>144</dim>
					<dim>56</dim>
					<dim>56</dim>
				</port>
				<port id="1" precision="FP32">
					<dim>1</dim>
					<dim>144</dim>
					<dim>1</dim>
					<dim>1</dim>
				</port>
			</input>
			<output>
				<port id="2" precision="FP32">
					<dim>-1</dim>
					<dim>144</dim>
					<dim>56</dim>
					<dim>56</dim>
				</port>
			</output>
		</layer>
		<layer id="122" name="Transpose_15452" type="Clamp" version="opset1">
			<data min="0" max="6" />
			<input>
				<port id="0" precision="FP32">
					<dim>-1</dim>
					<dim>144</dim>
					<dim>56</dim>
					<dim>56</dim>
				</port>
			</input>
			<output>
				<port id="1" precision="FP32">
					<dim>-1</dim>
					<dim>144</dim>
					<dim>56</dim>
					<dim>56</dim>
				</port>
			</output>
		</layer>
		<layer id="123" name="Transpose_15456" type="Const" version="opset1">
			<data element_type="f32" shape="1, 1, 1, 1" offset="2128" size="4" />
			<output>
				<port id="0" precision="FP32">
					<dim>1</dim>
					<dim>1</dim>
					<dim>1</dim>
					<dim>1</dim>
				</port>
			</output>
		</layer>
		<layer id="124" name="Transpose_15460" type="Const" version="opset1">
			<data element_type="f32" shape="1, 1, 1, 1" offset="2132" size="4" />
			<output>
				<port id="0" precision="FP32">
					<dim>1</dim>
					<dim>1</dim>
					<dim>1</dim>
					<dim>1</dim>
				</port>
			</output>
		</layer>
		<layer id="125" name="Transpose_15464" type="Const" version="opset1">
			<data element_type="f32" shape="1, 1, 1, 1" offset="2128" size="4" />
			<output>
				<port id="0" precision="FP32">
					<dim>1</dim>
					<dim>1</dim>
					<dim>1</dim>
					<dim>1</dim>
				</port>
			</output>
		</layer>
		<layer id="126" name="Transpose_15468" type="Const" version="opset1">
			<data element_type="f32" shape="1, 1, 1, 1" offset="2132" size="4" />
			<output>
				<port id="0" precision="FP32">
					<dim>1</dim>
					<dim>1</dim>
					<dim>1</dim>
					<dim>1</dim>
				</port>
			</output>
		</layer>
		<layer id="127" name="Transpose_15470" type="FakeQuantize" version="opset1">
			<data levels="256" auto_broadcast="numpy" />
			<input>
				<port id="0" precision="FP32">
					<dim>-1</dim>
					<dim>144</dim>
					<dim>56</dim>
					<dim>56</dim>
				</port>
				<port id="1" precision="FP32">
					<dim>1</dim>
					<dim>1</dim>
					<dim>1</dim>
					<dim>1</dim>
				</port>
				<port id="2" precision="FP32">
					<dim>1</dim>
					<dim>1</dim>
					<dim>1</dim>
					<dim>1</dim>
				</port>
				<port id="3" precision="FP32">
					<dim>1</dim>
					<dim>1</dim>
					<dim>1</dim>
					<dim>1</dim>
				</port>
				<port id="4" precision="FP32">
					<dim>1</dim>
					<dim>1</dim>
					<dim>1</dim>
					<dim>1</dim>
				</port>
			</input>
			<output>
				<port id="5" precision="FP32">
					<dim>-1</dim>
					<dim>144</dim>
					<dim>56</dim>
					<dim>56</dim>
				</port>
			</output>
		</layer>
		<layer id="128" name="Constant_28260" type="Const" version="opset1">
			<data element_type="i8" shape="24, 144, 1, 1" offset="19160" size="3456" />
			<output>
				<port id="0" precision="I8">
					<dim>24</dim>
					<dim>144</dim>
					<dim>1</dim>
					<dim>1</dim>
				</port>
			</output>
		</layer>
		<layer id="129" name="Convert_28261" type="Convert" version="opset1">
			<data destination_type="f32" />
			<input>
				<port id="0" precision="I8">
					<dim>24</dim>
					<dim>144</dim>
					<dim>1</dim>
					<dim>1</dim>
				</port>
			</input>
			<output>
				<port id="1" precision="FP32">
					<dim>24</dim>
					<dim>144</dim>
					<dim>1</dim>
					<dim>1</dim>
				</port>
			</output>
		</layer>
		<layer id="130" name="Constant_28262" type="Const" version="opset1">
			<data element_type="f32" shape="24, 1, 1, 1" offset="22616" size="96" />
			<output>
				<port id="0" precision="FP32">
					<dim>24</dim>
					<dim>1</dim>
					<dim>1</dim>
					<dim>1</dim>
				</port>
			</output>
		</layer>
		<layer id="131" name="Multiply_27479" type="Multiply" version="opset1">
			<data auto_broadcast="numpy" />
			<input>
				<port id="0" precision="FP32">
					<dim>24</dim>
					<dim>144</dim>
					<dim>1</dim>
					<dim>1</dim>
				</port>
				<port id="1" precision="FP32">
					<dim>24</dim>
					<dim>1</dim>
					<dim>1</dim>
					<dim>1</dim>
				</port>
			</input>
			<output>
				<port id="2" precision="FP32">
					<dim>24</dim>
					<dim>144</dim>
					<dim>1</dim>
					<dim>1</dim>
				</port>
			</output>
		</layer>
		<layer id="132" name="Multiply_26836" type="Convolution" version="opset1">
			<data strides="1, 1" dilations="1, 1" pads_begin="0, 0" pads_end="0, 0" auto_pad="same_upper" />
			<input>
				<port id="0" precision="FP32">
					<dim>-1</dim>
					<dim>144</dim>
					<dim>56</dim>
					<dim>56</dim>
				</port>
				<port id="1" precision="FP32">
					<dim>24</dim>
					<dim>144</dim>
					<dim>1</dim>
					<dim>1</dim>
				</port>
			</input>
			<output>
				<port id="2" precision="FP32">
					<dim>-1</dim>
					<dim>24</dim>
					<dim>56</dim>
					<dim>56</dim>
				</port>
			</output>
		</layer>
		<layer id="133" name="Constant_26844" type="Const" version="opset1">
			<data element_type="f32" shape="1, 24, 1, 1" offset="22712" size="96" />
			<output>
				<port id="0" precision="FP32">
					<dim>1</dim>
					<dim>24</dim>
					<dim>1</dim>
					<dim>1</dim>
				</port>
			</output>
		</layer>
		<layer id="134" name="Transpose_15522" type="Add" version="opset1">
			<data auto_broadcast="numpy" />
			<input>
				<port id="0" precision="FP32">
					<dim>-1</dim>
					<dim>24</dim>
					<dim>56</dim>
					<dim>56</dim>
				</port>
				<port id="1" precision="FP32">
					<dim>1</dim>
					<dim>24</dim>
					<dim>1</dim>
					<dim>1</dim>
				</port>
			</input>
			<output>
				<port id="2" precision="FP32">
					<dim>-1</dim>
					<dim>24</dim>
					<dim>56</dim>
					<dim>56</dim>
				</port>
			</output>
		</layer>
		<layer id="135" name="Transpose_15526" type="Const" version="opset1">
			<data element_type="f32" shape="1, 1, 1, 1" offset="22808" size="4" />
			<output>
				<port id="0" precision="FP32">
					<dim>1</dim>
					<dim>1</dim>
					<dim>1</dim>
					<dim>1</dim>
				</port>
			</output>
		</layer>
		<layer id="136" name="Transpose_15530" type="Const" version="opset1">
			<data element_type="f32" shape="1, 1, 1, 1" offset="22812" size="4" />
			<output>
				<port id="0" precision="FP32">
					<dim>1</dim>
					<dim>1</dim>
					<dim>1</dim>
					<dim>1</dim>
				</port>
			</output>
		</layer>
		<layer id="137" name="Transpose_15534" type="Const" version="opset1">
			<data element_type="f32" shape="1, 1, 1, 1" offset="22808" size="4" />
			<output>
				<port id="0" precision="FP32">
					<dim>1</dim>
					<dim>1</dim>
					<dim>1</dim>
					<dim>1</dim>
				</port>
			</output>
		</layer>
		<layer id="138" name="Transpose_15538" type="Const" version="opset1">
			<data element_type="f32" shape="1, 1, 1, 1" offset="22812" size="4" />
			<output>
				<port id="0" precision="FP32">
					<dim>1</dim>
					<dim>1</dim>
					<dim>1</dim>
					<dim>1</dim>
				</port>
			</output>
		</layer>
		<layer id="139" name="Transpose_15540" type="FakeQuantize" version="opset1">
			<data levels="256" auto_broadcast="numpy" />
			<input>
				<port id="0" precision="FP32">
					<dim>-1</dim>
					<dim>24</dim>
					<dim>56</dim>
					<dim>56</dim>
				</port>
				<port id="1" precision="FP32">
					<dim>1</dim>
					<dim>1</dim>
					<dim>1</dim>
					<dim>1</dim>
				</port>
				<port id="2" precision="FP32">
					<dim>1</dim>
					<dim>1</dim>
					<dim>1</dim>
					<dim>1</dim>
				</port>
				<port id="3" precision="FP32">
					<dim>1</dim>
					<dim>1</dim>
					<dim>1</dim>
					<dim>1</dim>
				</port>
				<port id="4" precision="FP32">
					<dim>1</dim>
					<dim>1</dim>
					<dim>1</dim>
					<dim>1</dim>
				</port>
			</input>
			<output>
				<port id="5" precision="FP32">
					<dim>-1</dim>
					<dim>24</dim>
					<dim>56</dim>
					<dim>56</dim>
				</port>
			</output>
		</layer>
		<layer id="140" name="Transpose_15544" type="Add" version="opset1">
			<data auto_broadcast="numpy" />
			<input>
				<port id="0" precision="FP32">
					<dim>-1</dim>
					<dim>24</dim>
					<dim>56</dim>
					<dim>56</dim>
				</port>
				<port id="1" precision="FP32">
					<dim>-1</dim>
					<dim>24</dim>
					<dim>56</dim>
					<dim>56</dim>
				</port>
			</input>
			<output>
				<port id="2" precision="FP32">
					<dim>-1</dim>
					<dim>24</dim>
					<dim>56</dim>
					<dim>56</dim>
				</port>
			</output>
		</layer>
		<layer id="141" name="Transpose_15548" type="Const" version="opset1">
			<data element_type="f32" shape="1, 1, 1, 1" offset="22816" size="4" />
			<output>
				<port id="0" precision="FP32">
					<dim>1</dim>
					<dim>1</dim>
					<dim>1</dim>
					<dim>1</dim>
				</port>
			</output>
		</layer>
		<layer id="142" name="Transpose_15552" type="Const" version="opset1">
			<data element_type="f32" shape="1, 1, 1, 1" offset="22820" size="4" />
			<output>
				<port id="0" precision="FP32">
					<dim>1</dim>
					<dim>1</dim>
					<dim>1</dim>
					<dim>1</dim>
				</port>
			</output>
		</layer>
		<layer id="143" name="Transpose_15556" type="Const" version="opset1">
			<data element_type="f32" shape="1, 1, 1, 1" offset="22816" size="4" />
			<output>
				<port id="0" precision="FP32">
					<dim>1</dim>
					<dim>1</dim>
					<dim>1</dim>
					<dim>1</dim>
				</port>
			</output>
		</layer>
		<layer id="144" name="Transpose_15560" type="Const" version="opset1">
			<data element_type="f32" shape="1, 1, 1, 1" offset="22820" size="4" />
			<output>
				<port id="0" precision="FP32">
					<dim>1</dim>
					<dim>1</dim>
					<dim>1</dim>
					<dim>1</dim>
				</port>
			</output>
		</layer>
		<layer id="145" name="Transpose_15562" type="FakeQuantize" version="opset1">
			<data levels="256" auto_broadcast="numpy" />
			<input>
				<port id="0" precision="FP32">
					<dim>-1</dim>
					<dim>24</dim>
					<dim>56</dim>
					<dim>56</dim>
				</port>
				<port id="1" precision="FP32">
					<dim>1</dim>
					<dim>1</dim>
					<dim>1</dim>
					<dim>1</dim>
				</port>
				<port id="2" precision="FP32">
					<dim>1</dim>
					<dim>1</dim>
					<dim>1</dim>
					<dim>1</dim>
				</port>
				<port id="3" precision="FP32">
					<dim>1</dim>
					<dim>1</dim>
					<dim>1</dim>
					<dim>1</dim>
				</port>
				<port id="4" precision="FP32">
					<dim>1</dim>
					<dim>1</dim>
					<dim>1</dim>
					<dim>1</dim>
				</port>
			</input>
			<output>
				<port id="5" precision="FP32">
					<dim>-1</dim>
					<dim>24</dim>
					<dim>56</dim>
					<dim>56</dim>
				</port>
			</output>
		</layer>
		<layer id="146" name="Constant_28264" type="Const" version="opset1">
			<data element_type="i8" shape="144, 24, 1, 1" offset="22824" size="3456" />
			<output>
				<port id="0" precision="I8">
					<dim>144</dim>
					<dim>24</dim>
					<dim>1</dim>
					<dim>1</dim>
				</port>
			</output>
		</layer>
		<layer id="147" name="Convert_28265" type="Convert" version="opset1">
			<data destination_type="f32" />
			<input>
				<port id="0" precision="I8">
					<dim>144</dim>
					<dim>24</dim>
					<dim>1</dim>
					<dim>1</dim>
				</port>
			</input>
			<output>
				<port id="1" precision="FP32">
					<dim>144</dim>
					<dim>24</dim>
					<dim>1</dim>
					<dim>1</dim>
				</port>
			</output>
		</layer>
		<layer id="148" name="Constant_28266" type="Const" version="opset1">
			<data element_type="f32" shape="144, 1, 1, 1" offset="26280" size="576" />
			<output>
				<port id="0" precision="FP32">
					<dim>144</dim>
					<dim>1</dim>
					<dim>1</dim>
					<dim>1</dim>
				</port>
			</output>
		</layer>
		<layer id="149" name="Multiply_27483" type="Multiply" version="opset1">
			<data auto_broadcast="numpy" />
			<input>
				<port id="0" precision="FP32">
					<dim>144</dim>
					<dim>24</dim>
					<dim>1</dim>
					<dim>1</dim>
				</port>
				<port id="1" precision="FP32">
					<dim>144</dim>
					<dim>1</dim>
					<dim>1</dim>
					<dim>1</dim>
				</port>
			</input>
			<output>
				<port id="2" precision="FP32">
					<dim>144</dim>
					<dim>24</dim>
					<dim>1</dim>
					<dim>1</dim>
				</port>
			</output>
		</layer>
		<layer id="150" name="Multiply_26850" type="Convolution" version="opset1">
			<data strides="1, 1" dilations="1, 1" pads_begin="0, 0" pads_end="0, 0" auto_pad="same_upper" />
			<input>
				<port id="0" precision="FP32">
					<dim>-1</dim>
					<dim>24</dim>
					<dim>56</dim>
					<dim>56</dim>
				</port>
				<port id="1" precision="FP32">
					<dim>144</dim>
					<dim>24</dim>
					<dim>1</dim>
					<dim>1</dim>
				</port>
			</input>
			<output>
				<port id="2" precision="FP32">
					<dim>-1</dim>
					<dim>144</dim>
					<dim>56</dim>
					<dim>56</dim>
				</port>
			</output>
		</layer>
		<layer id="151" name="Constant_26858" type="Const" version="opset1">
			<data element_type="f32" shape="1, 144, 1, 1" offset="26856" size="576" />
			<output>
				<port id="0" precision="FP32">
					<dim>1</dim>
					<dim>144</dim>
					<dim>1</dim>
					<dim>1</dim>
				</port>
			</output>
		</layer>
		<layer id="152" name="Transpose_15614" type="Add" version="opset1">
			<data auto_broadcast="numpy" />
			<input>
				<port id="0" precision="FP32">
					<dim>-1</dim>
					<dim>144</dim>
					<dim>56</dim>
					<dim>56</dim>
				</port>
				<port id="1" precision="FP32">
					<dim>1</dim>
					<dim>144</dim>
					<dim>1</dim>
					<dim>1</dim>
				</port>
			</input>
			<output>
				<port id="2" precision="FP32">
					<dim>-1</dim>
					<dim>144</dim>
					<dim>56</dim>
					<dim>56</dim>
				</port>
			</output>
		</layer>
		<layer id="153" name="Transpose_15616" type="Clamp" version="opset1">
			<data min="0" max="6" />
			<input>
				<port id="0" precision="FP32">
					<dim>-1</dim>
					<dim>144</dim>
					<dim>56</dim>
					<dim>56</dim>
				</port>
			</input>
			<output>
				<port id="1" precision="FP32">
					<dim>-1</dim>
					<dim>144</dim>
					<dim>56</dim>
					<dim>56</dim>
				</port>
			</output>
		</layer>
		<layer id="154" name="Transpose_15620" type="Const" version="opset1">
			<data element_type="f32" shape="1, 144, 1, 1" offset="14984" size="576" />
			<output>
				<port id="0" precision="FP32">
					<dim>1</dim>
					<dim>144</dim>
					<dim>1</dim>
					<dim>1</dim>
				</port>
			</output>
		</layer>
		<layer id="155" name="Transpose_15624" type="Const" version="opset1">
			<data element_type="f32" shape="1, 144, 1, 1" offset="27432" size="576" />
			<output>
				<port id="0" precision="FP32">
					<dim>1</dim>
					<dim>144</dim>
					<dim>1</dim>
					<dim>1</dim>
				</port>
			</output>
		</layer>
		<layer id="156" name="Transpose_15628" type="Const" version="opset1">
			<data element_type="f32" shape="1, 144, 1, 1" offset="14984" size="576" />
			<output>
				<port id="0" precision="FP32">
					<dim>1</dim>
					<dim>144</dim>
					<dim>1</dim>
					<dim>1</dim>
				</port>
			</output>
		</layer>
		<layer id="157" name="Transpose_15632" type="Const" version="opset1">
			<data element_type="f32" shape="1, 144, 1, 1" offset="27432" size="576" />
			<output>
				<port id="0" precision="FP32">
					<dim>1</dim>
					<dim>144</dim>
					<dim>1</dim>
					<dim>1</dim>
				</port>
			</output>
		</layer>
		<layer id="158" name="Transpose_15634" type="FakeQuantize" version="opset1">
			<data levels="256" auto_broadcast="numpy" />
			<input>
				<port id="0" precision="FP32">
					<dim>-1</dim>
					<dim>144</dim>
					<dim>56</dim>
					<dim>56</dim>
				</port>
				<port id="1" precision="FP32">
					<dim>1</dim>
					<dim>144</dim>
					<dim>1</dim>
					<dim>1</dim>
				</port>
				<port id="2" precision="FP32">
					<dim>1</dim>
					<dim>144</dim>
					<dim>1</dim>
					<dim>1</dim>
				</port>
				<port id="3" precision="FP32">
					<dim>1</dim>
					<dim>144</dim>
					<dim>1</dim>
					<dim>1</dim>
				</port>
				<port id="4" precision="FP32">
					<dim>1</dim>
					<dim>144</dim>
					<dim>1</dim>
					<dim>1</dim>
				</port>
			</input>
			<output>
				<port id="5" precision="FP32">
					<dim>-1</dim>
					<dim>144</dim>
					<dim>56</dim>
					<dim>56</dim>
				</port>
			</output>
		</layer>
		<layer id="159" name="Constant_28268" type="Const" version="opset1">
			<data element_type="i8" shape="3, 3, 144, 1" offset="28008" size="1296" />
			<output>
				<port id="0" precision="I8">
					<dim>3</dim>
					<dim>3</dim>
					<dim>144</dim>
					<dim>1</dim>
				</port>
			</output>
		</layer>
		<layer id="160" name="Convert_28269" type="Convert" version="opset1">
			<data destination_type="f32" />
			<input>
				<port id="0" precision="I8">
					<dim>3</dim>
					<dim>3</dim>
					<dim>144</dim>
					<dim>1</dim>
				</port>
			</input>
			<output>
				<port id="1" precision="FP32">
					<dim>3</dim>
					<dim>3</dim>
					<dim>144</dim>
					<dim>1</dim>
				</port>
			</output>
		</layer>
		<layer id="161" name="Constant_28270" type="Const" version="opset1">
			<data element_type="f32" shape="1, 1, 144, 1" offset="29304" size="576" />
			<output>
				<port id="0" precision="FP32">
					<dim>1</dim>
					<dim>1</dim>
					<dim>144</dim>
					<dim>1</dim>
				</port>
			</output>
		</layer>
		<layer id="162" name="mobilenetv2_1.00_224/block_3_depthwise/Reshape_1" type="Multiply" version="opset1">
			<data auto_broadcast="numpy" />
			<input>
				<port id="0" precision="FP32">
					<dim>3</dim>
					<dim>3</dim>
					<dim>144</dim>
					<dim>1</dim>
				</port>
				<port id="1" precision="FP32">
					<dim>1</dim>
					<dim>1</dim>
					<dim>144</dim>
					<dim>1</dim>
				</port>
			</input>
			<output>
				<port id="2" precision="FP32" names="mobilenetv2_1.00_224/block_3_depthwise/Reshape_1,mobilenetv2_1.00_224/block_3_depthwise/Reshape_1:0">
					<dim>3</dim>
					<dim>3</dim>
					<dim>144</dim>
					<dim>1</dim>
				</port>
			</output>
		</layer>
		<layer id="163" name="Constant_23816" type="Const" version="opset1">
			<data element_type="i64" shape="4" offset="1832" size="32" />
			<output>
				<port id="0" precision="I64">
					<dim>4</dim>
				</port>
			</output>
		</layer>
		<layer id="164" name="Transpose_23817" type="Transpose" version="opset1">
			<input>
				<port id="0" precision="FP32">
					<dim>3</dim>
					<dim>3</dim>
					<dim>144</dim>
					<dim>1</dim>
				</port>
				<port id="1" precision="I64">
					<dim>4</dim>
				</port>
			</input>
			<output>
				<port id="2" precision="FP32">
					<dim>144</dim>
					<dim>1</dim>
					<dim>3</dim>
					<dim>3</dim>
				</port>
			</output>
		</layer>
		<layer id="165" name="Constant_23818" type="Const" version="opset1">
			<data element_type="i64" shape="1" offset="1864" size="8" />
			<output>
				<port id="0" precision="I64">
					<dim>1</dim>
				</port>
			</output>
		</layer>
		<layer id="166" name="Transpose_12214" type="Unsqueeze" version="opset1">
			<input>
				<port id="0" precision="FP32">
					<dim>144</dim>
					<dim>1</dim>
					<dim>3</dim>
					<dim>3</dim>
				</port>
				<port id="1" precision="I64">
					<dim>1</dim>
				</port>
			</input>
			<output>
				<port id="2" precision="FP32">
					<dim>144</dim>
					<dim>1</dim>
					<dim>1</dim>
					<dim>3</dim>
					<dim>3</dim>
				</port>
			</output>
		</layer>
		<layer id="167" name="Reshape_27486" type="Const" version="opset1">
			<data element_type="f32" shape="144, 1, 1, 1, 1" offset="29880" size="576" />
			<output>
				<port id="0" precision="FP32">
					<dim>144</dim>
					<dim>1</dim>
					<dim>1</dim>
					<dim>1</dim>
					<dim>1</dim>
				</port>
			</output>
		</layer>
		<layer id="168" name="Multiply_27487" type="Multiply" version="opset1">
			<data auto_broadcast="numpy" />
			<input>
				<port id="0" precision="FP32">
					<dim>144</dim>
					<dim>1</dim>
					<dim>1</dim>
					<dim>3</dim>
					<dim>3</dim>
				</port>
				<port id="1" precision="FP32">
					<dim>144</dim>
					<dim>1</dim>
					<dim>1</dim>
					<dim>1</dim>
					<dim>1</dim>
				</port>
			</input>
			<output>
				<port id="2" precision="FP32">
					<dim>144</dim>
					<dim>1</dim>
					<dim>1</dim>
					<dim>3</dim>
					<dim>3</dim>
				</port>
			</output>
		</layer>
		<layer id="169" name="Multiply_26864" type="GroupConvolution" version="opset1">
			<data strides="2, 2" pads_begin="0, 0" pads_end="1, 1" dilations="1, 1" auto_pad="explicit" />
			<input>
				<port id="0" precision="FP32">
					<dim>-1</dim>
					<dim>144</dim>
					<dim>56</dim>
					<dim>56</dim>
				</port>
				<port id="1" precision="FP32">
					<dim>144</dim>
					<dim>1</dim>
					<dim>1</dim>
					<dim>3</dim>
					<dim>3</dim>
				</port>
			</input>
			<output>
				<port id="2" precision="FP32">
					<dim>-1</dim>
					<dim>144</dim>
					<dim>28</dim>
					<dim>28</dim>
				</port>
			</output>
		</layer>
		<layer id="170" name="Constant_26872" type="Const" version="opset1">
			<data element_type="f32" shape="1, 144, 1, 1" offset="30456" size="576" />
			<output>
				<port id="0" precision="FP32">
					<dim>1</dim>
					<dim>144</dim>
					<dim>1</dim>
					<dim>1</dim>
				</port>
			</output>
		</layer>
		<layer id="171" name="Transpose_15709" type="Add" version="opset1">
			<data auto_broadcast="numpy" />
			<input>
				<port id="0" precision="FP32">
					<dim>-1</dim>
					<dim>144</dim>
					<dim>28</dim>
					<dim>28</dim>
				</port>
				<port id="1" precision="FP32">
					<dim>1</dim>
					<dim>144</dim>
					<dim>1</dim>
					<dim>1</dim>
				</port>
			</input>
			<output>
				<port id="2" precision="FP32">
					<dim>-1</dim>
					<dim>144</dim>
					<dim>28</dim>
					<dim>28</dim>
				</port>
			</output>
		</layer>
		<layer id="172" name="Transpose_15711" type="Clamp" version="opset1">
			<data min="0" max="6" />
			<input>
				<port id="0" precision="FP32">
					<dim>-1</dim>
					<dim>144</dim>
					<dim>28</dim>
					<dim>28</dim>
				</port>
			</input>
			<output>
				<port id="1" precision="FP32">
					<dim>-1</dim>
					<dim>144</dim>
					<dim>28</dim>
					<dim>28</dim>
				</port>
			</output>
		</layer>
		<layer id="173" name="Transpose_15715" type="Const" version="opset1">
			<data element_type="f32" shape="1, 1, 1, 1" offset="2128" size="4" />
			<output>
				<port id="0" precision="FP32">
					<dim>1</dim>
					<dim>1</dim>
					<dim>1</dim>
					<dim>1</dim>
				</port>
			</output>
		</layer>
		<layer id="174" name="Transpose_15719" type="Const" version="opset1">
			<data element_type="f32" shape="1, 1, 1, 1" offset="31032" size="4" />
			<output>
				<port id="0" precision="FP32">
					<dim>1</dim>
					<dim>1</dim>
					<dim>1</dim>
					<dim>1</dim>
				</port>
			</output>
		</layer>
		<layer id="175" name="Transpose_15723" type="Const" version="opset1">
			<data element_type="f32" shape="1, 1, 1, 1" offset="2128" size="4" />
			<output>
				<port id="0" precision="FP32">
					<dim>1</dim>
					<dim>1</dim>
					<dim>1</dim>
					<dim>1</dim>
				</port>
			</output>
		</layer>
		<layer id="176" name="Transpose_15727" type="Const" version="opset1">
			<data element_type="f32" shape="1, 1, 1, 1" offset="31032" size="4" />
			<output>
				<port id="0" precision="FP32">
					<dim>1</dim>
					<dim>1</dim>
					<dim>1</dim>
					<dim>1</dim>
				</port>
			</output>
		</layer>
		<layer id="177" name="Transpose_15729" type="FakeQuantize" version="opset1">
			<data levels="256" auto_broadcast="numpy" />
			<input>
				<port id="0" precision="FP32">
					<dim>-1</dim>
					<dim>144</dim>
					<dim>28</dim>
					<dim>28</dim>
				</port>
				<port id="1" precision="FP32">
					<dim>1</dim>
					<dim>1</dim>
					<dim>1</dim>
					<dim>1</dim>
				</port>
				<port id="2" precision="FP32">
					<dim>1</dim>
					<dim>1</dim>
					<dim>1</dim>
					<dim>1</dim>
				</port>
				<port id="3" precision="FP32">
					<dim>1</dim>
					<dim>1</dim>
					<dim>1</dim>
					<dim>1</dim>
				</port>
				<port id="4" precision="FP32">
					<dim>1</dim>
					<dim>1</dim>
					<dim>1</dim>
					<dim>1</dim>
				</port>
			</input>
			<output>
				<port id="5" precision="FP32">
					<dim>-1</dim>
					<dim>144</dim>
					<dim>28</dim>
					<dim>28</dim>
				</port>
			</output>
		</layer>
		<layer id="178" name="Constant_28272" type="Const" version="opset1">
			<data element_type="i8" shape="32, 144, 1, 1" offset="31036" size="4608" />
			<output>
				<port id="0" precision="I8">
					<dim>32</dim>
					<dim>144</dim>
					<dim>1</dim>
					<dim>1</dim>
				</port>
			</output>
		</layer>
		<layer id="179" name="Convert_28273" type="Convert" version="opset1">
			<data destination_type="f32" />
			<input>
				<port id="0" precision="I8">
					<dim>32</dim>
					<dim>144</dim>
					<dim>1</dim>
					<dim>1</dim>
				</port>
			</input>
			<output>
				<port id="1" precision="FP32">
					<dim>32</dim>
					<dim>144</dim>
					<dim>1</dim>
					<dim>1</dim>
				</port>
			</output>
		</layer>
		<layer id="180" name="Constant_28274" type="Const" version="opset1">
			<data element_type="f32" shape="32, 1, 1, 1" offset="35644" size="128" />
			<output>
				<port id="0" precision="FP32">
					<dim>32</dim>
					<dim>1</dim>
					<dim>1</dim>
					<dim>1</dim>
				</port>
			</output>
		</layer>
		<layer id="181" name="Multiply_27490" type="Multiply" version="opset1">
			<data auto_broadcast="numpy" />
			<input>
				<port id="0" precision="FP32">
					<dim>32</dim>
					<dim>144</dim>
					<dim>1</dim>
					<dim>1</dim>
				</port>
				<port id="1" precision="FP32">
					<dim>32</dim>
					<dim>1</dim>
					<dim>1</dim>
					<dim>1</dim>
				</port>
			</input>
			<output>
				<port id="2" precision="FP32">
					<dim>32</dim>
					<dim>144</dim>
					<dim>1</dim>
					<dim>1</dim>
				</port>
			</output>
		</layer>
		<layer id="182" name="Multiply_26878" type="Convolution" version="opset1">
			<data strides="1, 1" dilations="1, 1" pads_begin="0, 0" pads_end="0, 0" auto_pad="same_upper" />
			<input>
				<port id="0" precision="FP32">
					<dim>-1</dim>
					<dim>144</dim>
					<dim>28</dim>
					<dim>28</dim>
				</port>
				<port id="1" precision="FP32">
					<dim>32</dim>
					<dim>144</dim>
					<dim>1</dim>
					<dim>1</dim>
				</port>
			</input>
			<output>
				<port id="2" precision="FP32">
					<dim>-1</dim>
					<dim>32</dim>
					<dim>28</dim>
					<dim>28</dim>
				</port>
			</output>
		</layer>
		<layer id="183" name="Constant_26886" type="Const" version="opset1">
			<data element_type="f32" shape="1, 32, 1, 1" offset="35772" size="128" />
			<output>
				<port id="0" precision="FP32">
					<dim>1</dim>
					<dim>32</dim>
					<dim>1</dim>
					<dim>1</dim>
				</port>
			</output>
		</layer>
		<layer id="184" name="Transpose_15781" type="Add" version="opset1">
			<data auto_broadcast="numpy" />
			<input>
				<port id="0" precision="FP32">
					<dim>-1</dim>
					<dim>32</dim>
					<dim>28</dim>
					<dim>28</dim>
				</port>
				<port id="1" precision="FP32">
					<dim>1</dim>
					<dim>32</dim>
					<dim>1</dim>
					<dim>1</dim>
				</port>
			</input>
			<output>
				<port id="2" precision="FP32">
					<dim>-1</dim>
					<dim>32</dim>
					<dim>28</dim>
					<dim>28</dim>
				</port>
			</output>
		</layer>
		<layer id="185" name="Transpose_15785" type="Const" version="opset1">
			<data element_type="f32" shape="1, 1, 1, 1" offset="35900" size="4" />
			<output>
				<port id="0" precision="FP32">
					<dim>1</dim>
					<dim>1</dim>
					<dim>1</dim>
					<dim>1</dim>
				</port>
			</output>
		</layer>
		<layer id="186" name="Transpose_15789" type="Const" version="opset1">
			<data element_type="f32" shape="1, 1, 1, 1" offset="35904" size="4" />
			<output>
				<port id="0" precision="FP32">
					<dim>1</dim>
					<dim>1</dim>
					<dim>1</dim>
					<dim>1</dim>
				</port>
			</output>
		</layer>
		<layer id="187" name="Transpose_15793" type="Const" version="opset1">
			<data element_type="f32" shape="1, 1, 1, 1" offset="35900" size="4" />
			<output>
				<port id="0" precision="FP32">
					<dim>1</dim>
					<dim>1</dim>
					<dim>1</dim>
					<dim>1</dim>
				</port>
			</output>
		</layer>
		<layer id="188" name="Transpose_15797" type="Const" version="opset1">
			<data element_type="f32" shape="1, 1, 1, 1" offset="35904" size="4" />
			<output>
				<port id="0" precision="FP32">
					<dim>1</dim>
					<dim>1</dim>
					<dim>1</dim>
					<dim>1</dim>
				</port>
			</output>
		</layer>
		<layer id="189" name="Transpose_15799" type="FakeQuantize" version="opset1">
			<data levels="256" auto_broadcast="numpy" />
			<input>
				<port id="0" precision="FP32">
					<dim>-1</dim>
					<dim>32</dim>
					<dim>28</dim>
					<dim>28</dim>
				</port>
				<port id="1" precision="FP32">
					<dim>1</dim>
					<dim>1</dim>
					<dim>1</dim>
					<dim>1</dim>
				</port>
				<port id="2" precision="FP32">
					<dim>1</dim>
					<dim>1</dim>
					<dim>1</dim>
					<dim>1</dim>
				</port>
				<port id="3" precision="FP32">
					<dim>1</dim>
					<dim>1</dim>
					<dim>1</dim>
					<dim>1</dim>
				</port>
				<port id="4" precision="FP32">
					<dim>1</dim>
					<dim>1</dim>
					<dim>1</dim>
					<dim>1</dim>
				</port>
			</input>
			<output>
				<port id="5" precision="FP32">
					<dim>-1</dim>
					<dim>32</dim>
					<dim>28</dim>
					<dim>28</dim>
				</port>
			</output>
		</layer>
		<layer id="190" name="Constant_28276" type="Const" version="opset1">
			<data element_type="i8" shape="192, 32, 1, 1" offset="35908" size="6144" />
			<output>
				<port id="0" precision="I8">
					<dim>192</dim>
					<dim>32</dim>
					<dim>1</dim>
					<dim>1</dim>
				</port>
			</output>
		</layer>
		<layer id="191" name="Convert_28277" type="Convert" version="opset1">
			<data destination_type="f32" />
			<input>
				<port id="0" precision="I8">
					<dim>192</dim>
					<dim>32</dim>
					<dim>1</dim>
					<dim>1</dim>
				</port>
			</input>
			<output>
				<port id="1" precision="FP32">
					<dim>192</dim>
					<dim>32</dim>
					<dim>1</dim>
					<dim>1</dim>
				</port>
			</output>
		</layer>
		<layer id="192" name="Constant_28278" type="Const" version="opset1">
			<data element_type="f32" shape="192, 1, 1, 1" offset="42052" size="768" />
			<output>
				<port id="0" precision="FP32">
					<dim>192</dim>
					<dim>1</dim>
					<dim>1</dim>
					<dim>1</dim>
				</port>
			</output>
		</layer>
		<layer id="193" name="Multiply_27494" type="Multiply" version="opset1">
			<data auto_broadcast="numpy" />
			<input>
				<port id="0" precision="FP32">
					<dim>192</dim>
					<dim>32</dim>
					<dim>1</dim>
					<dim>1</dim>
				</port>
				<port id="1" precision="FP32">
					<dim>192</dim>
					<dim>1</dim>
					<dim>1</dim>
					<dim>1</dim>
				</port>
			</input>
			<output>
				<port id="2" precision="FP32">
					<dim>192</dim>
					<dim>32</dim>
					<dim>1</dim>
					<dim>1</dim>
				</port>
			</output>
		</layer>
		<layer id="194" name="Multiply_26892" type="Convolution" version="opset1">
			<data strides="1, 1" dilations="1, 1" pads_begin="0, 0" pads_end="0, 0" auto_pad="same_upper" />
			<input>
				<port id="0" precision="FP32">
					<dim>-1</dim>
					<dim>32</dim>
					<dim>28</dim>
					<dim>28</dim>
				</port>
				<port id="1" precision="FP32">
					<dim>192</dim>
					<dim>32</dim>
					<dim>1</dim>
					<dim>1</dim>
				</port>
			</input>
			<output>
				<port id="2" precision="FP32">
					<dim>-1</dim>
					<dim>192</dim>
					<dim>28</dim>
					<dim>28</dim>
				</port>
			</output>
		</layer>
		<layer id="195" name="Constant_26900" type="Const" version="opset1">
			<data element_type="f32" shape="1, 192, 1, 1" offset="42820" size="768" />
			<output>
				<port id="0" precision="FP32">
					<dim>1</dim>
					<dim>192</dim>
					<dim>1</dim>
					<dim>1</dim>
				</port>
			</output>
		</layer>
		<layer id="196" name="Transpose_15851" type="Add" version="opset1">
			<data auto_broadcast="numpy" />
			<input>
				<port id="0" precision="FP32">
					<dim>-1</dim>
					<dim>192</dim>
					<dim>28</dim>
					<dim>28</dim>
				</port>
				<port id="1" precision="FP32">
					<dim>1</dim>
					<dim>192</dim>
					<dim>1</dim>
					<dim>1</dim>
				</port>
			</input>
			<output>
				<port id="2" precision="FP32">
					<dim>-1</dim>
					<dim>192</dim>
					<dim>28</dim>
					<dim>28</dim>
				</port>
			</output>
		</layer>
		<layer id="197" name="Transpose_15853" type="Clamp" version="opset1">
			<data min="0" max="6" />
			<input>
				<port id="0" precision="FP32">
					<dim>-1</dim>
					<dim>192</dim>
					<dim>28</dim>
					<dim>28</dim>
				</port>
			</input>
			<output>
				<port id="1" precision="FP32">
					<dim>-1</dim>
					<dim>192</dim>
					<dim>28</dim>
					<dim>28</dim>
				</port>
			</output>
		</layer>
		<layer id="198" name="Transpose_15857" type="Const" version="opset1">
			<data element_type="f32" shape="1, 192, 1, 1" offset="43588" size="768" />
			<output>
				<port id="0" precision="FP32">
					<dim>1</dim>
					<dim>192</dim>
					<dim>1</dim>
					<dim>1</dim>
				</port>
			</output>
		</layer>
		<layer id="199" name="Transpose_15861" type="Const" version="opset1">
			<data element_type="f32" shape="1, 192, 1, 1" offset="44356" size="768" />
			<output>
				<port id="0" precision="FP32">
					<dim>1</dim>
					<dim>192</dim>
					<dim>1</dim>
					<dim>1</dim>
				</port>
			</output>
		</layer>
		<layer id="200" name="Transpose_15865" type="Const" version="opset1">
			<data element_type="f32" shape="1, 192, 1, 1" offset="43588" size="768" />
			<output>
				<port id="0" precision="FP32">
					<dim>1</dim>
					<dim>192</dim>
					<dim>1</dim>
					<dim>1</dim>
				</port>
			</output>
		</layer>
		<layer id="201" name="Transpose_15869" type="Const" version="opset1">
			<data element_type="f32" shape="1, 192, 1, 1" offset="44356" size="768" />
			<output>
				<port id="0" precision="FP32">
					<dim>1</dim>
					<dim>192</dim>
					<dim>1</dim>
					<dim>1</dim>
				</port>
			</output>
		</layer>
		<layer id="202" name="Transpose_15871" type="FakeQuantize" version="opset1">
			<data levels="256" auto_broadcast="numpy" />
			<input>
				<port id="0" precision="FP32">
					<dim>-1</dim>
					<dim>192</dim>
					<dim>28</dim>
					<dim>28</dim>
				</port>
				<port id="1" precision="FP32">
					<dim>1</dim>
					<dim>192</dim>
					<dim>1</dim>
					<dim>1</dim>
				</port>
				<port id="2" precision="FP32">
					<dim>1</dim>
					<dim>192</dim>
					<dim>1</dim>
					<dim>1</dim>
				</port>
				<port id="3" precision="FP32">
					<dim>1</dim>
					<dim>192</dim>
					<dim>1</dim>
					<dim>1</dim>
				</port>
				<port id="4" precision="FP32">
					<dim>1</dim>
					<dim>192</dim>
					<dim>1</dim>
					<dim>1</dim>
				</port>
			</input>
			<output>
				<port id="5" precision="FP32">
					<dim>-1</dim>
					<dim>192</dim>
					<dim>28</dim>
					<dim>28</dim>
				</port>
			</output>
		</layer>
		<layer id="203" name="Constant_28280" type="Const" version="opset1">
			<data element_type="i8" shape="3, 3, 192, 1" offset="45124" size="1728" />
			<output>
				<port id="0" precision="I8">
					<dim>3</dim>
					<dim>3</dim>
					<dim>192</dim>
					<dim>1</dim>
				</port>
			</output>
		</layer>
		<layer id="204" name="Convert_28281" type="Convert" version="opset1">
			<data destination_type="f32" />
			<input>
				<port id="0" precision="I8">
					<dim>3</dim>
					<dim>3</dim>
					<dim>192</dim>
					<dim>1</dim>
				</port>
			</input>
			<output>
				<port id="1" precision="FP32">
					<dim>3</dim>
					<dim>3</dim>
					<dim>192</dim>
					<dim>1</dim>
				</port>
			</output>
		</layer>
		<layer id="205" name="Constant_28282" type="Const" version="opset1">
			<data element_type="f32" shape="1, 1, 192, 1" offset="46852" size="768" />
			<output>
				<port id="0" precision="FP32">
					<dim>1</dim>
					<dim>1</dim>
					<dim>192</dim>
					<dim>1</dim>
				</port>
			</output>
		</layer>
		<layer id="206" name="mobilenetv2_1.00_224/block_4_depthwise/Reshape_1" type="Multiply" version="opset1">
			<data auto_broadcast="numpy" />
			<input>
				<port id="0" precision="FP32">
					<dim>3</dim>
					<dim>3</dim>
					<dim>192</dim>
					<dim>1</dim>
				</port>
				<port id="1" precision="FP32">
					<dim>1</dim>
					<dim>1</dim>
					<dim>192</dim>
					<dim>1</dim>
				</port>
			</input>
			<output>
				<port id="2" precision="FP32" names="mobilenetv2_1.00_224/block_4_depthwise/Reshape_1,mobilenetv2_1.00_224/block_4_depthwise/Reshape_1:0">
					<dim>3</dim>
					<dim>3</dim>
					<dim>192</dim>
					<dim>1</dim>
				</port>
			</output>
		</layer>
		<layer id="207" name="Constant_23888" type="Const" version="opset1">
			<data element_type="i64" shape="4" offset="1832" size="32" />
			<output>
				<port id="0" precision="I64">
					<dim>4</dim>
				</port>
			</output>
		</layer>
		<layer id="208" name="Transpose_23889" type="Transpose" version="opset1">
			<input>
				<port id="0" precision="FP32">
					<dim>3</dim>
					<dim>3</dim>
					<dim>192</dim>
					<dim>1</dim>
				</port>
				<port id="1" precision="I64">
					<dim>4</dim>
				</port>
			</input>
			<output>
				<port id="2" precision="FP32">
					<dim>192</dim>
					<dim>1</dim>
					<dim>3</dim>
					<dim>3</dim>
				</port>
			</output>
		</layer>
		<layer id="209" name="Constant_23890" type="Const" version="opset1">
			<data element_type="i64" shape="1" offset="1864" size="8" />
			<output>
				<port id="0" precision="I64">
					<dim>1</dim>
				</port>
			</output>
		</layer>
		<layer id="210" name="Transpose_12356" type="Unsqueeze" version="opset1">
			<input>
				<port id="0" precision="FP32">
					<dim>192</dim>
					<dim>1</dim>
					<dim>3</dim>
					<dim>3</dim>
				</port>
				<port id="1" precision="I64">
					<dim>1</dim>
				</port>
			</input>
			<output>
				<port id="2" precision="FP32">
					<dim>192</dim>
					<dim>1</dim>
					<dim>1</dim>
					<dim>3</dim>
					<dim>3</dim>
				</port>
			</output>
		</layer>
		<layer id="211" name="Reshape_27497" type="Const" version="opset1">
			<data element_type="f32" shape="192, 1, 1, 1, 1" offset="47620" size="768" />
			<output>
				<port id="0" precision="FP32">
					<dim>192</dim>
					<dim>1</dim>
					<dim>1</dim>
					<dim>1</dim>
					<dim>1</dim>
				</port>
			</output>
		</layer>
		<layer id="212" name="Multiply_27498" type="Multiply" version="opset1">
			<data auto_broadcast="numpy" />
			<input>
				<port id="0" precision="FP32">
					<dim>192</dim>
					<dim>1</dim>
					<dim>1</dim>
					<dim>3</dim>
					<dim>3</dim>
				</port>
				<port id="1" precision="FP32">
					<dim>192</dim>
					<dim>1</dim>
					<dim>1</dim>
					<dim>1</dim>
					<dim>1</dim>
				</port>
			</input>
			<output>
				<port id="2" precision="FP32">
					<dim>192</dim>
					<dim>1</dim>
					<dim>1</dim>
					<dim>3</dim>
					<dim>3</dim>
				</port>
			</output>
		</layer>
		<layer id="213" name="Multiply_26906" type="GroupConvolution" version="opset1">
			<data strides="1, 1" pads_begin="0, 0" pads_end="0, 0" dilations="1, 1" auto_pad="same_upper" />
			<input>
				<port id="0" precision="FP32">
					<dim>-1</dim>
					<dim>192</dim>
					<dim>28</dim>
					<dim>28</dim>
				</port>
				<port id="1" precision="FP32">
					<dim>192</dim>
					<dim>1</dim>
					<dim>1</dim>
					<dim>3</dim>
					<dim>3</dim>
				</port>
			</input>
			<output>
				<port id="2" precision="FP32">
					<dim>-1</dim>
					<dim>192</dim>
					<dim>28</dim>
					<dim>28</dim>
				</port>
			</output>
		</layer>
		<layer id="214" name="Constant_26914" type="Const" version="opset1">
			<data element_type="f32" shape="1, 192, 1, 1" offset="48388" size="768" />
			<output>
				<port id="0" precision="FP32">
					<dim>1</dim>
					<dim>192</dim>
					<dim>1</dim>
					<dim>1</dim>
				</port>
			</output>
		</layer>
		<layer id="215" name="Transpose_15923" type="Add" version="opset1">
			<data auto_broadcast="numpy" />
			<input>
				<port id="0" precision="FP32">
					<dim>-1</dim>
					<dim>192</dim>
					<dim>28</dim>
					<dim>28</dim>
				</port>
				<port id="1" precision="FP32">
					<dim>1</dim>
					<dim>192</dim>
					<dim>1</dim>
					<dim>1</dim>
				</port>
			</input>
			<output>
				<port id="2" precision="FP32">
					<dim>-1</dim>
					<dim>192</dim>
					<dim>28</dim>
					<dim>28</dim>
				</port>
			</output>
		</layer>
		<layer id="216" name="Transpose_15925" type="Clamp" version="opset1">
			<data min="0" max="6" />
			<input>
				<port id="0" precision="FP32">
					<dim>-1</dim>
					<dim>192</dim>
					<dim>28</dim>
					<dim>28</dim>
				</port>
			</input>
			<output>
				<port id="1" precision="FP32">
					<dim>-1</dim>
					<dim>192</dim>
					<dim>28</dim>
					<dim>28</dim>
				</port>
			</output>
		</layer>
		<layer id="217" name="Transpose_15929" type="Const" version="opset1">
			<data element_type="f32" shape="1, 1, 1, 1" offset="2128" size="4" />
			<output>
				<port id="0" precision="FP32">
					<dim>1</dim>
					<dim>1</dim>
					<dim>1</dim>
					<dim>1</dim>
				</port>
			</output>
		</layer>
		<layer id="218" name="Transpose_15933" type="Const" version="opset1">
			<data element_type="f32" shape="1, 1, 1, 1" offset="49156" size="4" />
			<output>
				<port id="0" precision="FP32">
					<dim>1</dim>
					<dim>1</dim>
					<dim>1</dim>
					<dim>1</dim>
				</port>
			</output>
		</layer>
		<layer id="219" name="Transpose_15937" type="Const" version="opset1">
			<data element_type="f32" shape="1, 1, 1, 1" offset="2128" size="4" />
			<output>
				<port id="0" precision="FP32">
					<dim>1</dim>
					<dim>1</dim>
					<dim>1</dim>
					<dim>1</dim>
				</port>
			</output>
		</layer>
		<layer id="220" name="Transpose_15941" type="Const" version="opset1">
			<data element_type="f32" shape="1, 1, 1, 1" offset="49156" size="4" />
			<output>
				<port id="0" precision="FP32">
					<dim>1</dim>
					<dim>1</dim>
					<dim>1</dim>
					<dim>1</dim>
				</port>
			</output>
		</layer>
		<layer id="221" name="Transpose_15943" type="FakeQuantize" version="opset1">
			<data levels="256" auto_broadcast="numpy" />
			<input>
				<port id="0" precision="FP32">
					<dim>-1</dim>
					<dim>192</dim>
					<dim>28</dim>
					<dim>28</dim>
				</port>
				<port id="1" precision="FP32">
					<dim>1</dim>
					<dim>1</dim>
					<dim>1</dim>
					<dim>1</dim>
				</port>
				<port id="2" precision="FP32">
					<dim>1</dim>
					<dim>1</dim>
					<dim>1</dim>
					<dim>1</dim>
				</port>
				<port id="3" precision="FP32">
					<dim>1</dim>
					<dim>1</dim>
					<dim>1</dim>
					<dim>1</dim>
				</port>
				<port id="4" precision="FP32">
					<dim>1</dim>
					<dim>1</dim>
					<dim>1</dim>
					<dim>1</dim>
				</port>
			</input>
			<output>
				<port id="5" precision="FP32">
					<dim>-1</dim>
					<dim>192</dim>
					<dim>28</dim>
					<dim>28</dim>
				</port>
			</output>
		</layer>
		<layer id="222" name="Constant_28284" type="Const" version="opset1">
			<data element_type="i8" shape="32, 192, 1, 1" offset="49160" size="6144" />
			<output>
				<port id="0" precision="I8">
					<dim>32</dim>
					<dim>192</dim>
					<dim>1</dim>
					<dim>1</dim>
				</port>
			</output>
		</layer>
		<layer id="223" name="Convert_28285" type="Convert" version="opset1">
			<data destination_type="f32" />
			<input>
				<port id="0" precision="I8">
					<dim>32</dim>
					<dim>192</dim>
					<dim>1</dim>
					<dim>1</dim>
				</port>
			</input>
			<output>
				<port id="1" precision="FP32">
					<dim>32</dim>
					<dim>192</dim>
					<dim>1</dim>
					<dim>1</dim>
				</port>
			</output>
		</layer>
		<layer id="224" name="Constant_28286" type="Const" version="opset1">
			<data element_type="f32" shape="32, 1, 1, 1" offset="55304" size="128" />
			<output>
				<port id="0" precision="FP32">
					<dim>32</dim>
					<dim>1</dim>
					<dim>1</dim>
					<dim>1</dim>
				</port>
			</output>
		</layer>
		<layer id="225" name="Multiply_27501" type="Multiply" version="opset1">
			<data auto_broadcast="numpy" />
			<input>
				<port id="0" precision="FP32">
					<dim>32</dim>
					<dim>192</dim>
					<dim>1</dim>
					<dim>1</dim>
				</port>
				<port id="1" precision="FP32">
					<dim>32</dim>
					<dim>1</dim>
					<dim>1</dim>
					<dim>1</dim>
				</port>
			</input>
			<output>
				<port id="2" precision="FP32">
					<dim>32</dim>
					<dim>192</dim>
					<dim>1</dim>
					<dim>1</dim>
				</port>
			</output>
		</layer>
		<layer id="226" name="Multiply_26920" type="Convolution" version="opset1">
			<data strides="1, 1" dilations="1, 1" pads_begin="0, 0" pads_end="0, 0" auto_pad="same_upper" />
			<input>
				<port id="0" precision="FP32">
					<dim>-1</dim>
					<dim>192</dim>
					<dim>28</dim>
					<dim>28</dim>
				</port>
				<port id="1" precision="FP32">
					<dim>32</dim>
					<dim>192</dim>
					<dim>1</dim>
					<dim>1</dim>
				</port>
			</input>
			<output>
				<port id="2" precision="FP32">
					<dim>-1</dim>
					<dim>32</dim>
					<dim>28</dim>
					<dim>28</dim>
				</port>
			</output>
		</layer>
		<layer id="227" name="Constant_26928" type="Const" version="opset1">
			<data element_type="f32" shape="1, 32, 1, 1" offset="55432" size="128" />
			<output>
				<port id="0" precision="FP32">
					<dim>1</dim>
					<dim>32</dim>
					<dim>1</dim>
					<dim>1</dim>
				</port>
			</output>
		</layer>
		<layer id="228" name="Transpose_15995" type="Add" version="opset1">
			<data auto_broadcast="numpy" />
			<input>
				<port id="0" precision="FP32">
					<dim>-1</dim>
					<dim>32</dim>
					<dim>28</dim>
					<dim>28</dim>
				</port>
				<port id="1" precision="FP32">
					<dim>1</dim>
					<dim>32</dim>
					<dim>1</dim>
					<dim>1</dim>
				</port>
			</input>
			<output>
				<port id="2" precision="FP32">
					<dim>-1</dim>
					<dim>32</dim>
					<dim>28</dim>
					<dim>28</dim>
				</port>
			</output>
		</layer>
		<layer id="229" name="Transpose_15999" type="Const" version="opset1">
			<data element_type="f32" shape="1, 1, 1, 1" offset="55560" size="4" />
			<output>
				<port id="0" precision="FP32">
					<dim>1</dim>
					<dim>1</dim>
					<dim>1</dim>
					<dim>1</dim>
				</port>
			</output>
		</layer>
		<layer id="230" name="Transpose_16003" type="Const" version="opset1">
			<data element_type="f32" shape="1, 1, 1, 1" offset="55564" size="4" />
			<output>
				<port id="0" precision="FP32">
					<dim>1</dim>
					<dim>1</dim>
					<dim>1</dim>
					<dim>1</dim>
				</port>
			</output>
		</layer>
		<layer id="231" name="Transpose_16007" type="Const" version="opset1">
			<data element_type="f32" shape="1, 1, 1, 1" offset="55560" size="4" />
			<output>
				<port id="0" precision="FP32">
					<dim>1</dim>
					<dim>1</dim>
					<dim>1</dim>
					<dim>1</dim>
				</port>
			</output>
		</layer>
		<layer id="232" name="Transpose_16011" type="Const" version="opset1">
			<data element_type="f32" shape="1, 1, 1, 1" offset="55564" size="4" />
			<output>
				<port id="0" precision="FP32">
					<dim>1</dim>
					<dim>1</dim>
					<dim>1</dim>
					<dim>1</dim>
				</port>
			</output>
		</layer>
		<layer id="233" name="Transpose_16013" type="FakeQuantize" version="opset1">
			<data levels="256" auto_broadcast="numpy" />
			<input>
				<port id="0" precision="FP32">
					<dim>-1</dim>
					<dim>32</dim>
					<dim>28</dim>
					<dim>28</dim>
				</port>
				<port id="1" precision="FP32">
					<dim>1</dim>
					<dim>1</dim>
					<dim>1</dim>
					<dim>1</dim>
				</port>
				<port id="2" precision="FP32">
					<dim>1</dim>
					<dim>1</dim>
					<dim>1</dim>
					<dim>1</dim>
				</port>
				<port id="3" precision="FP32">
					<dim>1</dim>
					<dim>1</dim>
					<dim>1</dim>
					<dim>1</dim>
				</port>
				<port id="4" precision="FP32">
					<dim>1</dim>
					<dim>1</dim>
					<dim>1</dim>
					<dim>1</dim>
				</port>
			</input>
			<output>
				<port id="5" precision="FP32">
					<dim>-1</dim>
					<dim>32</dim>
					<dim>28</dim>
					<dim>28</dim>
				</port>
			</output>
		</layer>
		<layer id="234" name="Transpose_16017" type="Add" version="opset1">
			<data auto_broadcast="numpy" />
			<input>
				<port id="0" precision="FP32">
					<dim>-1</dim>
					<dim>32</dim>
					<dim>28</dim>
					<dim>28</dim>
				</port>
				<port id="1" precision="FP32">
					<dim>-1</dim>
					<dim>32</dim>
					<dim>28</dim>
					<dim>28</dim>
				</port>
			</input>
			<output>
				<port id="2" precision="FP32">
					<dim>-1</dim>
					<dim>32</dim>
					<dim>28</dim>
					<dim>28</dim>
				</port>
			</output>
		</layer>
		<layer id="235" name="Transpose_16021" type="Const" version="opset1">
			<data element_type="f32" shape="1, 1, 1, 1" offset="55568" size="4" />
			<output>
				<port id="0" precision="FP32">
					<dim>1</dim>
					<dim>1</dim>
					<dim>1</dim>
					<dim>1</dim>
				</port>
			</output>
		</layer>
		<layer id="236" name="Transpose_16025" type="Const" version="opset1">
			<data element_type="f32" shape="1, 1, 1, 1" offset="55572" size="4" />
			<output>
				<port id="0" precision="FP32">
					<dim>1</dim>
					<dim>1</dim>
					<dim>1</dim>
					<dim>1</dim>
				</port>
			</output>
		</layer>
		<layer id="237" name="Transpose_16029" type="Const" version="opset1">
			<data element_type="f32" shape="1, 1, 1, 1" offset="55568" size="4" />
			<output>
				<port id="0" precision="FP32">
					<dim>1</dim>
					<dim>1</dim>
					<dim>1</dim>
					<dim>1</dim>
				</port>
			</output>
		</layer>
		<layer id="238" name="Transpose_16033" type="Const" version="opset1">
			<data element_type="f32" shape="1, 1, 1, 1" offset="55572" size="4" />
			<output>
				<port id="0" precision="FP32">
					<dim>1</dim>
					<dim>1</dim>
					<dim>1</dim>
					<dim>1</dim>
				</port>
			</output>
		</layer>
		<layer id="239" name="Transpose_16035" type="FakeQuantize" version="opset1">
			<data levels="256" auto_broadcast="numpy" />
			<input>
				<port id="0" precision="FP32">
					<dim>-1</dim>
					<dim>32</dim>
					<dim>28</dim>
					<dim>28</dim>
				</port>
				<port id="1" precision="FP32">
					<dim>1</dim>
					<dim>1</dim>
					<dim>1</dim>
					<dim>1</dim>
				</port>
				<port id="2" precision="FP32">
					<dim>1</dim>
					<dim>1</dim>
					<dim>1</dim>
					<dim>1</dim>
				</port>
				<port id="3" precision="FP32">
					<dim>1</dim>
					<dim>1</dim>
					<dim>1</dim>
					<dim>1</dim>
				</port>
				<port id="4" precision="FP32">
					<dim>1</dim>
					<dim>1</dim>
					<dim>1</dim>
					<dim>1</dim>
				</port>
			</input>
			<output>
				<port id="5" precision="FP32">
					<dim>-1</dim>
					<dim>32</dim>
					<dim>28</dim>
					<dim>28</dim>
				</port>
			</output>
		</layer>
		<layer id="240" name="Constant_28288" type="Const" version="opset1">
			<data element_type="i8" shape="192, 32, 1, 1" offset="55576" size="6144" />
			<output>
				<port id="0" precision="I8">
					<dim>192</dim>
					<dim>32</dim>
					<dim>1</dim>
					<dim>1</dim>
				</port>
			</output>
		</layer>
		<layer id="241" name="Convert_28289" type="Convert" version="opset1">
			<data destination_type="f32" />
			<input>
				<port id="0" precision="I8">
					<dim>192</dim>
					<dim>32</dim>
					<dim>1</dim>
					<dim>1</dim>
				</port>
			</input>
			<output>
				<port id="1" precision="FP32">
					<dim>192</dim>
					<dim>32</dim>
					<dim>1</dim>
					<dim>1</dim>
				</port>
			</output>
		</layer>
		<layer id="242" name="Constant_28290" type="Const" version="opset1">
			<data element_type="f32" shape="192, 1, 1, 1" offset="61720" size="768" />
			<output>
				<port id="0" precision="FP32">
					<dim>192</dim>
					<dim>1</dim>
					<dim>1</dim>
					<dim>1</dim>
				</port>
			</output>
		</layer>
		<layer id="243" name="Multiply_27505" type="Multiply" version="opset1">
			<data auto_broadcast="numpy" />
			<input>
				<port id="0" precision="FP32">
					<dim>192</dim>
					<dim>32</dim>
					<dim>1</dim>
					<dim>1</dim>
				</port>
				<port id="1" precision="FP32">
					<dim>192</dim>
					<dim>1</dim>
					<dim>1</dim>
					<dim>1</dim>
				</port>
			</input>
			<output>
				<port id="2" precision="FP32">
					<dim>192</dim>
					<dim>32</dim>
					<dim>1</dim>
					<dim>1</dim>
				</port>
			</output>
		</layer>
		<layer id="244" name="Multiply_26934" type="Convolution" version="opset1">
			<data strides="1, 1" dilations="1, 1" pads_begin="0, 0" pads_end="0, 0" auto_pad="same_upper" />
			<input>
				<port id="0" precision="FP32">
					<dim>-1</dim>
					<dim>32</dim>
					<dim>28</dim>
					<dim>28</dim>
				</port>
				<port id="1" precision="FP32">
					<dim>192</dim>
					<dim>32</dim>
					<dim>1</dim>
					<dim>1</dim>
				</port>
			</input>
			<output>
				<port id="2" precision="FP32">
					<dim>-1</dim>
					<dim>192</dim>
					<dim>28</dim>
					<dim>28</dim>
				</port>
			</output>
		</layer>
		<layer id="245" name="Constant_26942" type="Const" version="opset1">
			<data element_type="f32" shape="1, 192, 1, 1" offset="62488" size="768" />
			<output>
				<port id="0" precision="FP32">
					<dim>1</dim>
					<dim>192</dim>
					<dim>1</dim>
					<dim>1</dim>
				</port>
			</output>
		</layer>
		<layer id="246" name="Transpose_16087" type="Add" version="opset1">
			<data auto_broadcast="numpy" />
			<input>
				<port id="0" precision="FP32">
					<dim>-1</dim>
					<dim>192</dim>
					<dim>28</dim>
					<dim>28</dim>
				</port>
				<port id="1" precision="FP32">
					<dim>1</dim>
					<dim>192</dim>
					<dim>1</dim>
					<dim>1</dim>
				</port>
			</input>
			<output>
				<port id="2" precision="FP32">
					<dim>-1</dim>
					<dim>192</dim>
					<dim>28</dim>
					<dim>28</dim>
				</port>
			</output>
		</layer>
		<layer id="247" name="Transpose_16089" type="Clamp" version="opset1">
			<data min="0" max="6" />
			<input>
				<port id="0" precision="FP32">
					<dim>-1</dim>
					<dim>192</dim>
					<dim>28</dim>
					<dim>28</dim>
				</port>
			</input>
			<output>
				<port id="1" precision="FP32">
					<dim>-1</dim>
					<dim>192</dim>
					<dim>28</dim>
					<dim>28</dim>
				</port>
			</output>
		</layer>
		<layer id="248" name="Transpose_16093" type="Const" version="opset1">
			<data element_type="f32" shape="1, 192, 1, 1" offset="43588" size="768" />
			<output>
				<port id="0" precision="FP32">
					<dim>1</dim>
					<dim>192</dim>
					<dim>1</dim>
					<dim>1</dim>
				</port>
			</output>
		</layer>
		<layer id="249" name="Transpose_16097" type="Const" version="opset1">
			<data element_type="f32" shape="1, 192, 1, 1" offset="63256" size="768" />
			<output>
				<port id="0" precision="FP32">
					<dim>1</dim>
					<dim>192</dim>
					<dim>1</dim>
					<dim>1</dim>
				</port>
			</output>
		</layer>
		<layer id="250" name="Transpose_16101" type="Const" version="opset1">
			<data element_type="f32" shape="1, 192, 1, 1" offset="43588" size="768" />
			<output>
				<port id="0" precision="FP32">
					<dim>1</dim>
					<dim>192</dim>
					<dim>1</dim>
					<dim>1</dim>
				</port>
			</output>
		</layer>
		<layer id="251" name="Transpose_16105" type="Const" version="opset1">
			<data element_type="f32" shape="1, 192, 1, 1" offset="63256" size="768" />
			<output>
				<port id="0" precision="FP32">
					<dim>1</dim>
					<dim>192</dim>
					<dim>1</dim>
					<dim>1</dim>
				</port>
			</output>
		</layer>
		<layer id="252" name="Transpose_16107" type="FakeQuantize" version="opset1">
			<data levels="256" auto_broadcast="numpy" />
			<input>
				<port id="0" precision="FP32">
					<dim>-1</dim>
					<dim>192</dim>
					<dim>28</dim>
					<dim>28</dim>
				</port>
				<port id="1" precision="FP32">
					<dim>1</dim>
					<dim>192</dim>
					<dim>1</dim>
					<dim>1</dim>
				</port>
				<port id="2" precision="FP32">
					<dim>1</dim>
					<dim>192</dim>
					<dim>1</dim>
					<dim>1</dim>
				</port>
				<port id="3" precision="FP32">
					<dim>1</dim>
					<dim>192</dim>
					<dim>1</dim>
					<dim>1</dim>
				</port>
				<port id="4" precision="FP32">
					<dim>1</dim>
					<dim>192</dim>
					<dim>1</dim>
					<dim>1</dim>
				</port>
			</input>
			<output>
				<port id="5" precision="FP32">
					<dim>-1</dim>
					<dim>192</dim>
					<dim>28</dim>
					<dim>28</dim>
				</port>
			</output>
		</layer>
		<layer id="253" name="Constant_28292" type="Const" version="opset1">
			<data element_type="i8" shape="3, 3, 192, 1" offset="64024" size="1728" />
			<output>
				<port id="0" precision="I8">
					<dim>3</dim>
					<dim>3</dim>
					<dim>192</dim>
					<dim>1</dim>
				</port>
			</output>
		</layer>
		<layer id="254" name="Convert_28293" type="Convert" version="opset1">
			<data destination_type="f32" />
			<input>
				<port id="0" precision="I8">
					<dim>3</dim>
					<dim>3</dim>
					<dim>192</dim>
					<dim>1</dim>
				</port>
			</input>
			<output>
				<port id="1" precision="FP32">
					<dim>3</dim>
					<dim>3</dim>
					<dim>192</dim>
					<dim>1</dim>
				</port>
			</output>
		</layer>
		<layer id="255" name="Constant_28294" type="Const" version="opset1">
			<data element_type="f32" shape="1, 1, 192, 1" offset="65752" size="768" />
			<output>
				<port id="0" precision="FP32">
					<dim>1</dim>
					<dim>1</dim>
					<dim>192</dim>
					<dim>1</dim>
				</port>
			</output>
		</layer>
		<layer id="256" name="mobilenetv2_1.00_224/block_5_depthwise/Reshape_1" type="Multiply" version="opset1">
			<data auto_broadcast="numpy" />
			<input>
				<port id="0" precision="FP32">
					<dim>3</dim>
					<dim>3</dim>
					<dim>192</dim>
					<dim>1</dim>
				</port>
				<port id="1" precision="FP32">
					<dim>1</dim>
					<dim>1</dim>
					<dim>192</dim>
					<dim>1</dim>
				</port>
			</input>
			<output>
				<port id="2" precision="FP32" names="mobilenetv2_1.00_224/block_5_depthwise/Reshape_1,mobilenetv2_1.00_224/block_5_depthwise/Reshape_1:0">
					<dim>3</dim>
					<dim>3</dim>
					<dim>192</dim>
					<dim>1</dim>
				</port>
			</output>
		</layer>
		<layer id="257" name="Constant_23960" type="Const" version="opset1">
			<data element_type="i64" shape="4" offset="1832" size="32" />
			<output>
				<port id="0" precision="I64">
					<dim>4</dim>
				</port>
			</output>
		</layer>
		<layer id="258" name="Transpose_23961" type="Transpose" version="opset1">
			<input>
				<port id="0" precision="FP32">
					<dim>3</dim>
					<dim>3</dim>
					<dim>192</dim>
					<dim>1</dim>
				</port>
				<port id="1" precision="I64">
					<dim>4</dim>
				</port>
			</input>
			<output>
				<port id="2" precision="FP32">
					<dim>192</dim>
					<dim>1</dim>
					<dim>3</dim>
					<dim>3</dim>
				</port>
			</output>
		</layer>
		<layer id="259" name="Constant_23962" type="Const" version="opset1">
			<data element_type="i64" shape="1" offset="1864" size="8" />
			<output>
				<port id="0" precision="I64">
					<dim>1</dim>
				</port>
			</output>
		</layer>
		<layer id="260" name="Transpose_12519" type="Unsqueeze" version="opset1">
			<input>
				<port id="0" precision="FP32">
					<dim>192</dim>
					<dim>1</dim>
					<dim>3</dim>
					<dim>3</dim>
				</port>
				<port id="1" precision="I64">
					<dim>1</dim>
				</port>
			</input>
			<output>
				<port id="2" precision="FP32">
					<dim>192</dim>
					<dim>1</dim>
					<dim>1</dim>
					<dim>3</dim>
					<dim>3</dim>
				</port>
			</output>
		</layer>
		<layer id="261" name="Reshape_27508" type="Const" version="opset1">
			<data element_type="f32" shape="192, 1, 1, 1, 1" offset="66520" size="768" />
			<output>
				<port id="0" precision="FP32">
					<dim>192</dim>
					<dim>1</dim>
					<dim>1</dim>
					<dim>1</dim>
					<dim>1</dim>
				</port>
			</output>
		</layer>
		<layer id="262" name="Multiply_27509" type="Multiply" version="opset1">
			<data auto_broadcast="numpy" />
			<input>
				<port id="0" precision="FP32">
					<dim>192</dim>
					<dim>1</dim>
					<dim>1</dim>
					<dim>3</dim>
					<dim>3</dim>
				</port>
				<port id="1" precision="FP32">
					<dim>192</dim>
					<dim>1</dim>
					<dim>1</dim>
					<dim>1</dim>
					<dim>1</dim>
				</port>
			</input>
			<output>
				<port id="2" precision="FP32">
					<dim>192</dim>
					<dim>1</dim>
					<dim>1</dim>
					<dim>3</dim>
					<dim>3</dim>
				</port>
			</output>
		</layer>
		<layer id="263" name="Multiply_26948" type="GroupConvolution" version="opset1">
			<data strides="1, 1" pads_begin="0, 0" pads_end="0, 0" dilations="1, 1" auto_pad="same_upper" />
			<input>
				<port id="0" precision="FP32">
					<dim>-1</dim>
					<dim>192</dim>
					<dim>28</dim>
					<dim>28</dim>
				</port>
				<port id="1" precision="FP32">
					<dim>192</dim>
					<dim>1</dim>
					<dim>1</dim>
					<dim>3</dim>
					<dim>3</dim>
				</port>
			</input>
			<output>
				<port id="2" precision="FP32">
					<dim>-1</dim>
					<dim>192</dim>
					<dim>28</dim>
					<dim>28</dim>
				</port>
			</output>
		</layer>
		<layer id="264" name="Constant_26956" type="Const" version="opset1">
			<data element_type="f32" shape="1, 192, 1, 1" offset="67288" size="768" />
			<output>
				<port id="0" precision="FP32">
					<dim>1</dim>
					<dim>192</dim>
					<dim>1</dim>
					<dim>1</dim>
				</port>
			</output>
		</layer>
		<layer id="265" name="Transpose_16159" type="Add" version="opset1">
			<data auto_broadcast="numpy" />
			<input>
				<port id="0" precision="FP32">
					<dim>-1</dim>
					<dim>192</dim>
					<dim>28</dim>
					<dim>28</dim>
				</port>
				<port id="1" precision="FP32">
					<dim>1</dim>
					<dim>192</dim>
					<dim>1</dim>
					<dim>1</dim>
				</port>
			</input>
			<output>
				<port id="2" precision="FP32">
					<dim>-1</dim>
					<dim>192</dim>
					<dim>28</dim>
					<dim>28</dim>
				</port>
			</output>
		</layer>
		<layer id="266" name="Transpose_16161" type="Clamp" version="opset1">
			<data min="0" max="6" />
			<input>
				<port id="0" precision="FP32">
					<dim>-1</dim>
					<dim>192</dim>
					<dim>28</dim>
					<dim>28</dim>
				</port>
			</input>
			<output>
				<port id="1" precision="FP32">
					<dim>-1</dim>
					<dim>192</dim>
					<dim>28</dim>
					<dim>28</dim>
				</port>
			</output>
		</layer>
		<layer id="267" name="Transpose_16165" type="Const" version="opset1">
			<data element_type="f32" shape="1, 1, 1, 1" offset="2128" size="4" />
			<output>
				<port id="0" precision="FP32">
					<dim>1</dim>
					<dim>1</dim>
					<dim>1</dim>
					<dim>1</dim>
				</port>
			</output>
		</layer>
		<layer id="268" name="Transpose_16169" type="Const" version="opset1">
			<data element_type="f32" shape="1, 1, 1, 1" offset="2132" size="4" />
			<output>
				<port id="0" precision="FP32">
					<dim>1</dim>
					<dim>1</dim>
					<dim>1</dim>
					<dim>1</dim>
				</port>
			</output>
		</layer>
		<layer id="269" name="Transpose_16173" type="Const" version="opset1">
			<data element_type="f32" shape="1, 1, 1, 1" offset="2128" size="4" />
			<output>
				<port id="0" precision="FP32">
					<dim>1</dim>
					<dim>1</dim>
					<dim>1</dim>
					<dim>1</dim>
				</port>
			</output>
		</layer>
		<layer id="270" name="Transpose_16177" type="Const" version="opset1">
			<data element_type="f32" shape="1, 1, 1, 1" offset="2132" size="4" />
			<output>
				<port id="0" precision="FP32">
					<dim>1</dim>
					<dim>1</dim>
					<dim>1</dim>
					<dim>1</dim>
				</port>
			</output>
		</layer>
		<layer id="271" name="Transpose_16179" type="FakeQuantize" version="opset1">
			<data levels="256" auto_broadcast="numpy" />
			<input>
				<port id="0" precision="FP32">
					<dim>-1</dim>
					<dim>192</dim>
					<dim>28</dim>
					<dim>28</dim>
				</port>
				<port id="1" precision="FP32">
					<dim>1</dim>
					<dim>1</dim>
					<dim>1</dim>
					<dim>1</dim>
				</port>
				<port id="2" precision="FP32">
					<dim>1</dim>
					<dim>1</dim>
					<dim>1</dim>
					<dim>1</dim>
				</port>
				<port id="3" precision="FP32">
					<dim>1</dim>
					<dim>1</dim>
					<dim>1</dim>
					<dim>1</dim>
				</port>
				<port id="4" precision="FP32">
					<dim>1</dim>
					<dim>1</dim>
					<dim>1</dim>
					<dim>1</dim>
				</port>
			</input>
			<output>
				<port id="5" precision="FP32">
					<dim>-1</dim>
					<dim>192</dim>
					<dim>28</dim>
					<dim>28</dim>
				</port>
			</output>
		</layer>
		<layer id="272" name="Constant_28296" type="Const" version="opset1">
			<data element_type="i8" shape="32, 192, 1, 1" offset="68056" size="6144" />
			<output>
				<port id="0" precision="I8">
					<dim>32</dim>
					<dim>192</dim>
					<dim>1</dim>
					<dim>1</dim>
				</port>
			</output>
		</layer>
		<layer id="273" name="Convert_28297" type="Convert" version="opset1">
			<data destination_type="f32" />
			<input>
				<port id="0" precision="I8">
					<dim>32</dim>
					<dim>192</dim>
					<dim>1</dim>
					<dim>1</dim>
				</port>
			</input>
			<output>
				<port id="1" precision="FP32">
					<dim>32</dim>
					<dim>192</dim>
					<dim>1</dim>
					<dim>1</dim>
				</port>
			</output>
		</layer>
		<layer id="274" name="Constant_28298" type="Const" version="opset1">
			<data element_type="f32" shape="32, 1, 1, 1" offset="74200" size="128" />
			<output>
				<port id="0" precision="FP32">
					<dim>32</dim>
					<dim>1</dim>
					<dim>1</dim>
					<dim>1</dim>
				</port>
			</output>
		</layer>
		<layer id="275" name="Multiply_27512" type="Multiply" version="opset1">
			<data auto_broadcast="numpy" />
			<input>
				<port id="0" precision="FP32">
					<dim>32</dim>
					<dim>192</dim>
					<dim>1</dim>
					<dim>1</dim>
				</port>
				<port id="1" precision="FP32">
					<dim>32</dim>
					<dim>1</dim>
					<dim>1</dim>
					<dim>1</dim>
				</port>
			</input>
			<output>
				<port id="2" precision="FP32">
					<dim>32</dim>
					<dim>192</dim>
					<dim>1</dim>
					<dim>1</dim>
				</port>
			</output>
		</layer>
		<layer id="276" name="Multiply_26962" type="Convolution" version="opset1">
			<data strides="1, 1" dilations="1, 1" pads_begin="0, 0" pads_end="0, 0" auto_pad="same_upper" />
			<input>
				<port id="0" precision="FP32">
					<dim>-1</dim>
					<dim>192</dim>
					<dim>28</dim>
					<dim>28</dim>
				</port>
				<port id="1" precision="FP32">
					<dim>32</dim>
					<dim>192</dim>
					<dim>1</dim>
					<dim>1</dim>
				</port>
			</input>
			<output>
				<port id="2" precision="FP32">
					<dim>-1</dim>
					<dim>32</dim>
					<dim>28</dim>
					<dim>28</dim>
				</port>
			</output>
		</layer>
		<layer id="277" name="Constant_26970" type="Const" version="opset1">
			<data element_type="f32" shape="1, 32, 1, 1" offset="74328" size="128" />
			<output>
				<port id="0" precision="FP32">
					<dim>1</dim>
					<dim>32</dim>
					<dim>1</dim>
					<dim>1</dim>
				</port>
			</output>
		</layer>
		<layer id="278" name="Transpose_16231" type="Add" version="opset1">
			<data auto_broadcast="numpy" />
			<input>
				<port id="0" precision="FP32">
					<dim>-1</dim>
					<dim>32</dim>
					<dim>28</dim>
					<dim>28</dim>
				</port>
				<port id="1" precision="FP32">
					<dim>1</dim>
					<dim>32</dim>
					<dim>1</dim>
					<dim>1</dim>
				</port>
			</input>
			<output>
				<port id="2" precision="FP32">
					<dim>-1</dim>
					<dim>32</dim>
					<dim>28</dim>
					<dim>28</dim>
				</port>
			</output>
		</layer>
		<layer id="279" name="Transpose_16235" type="Const" version="opset1">
			<data element_type="f32" shape="1, 1, 1, 1" offset="74456" size="4" />
			<output>
				<port id="0" precision="FP32">
					<dim>1</dim>
					<dim>1</dim>
					<dim>1</dim>
					<dim>1</dim>
				</port>
			</output>
		</layer>
		<layer id="280" name="Transpose_16239" type="Const" version="opset1">
			<data element_type="f32" shape="1, 1, 1, 1" offset="74460" size="4" />
			<output>
				<port id="0" precision="FP32">
					<dim>1</dim>
					<dim>1</dim>
					<dim>1</dim>
					<dim>1</dim>
				</port>
			</output>
		</layer>
		<layer id="281" name="Transpose_16243" type="Const" version="opset1">
			<data element_type="f32" shape="1, 1, 1, 1" offset="74456" size="4" />
			<output>
				<port id="0" precision="FP32">
					<dim>1</dim>
					<dim>1</dim>
					<dim>1</dim>
					<dim>1</dim>
				</port>
			</output>
		</layer>
		<layer id="282" name="Transpose_16247" type="Const" version="opset1">
			<data element_type="f32" shape="1, 1, 1, 1" offset="74460" size="4" />
			<output>
				<port id="0" precision="FP32">
					<dim>1</dim>
					<dim>1</dim>
					<dim>1</dim>
					<dim>1</dim>
				</port>
			</output>
		</layer>
		<layer id="283" name="Transpose_16249" type="FakeQuantize" version="opset1">
			<data levels="256" auto_broadcast="numpy" />
			<input>
				<port id="0" precision="FP32">
					<dim>-1</dim>
					<dim>32</dim>
					<dim>28</dim>
					<dim>28</dim>
				</port>
				<port id="1" precision="FP32">
					<dim>1</dim>
					<dim>1</dim>
					<dim>1</dim>
					<dim>1</dim>
				</port>
				<port id="2" precision="FP32">
					<dim>1</dim>
					<dim>1</dim>
					<dim>1</dim>
					<dim>1</dim>
				</port>
				<port id="3" precision="FP32">
					<dim>1</dim>
					<dim>1</dim>
					<dim>1</dim>
					<dim>1</dim>
				</port>
				<port id="4" precision="FP32">
					<dim>1</dim>
					<dim>1</dim>
					<dim>1</dim>
					<dim>1</dim>
				</port>
			</input>
			<output>
				<port id="5" precision="FP32">
					<dim>-1</dim>
					<dim>32</dim>
					<dim>28</dim>
					<dim>28</dim>
				</port>
			</output>
		</layer>
		<layer id="284" name="Transpose_16253" type="Add" version="opset1">
			<data auto_broadcast="numpy" />
			<input>
				<port id="0" precision="FP32">
					<dim>-1</dim>
					<dim>32</dim>
					<dim>28</dim>
					<dim>28</dim>
				</port>
				<port id="1" precision="FP32">
					<dim>-1</dim>
					<dim>32</dim>
					<dim>28</dim>
					<dim>28</dim>
				</port>
			</input>
			<output>
				<port id="2" precision="FP32">
					<dim>-1</dim>
					<dim>32</dim>
					<dim>28</dim>
					<dim>28</dim>
				</port>
			</output>
		</layer>
		<layer id="285" name="Transpose_16257" type="Const" version="opset1">
			<data element_type="f32" shape="1, 1, 1, 1" offset="74464" size="4" />
			<output>
				<port id="0" precision="FP32">
					<dim>1</dim>
					<dim>1</dim>
					<dim>1</dim>
					<dim>1</dim>
				</port>
			</output>
		</layer>
		<layer id="286" name="Transpose_16261" type="Const" version="opset1">
			<data element_type="f32" shape="1, 1, 1, 1" offset="74468" size="4" />
			<output>
				<port id="0" precision="FP32">
					<dim>1</dim>
					<dim>1</dim>
					<dim>1</dim>
					<dim>1</dim>
				</port>
			</output>
		</layer>
		<layer id="287" name="Transpose_16265" type="Const" version="opset1">
			<data element_type="f32" shape="1, 1, 1, 1" offset="74464" size="4" />
			<output>
				<port id="0" precision="FP32">
					<dim>1</dim>
					<dim>1</dim>
					<dim>1</dim>
					<dim>1</dim>
				</port>
			</output>
		</layer>
		<layer id="288" name="Transpose_16269" type="Const" version="opset1">
			<data element_type="f32" shape="1, 1, 1, 1" offset="74468" size="4" />
			<output>
				<port id="0" precision="FP32">
					<dim>1</dim>
					<dim>1</dim>
					<dim>1</dim>
					<dim>1</dim>
				</port>
			</output>
		</layer>
		<layer id="289" name="Transpose_16271" type="FakeQuantize" version="opset1">
			<data levels="256" auto_broadcast="numpy" />
			<input>
				<port id="0" precision="FP32">
					<dim>-1</dim>
					<dim>32</dim>
					<dim>28</dim>
					<dim>28</dim>
				</port>
				<port id="1" precision="FP32">
					<dim>1</dim>
					<dim>1</dim>
					<dim>1</dim>
					<dim>1</dim>
				</port>
				<port id="2" precision="FP32">
					<dim>1</dim>
					<dim>1</dim>
					<dim>1</dim>
					<dim>1</dim>
				</port>
				<port id="3" precision="FP32">
					<dim>1</dim>
					<dim>1</dim>
					<dim>1</dim>
					<dim>1</dim>
				</port>
				<port id="4" precision="FP32">
					<dim>1</dim>
					<dim>1</dim>
					<dim>1</dim>
					<dim>1</dim>
				</port>
			</input>
			<output>
				<port id="5" precision="FP32">
					<dim>-1</dim>
					<dim>32</dim>
					<dim>28</dim>
					<dim>28</dim>
				</port>
			</output>
		</layer>
		<layer id="290" name="Constant_28300" type="Const" version="opset1">
			<data element_type="i8" shape="192, 32, 1, 1" offset="74472" size="6144" />
			<output>
				<port id="0" precision="I8">
					<dim>192</dim>
					<dim>32</dim>
					<dim>1</dim>
					<dim>1</dim>
				</port>
			</output>
		</layer>
		<layer id="291" name="Convert_28301" type="Convert" version="opset1">
			<data destination_type="f32" />
			<input>
				<port id="0" precision="I8">
					<dim>192</dim>
					<dim>32</dim>
					<dim>1</dim>
					<dim>1</dim>
				</port>
			</input>
			<output>
				<port id="1" precision="FP32">
					<dim>192</dim>
					<dim>32</dim>
					<dim>1</dim>
					<dim>1</dim>
				</port>
			</output>
		</layer>
		<layer id="292" name="Constant_28302" type="Const" version="opset1">
			<data element_type="f32" shape="192, 1, 1, 1" offset="80616" size="768" />
			<output>
				<port id="0" precision="FP32">
					<dim>192</dim>
					<dim>1</dim>
					<dim>1</dim>
					<dim>1</dim>
				</port>
			</output>
		</layer>
		<layer id="293" name="Multiply_27516" type="Multiply" version="opset1">
			<data auto_broadcast="numpy" />
			<input>
				<port id="0" precision="FP32">
					<dim>192</dim>
					<dim>32</dim>
					<dim>1</dim>
					<dim>1</dim>
				</port>
				<port id="1" precision="FP32">
					<dim>192</dim>
					<dim>1</dim>
					<dim>1</dim>
					<dim>1</dim>
				</port>
			</input>
			<output>
				<port id="2" precision="FP32">
					<dim>192</dim>
					<dim>32</dim>
					<dim>1</dim>
					<dim>1</dim>
				</port>
			</output>
		</layer>
		<layer id="294" name="Multiply_26976" type="Convolution" version="opset1">
			<data strides="1, 1" dilations="1, 1" pads_begin="0, 0" pads_end="0, 0" auto_pad="same_upper" />
			<input>
				<port id="0" precision="FP32">
					<dim>-1</dim>
					<dim>32</dim>
					<dim>28</dim>
					<dim>28</dim>
				</port>
				<port id="1" precision="FP32">
					<dim>192</dim>
					<dim>32</dim>
					<dim>1</dim>
					<dim>1</dim>
				</port>
			</input>
			<output>
				<port id="2" precision="FP32">
					<dim>-1</dim>
					<dim>192</dim>
					<dim>28</dim>
					<dim>28</dim>
				</port>
			</output>
		</layer>
		<layer id="295" name="Constant_26984" type="Const" version="opset1">
			<data element_type="f32" shape="1, 192, 1, 1" offset="81384" size="768" />
			<output>
				<port id="0" precision="FP32">
					<dim>1</dim>
					<dim>192</dim>
					<dim>1</dim>
					<dim>1</dim>
				</port>
			</output>
		</layer>
		<layer id="296" name="Transpose_16323" type="Add" version="opset1">
			<data auto_broadcast="numpy" />
			<input>
				<port id="0" precision="FP32">
					<dim>-1</dim>
					<dim>192</dim>
					<dim>28</dim>
					<dim>28</dim>
				</port>
				<port id="1" precision="FP32">
					<dim>1</dim>
					<dim>192</dim>
					<dim>1</dim>
					<dim>1</dim>
				</port>
			</input>
			<output>
				<port id="2" precision="FP32">
					<dim>-1</dim>
					<dim>192</dim>
					<dim>28</dim>
					<dim>28</dim>
				</port>
			</output>
		</layer>
		<layer id="297" name="Transpose_16325" type="Clamp" version="opset1">
			<data min="0" max="6" />
			<input>
				<port id="0" precision="FP32">
					<dim>-1</dim>
					<dim>192</dim>
					<dim>28</dim>
					<dim>28</dim>
				</port>
			</input>
			<output>
				<port id="1" precision="FP32">
					<dim>-1</dim>
					<dim>192</dim>
					<dim>28</dim>
					<dim>28</dim>
				</port>
			</output>
		</layer>
		<layer id="298" name="Transpose_16329" type="Const" version="opset1">
			<data element_type="f32" shape="1, 192, 1, 1" offset="43588" size="768" />
			<output>
				<port id="0" precision="FP32">
					<dim>1</dim>
					<dim>192</dim>
					<dim>1</dim>
					<dim>1</dim>
				</port>
			</output>
		</layer>
		<layer id="299" name="Transpose_16333" type="Const" version="opset1">
			<data element_type="f32" shape="1, 192, 1, 1" offset="82152" size="768" />
			<output>
				<port id="0" precision="FP32">
					<dim>1</dim>
					<dim>192</dim>
					<dim>1</dim>
					<dim>1</dim>
				</port>
			</output>
		</layer>
		<layer id="300" name="Transpose_16337" type="Const" version="opset1">
			<data element_type="f32" shape="1, 192, 1, 1" offset="43588" size="768" />
			<output>
				<port id="0" precision="FP32">
					<dim>1</dim>
					<dim>192</dim>
					<dim>1</dim>
					<dim>1</dim>
				</port>
			</output>
		</layer>
		<layer id="301" name="Transpose_16341" type="Const" version="opset1">
			<data element_type="f32" shape="1, 192, 1, 1" offset="82152" size="768" />
			<output>
				<port id="0" precision="FP32">
					<dim>1</dim>
					<dim>192</dim>
					<dim>1</dim>
					<dim>1</dim>
				</port>
			</output>
		</layer>
		<layer id="302" name="Transpose_16343" type="FakeQuantize" version="opset1">
			<data levels="256" auto_broadcast="numpy" />
			<input>
				<port id="0" precision="FP32">
					<dim>-1</dim>
					<dim>192</dim>
					<dim>28</dim>
					<dim>28</dim>
				</port>
				<port id="1" precision="FP32">
					<dim>1</dim>
					<dim>192</dim>
					<dim>1</dim>
					<dim>1</dim>
				</port>
				<port id="2" precision="FP32">
					<dim>1</dim>
					<dim>192</dim>
					<dim>1</dim>
					<dim>1</dim>
				</port>
				<port id="3" precision="FP32">
					<dim>1</dim>
					<dim>192</dim>
					<dim>1</dim>
					<dim>1</dim>
				</port>
				<port id="4" precision="FP32">
					<dim>1</dim>
					<dim>192</dim>
					<dim>1</dim>
					<dim>1</dim>
				</port>
			</input>
			<output>
				<port id="5" precision="FP32">
					<dim>-1</dim>
					<dim>192</dim>
					<dim>28</dim>
					<dim>28</dim>
				</port>
			</output>
		</layer>
		<layer id="303" name="Constant_28304" type="Const" version="opset1">
			<data element_type="i8" shape="3, 3, 192, 1" offset="82920" size="1728" />
			<output>
				<port id="0" precision="I8">
					<dim>3</dim>
					<dim>3</dim>
					<dim>192</dim>
					<dim>1</dim>
				</port>
			</output>
		</layer>
		<layer id="304" name="Convert_28305" type="Convert" version="opset1">
			<data destination_type="f32" />
			<input>
				<port id="0" precision="I8">
					<dim>3</dim>
					<dim>3</dim>
					<dim>192</dim>
					<dim>1</dim>
				</port>
			</input>
			<output>
				<port id="1" precision="FP32">
					<dim>3</dim>
					<dim>3</dim>
					<dim>192</dim>
					<dim>1</dim>
				</port>
			</output>
		</layer>
		<layer id="305" name="Constant_28306" type="Const" version="opset1">
			<data element_type="f32" shape="1, 1, 192, 1" offset="84648" size="768" />
			<output>
				<port id="0" precision="FP32">
					<dim>1</dim>
					<dim>1</dim>
					<dim>192</dim>
					<dim>1</dim>
				</port>
			</output>
		</layer>
		<layer id="306" name="mobilenetv2_1.00_224/block_6_depthwise/Reshape_1" type="Multiply" version="opset1">
			<data auto_broadcast="numpy" />
			<input>
				<port id="0" precision="FP32">
					<dim>3</dim>
					<dim>3</dim>
					<dim>192</dim>
					<dim>1</dim>
				</port>
				<port id="1" precision="FP32">
					<dim>1</dim>
					<dim>1</dim>
					<dim>192</dim>
					<dim>1</dim>
				</port>
			</input>
			<output>
				<port id="2" precision="FP32" names="mobilenetv2_1.00_224/block_6_depthwise/Reshape_1,mobilenetv2_1.00_224/block_6_depthwise/Reshape_1:0">
					<dim>3</dim>
					<dim>3</dim>
					<dim>192</dim>
					<dim>1</dim>
				</port>
			</output>
		</layer>
		<layer id="307" name="Constant_24032" type="Const" version="opset1">
			<data element_type="i64" shape="4" offset="1832" size="32" />
			<output>
				<port id="0" precision="I64">
					<dim>4</dim>
				</port>
			</output>
		</layer>
		<layer id="308" name="Transpose_24033" type="Transpose" version="opset1">
			<input>
				<port id="0" precision="FP32">
					<dim>3</dim>
					<dim>3</dim>
					<dim>192</dim>
					<dim>1</dim>
				</port>
				<port id="1" precision="I64">
					<dim>4</dim>
				</port>
			</input>
			<output>
				<port id="2" precision="FP32">
					<dim>192</dim>
					<dim>1</dim>
					<dim>3</dim>
					<dim>3</dim>
				</port>
			</output>
		</layer>
		<layer id="309" name="Constant_24034" type="Const" version="opset1">
			<data element_type="i64" shape="1" offset="1864" size="8" />
			<output>
				<port id="0" precision="I64">
					<dim>1</dim>
				</port>
			</output>
		</layer>
		<layer id="310" name="Transpose_12706" type="Unsqueeze" version="opset1">
			<input>
				<port id="0" precision="FP32">
					<dim>192</dim>
					<dim>1</dim>
					<dim>3</dim>
					<dim>3</dim>
				</port>
				<port id="1" precision="I64">
					<dim>1</dim>
				</port>
			</input>
			<output>
				<port id="2" precision="FP32">
					<dim>192</dim>
					<dim>1</dim>
					<dim>1</dim>
					<dim>3</dim>
					<dim>3</dim>
				</port>
			</output>
		</layer>
		<layer id="311" name="Reshape_27519" type="Const" version="opset1">
			<data element_type="f32" shape="192, 1, 1, 1, 1" offset="85416" size="768" />
			<output>
				<port id="0" precision="FP32">
					<dim>192</dim>
					<dim>1</dim>
					<dim>1</dim>
					<dim>1</dim>
					<dim>1</dim>
				</port>
			</output>
		</layer>
		<layer id="312" name="Multiply_27520" type="Multiply" version="opset1">
			<data auto_broadcast="numpy" />
			<input>
				<port id="0" precision="FP32">
					<dim>192</dim>
					<dim>1</dim>
					<dim>1</dim>
					<dim>3</dim>
					<dim>3</dim>
				</port>
				<port id="1" precision="FP32">
					<dim>192</dim>
					<dim>1</dim>
					<dim>1</dim>
					<dim>1</dim>
					<dim>1</dim>
				</port>
			</input>
			<output>
				<port id="2" precision="FP32">
					<dim>192</dim>
					<dim>1</dim>
					<dim>1</dim>
					<dim>3</dim>
					<dim>3</dim>
				</port>
			</output>
		</layer>
		<layer id="313" name="Multiply_26990" type="GroupConvolution" version="opset1">
			<data strides="2, 2" pads_begin="0, 0" pads_end="1, 1" dilations="1, 1" auto_pad="explicit" />
			<input>
				<port id="0" precision="FP32">
					<dim>-1</dim>
					<dim>192</dim>
					<dim>28</dim>
					<dim>28</dim>
				</port>
				<port id="1" precision="FP32">
					<dim>192</dim>
					<dim>1</dim>
					<dim>1</dim>
					<dim>3</dim>
					<dim>3</dim>
				</port>
			</input>
			<output>
				<port id="2" precision="FP32">
					<dim>-1</dim>
					<dim>192</dim>
					<dim>14</dim>
					<dim>14</dim>
				</port>
			</output>
		</layer>
		<layer id="314" name="Constant_26998" type="Const" version="opset1">
			<data element_type="f32" shape="1, 192, 1, 1" offset="86184" size="768" />
			<output>
				<port id="0" precision="FP32">
					<dim>1</dim>
					<dim>192</dim>
					<dim>1</dim>
					<dim>1</dim>
				</port>
			</output>
		</layer>
		<layer id="315" name="Transpose_16418" type="Add" version="opset1">
			<data auto_broadcast="numpy" />
			<input>
				<port id="0" precision="FP32">
					<dim>-1</dim>
					<dim>192</dim>
					<dim>14</dim>
					<dim>14</dim>
				</port>
				<port id="1" precision="FP32">
					<dim>1</dim>
					<dim>192</dim>
					<dim>1</dim>
					<dim>1</dim>
				</port>
			</input>
			<output>
				<port id="2" precision="FP32">
					<dim>-1</dim>
					<dim>192</dim>
					<dim>14</dim>
					<dim>14</dim>
				</port>
			</output>
		</layer>
		<layer id="316" name="Transpose_16420" type="Clamp" version="opset1">
			<data min="0" max="6" />
			<input>
				<port id="0" precision="FP32">
					<dim>-1</dim>
					<dim>192</dim>
					<dim>14</dim>
					<dim>14</dim>
				</port>
			</input>
			<output>
				<port id="1" precision="FP32">
					<dim>-1</dim>
					<dim>192</dim>
					<dim>14</dim>
					<dim>14</dim>
				</port>
			</output>
		</layer>
		<layer id="317" name="Transpose_16424" type="Const" version="opset1">
			<data element_type="f32" shape="1, 1, 1, 1" offset="2128" size="4" />
			<output>
				<port id="0" precision="FP32">
					<dim>1</dim>
					<dim>1</dim>
					<dim>1</dim>
					<dim>1</dim>
				</port>
			</output>
		</layer>
		<layer id="318" name="Transpose_16428" type="Const" version="opset1">
			<data element_type="f32" shape="1, 1, 1, 1" offset="86952" size="4" />
			<output>
				<port id="0" precision="FP32">
					<dim>1</dim>
					<dim>1</dim>
					<dim>1</dim>
					<dim>1</dim>
				</port>
			</output>
		</layer>
		<layer id="319" name="Transpose_16432" type="Const" version="opset1">
			<data element_type="f32" shape="1, 1, 1, 1" offset="2128" size="4" />
			<output>
				<port id="0" precision="FP32">
					<dim>1</dim>
					<dim>1</dim>
					<dim>1</dim>
					<dim>1</dim>
				</port>
			</output>
		</layer>
		<layer id="320" name="Transpose_16436" type="Const" version="opset1">
			<data element_type="f32" shape="1, 1, 1, 1" offset="86952" size="4" />
			<output>
				<port id="0" precision="FP32">
					<dim>1</dim>
					<dim>1</dim>
					<dim>1</dim>
					<dim>1</dim>
				</port>
			</output>
		</layer>
		<layer id="321" name="Transpose_16438" type="FakeQuantize" version="opset1">
			<data levels="256" auto_broadcast="numpy" />
			<input>
				<port id="0" precision="FP32">
					<dim>-1</dim>
					<dim>192</dim>
					<dim>14</dim>
					<dim>14</dim>
				</port>
				<port id="1" precision="FP32">
					<dim>1</dim>
					<dim>1</dim>
					<dim>1</dim>
					<dim>1</dim>
				</port>
				<port id="2" precision="FP32">
					<dim>1</dim>
					<dim>1</dim>
					<dim>1</dim>
					<dim>1</dim>
				</port>
				<port id="3" precision="FP32">
					<dim>1</dim>
					<dim>1</dim>
					<dim>1</dim>
					<dim>1</dim>
				</port>
				<port id="4" precision="FP32">
					<dim>1</dim>
					<dim>1</dim>
					<dim>1</dim>
					<dim>1</dim>
				</port>
			</input>
			<output>
				<port id="5" precision="FP32">
					<dim>-1</dim>
					<dim>192</dim>
					<dim>14</dim>
					<dim>14</dim>
				</port>
			</output>
		</layer>
		<layer id="322" name="Constant_28308" type="Const" version="opset1">
			<data element_type="i8" shape="64, 192, 1, 1" offset="86956" size="12288" />
			<output>
				<port id="0" precision="I8">
					<dim>64</dim>
					<dim>192</dim>
					<dim>1</dim>
					<dim>1</dim>
				</port>
			</output>
		</layer>
		<layer id="323" name="Convert_28309" type="Convert" version="opset1">
			<data destination_type="f32" />
			<input>
				<port id="0" precision="I8">
					<dim>64</dim>
					<dim>192</dim>
					<dim>1</dim>
					<dim>1</dim>
				</port>
			</input>
			<output>
				<port id="1" precision="FP32">
					<dim>64</dim>
					<dim>192</dim>
					<dim>1</dim>
					<dim>1</dim>
				</port>
			</output>
		</layer>
		<layer id="324" name="Constant_28310" type="Const" version="opset1">
			<data element_type="f32" shape="64, 1, 1, 1" offset="99244" size="256" />
			<output>
				<port id="0" precision="FP32">
					<dim>64</dim>
					<dim>1</dim>
					<dim>1</dim>
					<dim>1</dim>
				</port>
			</output>
		</layer>
		<layer id="325" name="Multiply_27523" type="Multiply" version="opset1">
			<data auto_broadcast="numpy" />
			<input>
				<port id="0" precision="FP32">
					<dim>64</dim>
					<dim>192</dim>
					<dim>1</dim>
					<dim>1</dim>
				</port>
				<port id="1" precision="FP32">
					<dim>64</dim>
					<dim>1</dim>
					<dim>1</dim>
					<dim>1</dim>
				</port>
			</input>
			<output>
				<port id="2" precision="FP32">
					<dim>64</dim>
					<dim>192</dim>
					<dim>1</dim>
					<dim>1</dim>
				</port>
			</output>
		</layer>
		<layer id="326" name="Multiply_27004" type="Convolution" version="opset1">
			<data strides="1, 1" dilations="1, 1" pads_begin="0, 0" pads_end="0, 0" auto_pad="same_upper" />
			<input>
				<port id="0" precision="FP32">
					<dim>-1</dim>
					<dim>192</dim>
					<dim>14</dim>
					<dim>14</dim>
				</port>
				<port id="1" precision="FP32">
					<dim>64</dim>
					<dim>192</dim>
					<dim>1</dim>
					<dim>1</dim>
				</port>
			</input>
			<output>
				<port id="2" precision="FP32">
					<dim>-1</dim>
					<dim>64</dim>
					<dim>14</dim>
					<dim>14</dim>
				</port>
			</output>
		</layer>
		<layer id="327" name="Constant_27012" type="Const" version="opset1">
			<data element_type="f32" shape="1, 64, 1, 1" offset="99500" size="256" />
			<output>
				<port id="0" precision="FP32">
					<dim>1</dim>
					<dim>64</dim>
					<dim>1</dim>
					<dim>1</dim>
				</port>
			</output>
		</layer>
		<layer id="328" name="Transpose_16490" type="Add" version="opset1">
			<data auto_broadcast="numpy" />
			<input>
				<port id="0" precision="FP32">
					<dim>-1</dim>
					<dim>64</dim>
					<dim>14</dim>
					<dim>14</dim>
				</port>
				<port id="1" precision="FP32">
					<dim>1</dim>
					<dim>64</dim>
					<dim>1</dim>
					<dim>1</dim>
				</port>
			</input>
			<output>
				<port id="2" precision="FP32">
					<dim>-1</dim>
					<dim>64</dim>
					<dim>14</dim>
					<dim>14</dim>
				</port>
			</output>
		</layer>
		<layer id="329" name="Transpose_16494" type="Const" version="opset1">
			<data element_type="f32" shape="1, 1, 1, 1" offset="99756" size="4" />
			<output>
				<port id="0" precision="FP32">
					<dim>1</dim>
					<dim>1</dim>
					<dim>1</dim>
					<dim>1</dim>
				</port>
			</output>
		</layer>
		<layer id="330" name="Transpose_16498" type="Const" version="opset1">
			<data element_type="f32" shape="1, 1, 1, 1" offset="99760" size="4" />
			<output>
				<port id="0" precision="FP32">
					<dim>1</dim>
					<dim>1</dim>
					<dim>1</dim>
					<dim>1</dim>
				</port>
			</output>
		</layer>
		<layer id="331" name="Transpose_16502" type="Const" version="opset1">
			<data element_type="f32" shape="1, 1, 1, 1" offset="99756" size="4" />
			<output>
				<port id="0" precision="FP32">
					<dim>1</dim>
					<dim>1</dim>
					<dim>1</dim>
					<dim>1</dim>
				</port>
			</output>
		</layer>
		<layer id="332" name="Transpose_16506" type="Const" version="opset1">
			<data element_type="f32" shape="1, 1, 1, 1" offset="99760" size="4" />
			<output>
				<port id="0" precision="FP32">
					<dim>1</dim>
					<dim>1</dim>
					<dim>1</dim>
					<dim>1</dim>
				</port>
			</output>
		</layer>
		<layer id="333" name="Transpose_16508" type="FakeQuantize" version="opset1">
			<data levels="256" auto_broadcast="numpy" />
			<input>
				<port id="0" precision="FP32">
					<dim>-1</dim>
					<dim>64</dim>
					<dim>14</dim>
					<dim>14</dim>
				</port>
				<port id="1" precision="FP32">
					<dim>1</dim>
					<dim>1</dim>
					<dim>1</dim>
					<dim>1</dim>
				</port>
				<port id="2" precision="FP32">
					<dim>1</dim>
					<dim>1</dim>
					<dim>1</dim>
					<dim>1</dim>
				</port>
				<port id="3" precision="FP32">
					<dim>1</dim>
					<dim>1</dim>
					<dim>1</dim>
					<dim>1</dim>
				</port>
				<port id="4" precision="FP32">
					<dim>1</dim>
					<dim>1</dim>
					<dim>1</dim>
					<dim>1</dim>
				</port>
			</input>
			<output>
				<port id="5" precision="FP32">
					<dim>-1</dim>
					<dim>64</dim>
					<dim>14</dim>
					<dim>14</dim>
				</port>
			</output>
		</layer>
		<layer id="334" name="Constant_28312" type="Const" version="opset1">
			<data element_type="i8" shape="384, 64, 1, 1" offset="99764" size="24576" />
			<output>
				<port id="0" precision="I8">
					<dim>384</dim>
					<dim>64</dim>
					<dim>1</dim>
					<dim>1</dim>
				</port>
			</output>
		</layer>
		<layer id="335" name="Convert_28313" type="Convert" version="opset1">
			<data destination_type="f32" />
			<input>
				<port id="0" precision="I8">
					<dim>384</dim>
					<dim>64</dim>
					<dim>1</dim>
					<dim>1</dim>
				</port>
			</input>
			<output>
				<port id="1" precision="FP32">
					<dim>384</dim>
					<dim>64</dim>
					<dim>1</dim>
					<dim>1</dim>
				</port>
			</output>
		</layer>
		<layer id="336" name="Constant_28314" type="Const" version="opset1">
			<data element_type="f32" shape="384, 1, 1, 1" offset="124340" size="1536" />
			<output>
				<port id="0" precision="FP32">
					<dim>384</dim>
					<dim>1</dim>
					<dim>1</dim>
					<dim>1</dim>
				</port>
			</output>
		</layer>
		<layer id="337" name="Multiply_27527" type="Multiply" version="opset1">
			<data auto_broadcast="numpy" />
			<input>
				<port id="0" precision="FP32">
					<dim>384</dim>
					<dim>64</dim>
					<dim>1</dim>
					<dim>1</dim>
				</port>
				<port id="1" precision="FP32">
					<dim>384</dim>
					<dim>1</dim>
					<dim>1</dim>
					<dim>1</dim>
				</port>
			</input>
			<output>
				<port id="2" precision="FP32">
					<dim>384</dim>
					<dim>64</dim>
					<dim>1</dim>
					<dim>1</dim>
				</port>
			</output>
		</layer>
		<layer id="338" name="Multiply_27018" type="Convolution" version="opset1">
			<data strides="1, 1" dilations="1, 1" pads_begin="0, 0" pads_end="0, 0" auto_pad="same_upper" />
			<input>
				<port id="0" precision="FP32">
					<dim>-1</dim>
					<dim>64</dim>
					<dim>14</dim>
					<dim>14</dim>
				</port>
				<port id="1" precision="FP32">
					<dim>384</dim>
					<dim>64</dim>
					<dim>1</dim>
					<dim>1</dim>
				</port>
			</input>
			<output>
				<port id="2" precision="FP32">
					<dim>-1</dim>
					<dim>384</dim>
					<dim>14</dim>
					<dim>14</dim>
				</port>
			</output>
		</layer>
		<layer id="339" name="Constant_27026" type="Const" version="opset1">
			<data element_type="f32" shape="1, 384, 1, 1" offset="125876" size="1536" />
			<output>
				<port id="0" precision="FP32">
					<dim>1</dim>
					<dim>384</dim>
					<dim>1</dim>
					<dim>1</dim>
				</port>
			</output>
		</layer>
		<layer id="340" name="Transpose_16560" type="Add" version="opset1">
			<data auto_broadcast="numpy" />
			<input>
				<port id="0" precision="FP32">
					<dim>-1</dim>
					<dim>384</dim>
					<dim>14</dim>
					<dim>14</dim>
				</port>
				<port id="1" precision="FP32">
					<dim>1</dim>
					<dim>384</dim>
					<dim>1</dim>
					<dim>1</dim>
				</port>
			</input>
			<output>
				<port id="2" precision="FP32">
					<dim>-1</dim>
					<dim>384</dim>
					<dim>14</dim>
					<dim>14</dim>
				</port>
			</output>
		</layer>
		<layer id="341" name="Transpose_16562" type="Clamp" version="opset1">
			<data min="0" max="6" />
			<input>
				<port id="0" precision="FP32">
					<dim>-1</dim>
					<dim>384</dim>
					<dim>14</dim>
					<dim>14</dim>
				</port>
			</input>
			<output>
				<port id="1" precision="FP32">
					<dim>-1</dim>
					<dim>384</dim>
					<dim>14</dim>
					<dim>14</dim>
				</port>
			</output>
		</layer>
		<layer id="342" name="Transpose_16566" type="Const" version="opset1">
			<data element_type="f32" shape="1, 384, 1, 1" offset="127412" size="1536" />
			<output>
				<port id="0" precision="FP32">
					<dim>1</dim>
					<dim>384</dim>
					<dim>1</dim>
					<dim>1</dim>
				</port>
			</output>
		</layer>
		<layer id="343" name="Transpose_16570" type="Const" version="opset1">
			<data element_type="f32" shape="1, 384, 1, 1" offset="128948" size="1536" />
			<output>
				<port id="0" precision="FP32">
					<dim>1</dim>
					<dim>384</dim>
					<dim>1</dim>
					<dim>1</dim>
				</port>
			</output>
		</layer>
		<layer id="344" name="Transpose_16574" type="Const" version="opset1">
			<data element_type="f32" shape="1, 384, 1, 1" offset="127412" size="1536" />
			<output>
				<port id="0" precision="FP32">
					<dim>1</dim>
					<dim>384</dim>
					<dim>1</dim>
					<dim>1</dim>
				</port>
			</output>
		</layer>
		<layer id="345" name="Transpose_16578" type="Const" version="opset1">
			<data element_type="f32" shape="1, 384, 1, 1" offset="128948" size="1536" />
			<output>
				<port id="0" precision="FP32">
					<dim>1</dim>
					<dim>384</dim>
					<dim>1</dim>
					<dim>1</dim>
				</port>
			</output>
		</layer>
		<layer id="346" name="Transpose_16580" type="FakeQuantize" version="opset1">
			<data levels="256" auto_broadcast="numpy" />
			<input>
				<port id="0" precision="FP32">
					<dim>-1</dim>
					<dim>384</dim>
					<dim>14</dim>
					<dim>14</dim>
				</port>
				<port id="1" precision="FP32">
					<dim>1</dim>
					<dim>384</dim>
					<dim>1</dim>
					<dim>1</dim>
				</port>
				<port id="2" precision="FP32">
					<dim>1</dim>
					<dim>384</dim>
					<dim>1</dim>
					<dim>1</dim>
				</port>
				<port id="3" precision="FP32">
					<dim>1</dim>
					<dim>384</dim>
					<dim>1</dim>
					<dim>1</dim>
				</port>
				<port id="4" precision="FP32">
					<dim>1</dim>
					<dim>384</dim>
					<dim>1</dim>
					<dim>1</dim>
				</port>
			</input>
			<output>
				<port id="5" precision="FP32">
					<dim>-1</dim>
					<dim>384</dim>
					<dim>14</dim>
					<dim>14</dim>
				</port>
			</output>
		</layer>
		<layer id="347" name="Constant_28316" type="Const" version="opset1">
			<data element_type="i8" shape="3, 3, 384, 1" offset="130484" size="3456" />
			<output>
				<port id="0" precision="I8">
					<dim>3</dim>
					<dim>3</dim>
					<dim>384</dim>
					<dim>1</dim>
				</port>
			</output>
		</layer>
		<layer id="348" name="Convert_28317" type="Convert" version="opset1">
			<data destination_type="f32" />
			<input>
				<port id="0" precision="I8">
					<dim>3</dim>
					<dim>3</dim>
					<dim>384</dim>
					<dim>1</dim>
				</port>
			</input>
			<output>
				<port id="1" precision="FP32">
					<dim>3</dim>
					<dim>3</dim>
					<dim>384</dim>
					<dim>1</dim>
				</port>
			</output>
		</layer>
		<layer id="349" name="Constant_28318" type="Const" version="opset1">
			<data element_type="f32" shape="1, 1, 384, 1" offset="133940" size="1536" />
			<output>
				<port id="0" precision="FP32">
					<dim>1</dim>
					<dim>1</dim>
					<dim>384</dim>
					<dim>1</dim>
				</port>
			</output>
		</layer>
		<layer id="350" name="mobilenetv2_1.00_224/block_7_depthwise/Reshape_1" type="Multiply" version="opset1">
			<data auto_broadcast="numpy" />
			<input>
				<port id="0" precision="FP32">
					<dim>3</dim>
					<dim>3</dim>
					<dim>384</dim>
					<dim>1</dim>
				</port>
				<port id="1" precision="FP32">
					<dim>1</dim>
					<dim>1</dim>
					<dim>384</dim>
					<dim>1</dim>
				</port>
			</input>
			<output>
				<port id="2" precision="FP32" names="mobilenetv2_1.00_224/block_7_depthwise/Reshape_1,mobilenetv2_1.00_224/block_7_depthwise/Reshape_1:0">
					<dim>3</dim>
					<dim>3</dim>
					<dim>384</dim>
					<dim>1</dim>
				</port>
			</output>
		</layer>
		<layer id="351" name="Constant_24104" type="Const" version="opset1">
			<data element_type="i64" shape="4" offset="1832" size="32" />
			<output>
				<port id="0" precision="I64">
					<dim>4</dim>
				</port>
			</output>
		</layer>
		<layer id="352" name="Transpose_24105" type="Transpose" version="opset1">
			<input>
				<port id="0" precision="FP32">
					<dim>3</dim>
					<dim>3</dim>
					<dim>384</dim>
					<dim>1</dim>
				</port>
				<port id="1" precision="I64">
					<dim>4</dim>
				</port>
			</input>
			<output>
				<port id="2" precision="FP32">
					<dim>384</dim>
					<dim>1</dim>
					<dim>3</dim>
					<dim>3</dim>
				</port>
			</output>
		</layer>
		<layer id="353" name="Constant_24106" type="Const" version="opset1">
			<data element_type="i64" shape="1" offset="1864" size="8" />
			<output>
				<port id="0" precision="I64">
					<dim>1</dim>
				</port>
			</output>
		</layer>
		<layer id="354" name="Transpose_12848" type="Unsqueeze" version="opset1">
			<input>
				<port id="0" precision="FP32">
					<dim>384</dim>
					<dim>1</dim>
					<dim>3</dim>
					<dim>3</dim>
				</port>
				<port id="1" precision="I64">
					<dim>1</dim>
				</port>
			</input>
			<output>
				<port id="2" precision="FP32">
					<dim>384</dim>
					<dim>1</dim>
					<dim>1</dim>
					<dim>3</dim>
					<dim>3</dim>
				</port>
			</output>
		</layer>
		<layer id="355" name="Reshape_27530" type="Const" version="opset1">
…
		<edge from-layer="134" from-port="2" to-layer="139" to-port="0" />
		<edge from-layer="135" from-port="0" to-layer="139" to-port="1" />
		<edge from-layer="136" from-port="0" to-layer="139" to-port="2" />
		<edge from-layer="137" from-port="0" to-layer="139" to-port="3" />
		<edge from-layer="138" from-port="0" to-layer="139" to-port="4" />
		<edge from-layer="139" from-port="5" to-layer="140" to-port="1" />
		<edge from-layer="140" from-port="2" to-layer="145" to-port="0" />
		<edge from-layer="141" from-port="0" to-layer="145" to-port="1" />
		<edge from-layer="142" from-port="0" to-layer="145" to-port="2" />
		<edge from-layer="143" from-port="0" to-layer="145" to-port="3" />
		<edge from-layer="144" from-port="0" to-layer="145" to-port="4" />
		<edge from-layer="145" from-port="5" to-layer="150" to-port="0" />
		<edge from-layer="146" from-port="0" to-layer="147" to-port="0" />
		<edge from-layer="147" from-port="1" to-layer="149" to-port="0" />
		<edge from-layer="148" from-port="0" to-layer="149" to-port="1" />
		<edge from-layer="149" from-port="2" to-layer="150" to-port="1" />
		<edge from-layer="150" from-port="2" to-layer="152" to-port="0" />
		<edge from-layer="151" from-port="0" to-layer="152" to-port="1" />
		<edge from-layer="152" from-port="2" to-layer="153" to-port="0" />
		<edge from-layer="153" from-port="1" to-layer="158" to-port="0" />
		<edge from-layer="154" from-port="0" to-layer="158" to-port="1" />
		<edge from-layer="155" from-port="0" to-layer="158" to-port="2" />
		<edge from-layer="156" from-port="0" to-layer="158" to-port="3" />
		<edge from-layer="157" from-port="0" to-layer="158" to-port="4" />
		<edge from-layer="158" from-port="5" to-layer="169" to-port="0" />
		<edge from-layer="159" from-port="0" to-layer="160" to-port="0" />
		<edge from-layer="160" from-port="1" to-layer="162" to-port="0" />
		<edge from-layer="161" from-port="0" to-layer="162" to-port="1" />
		<edge from-layer="162" from-port="2" to-layer="164" to-port="0" />
		<edge from-layer="163" from-port="0" to-layer="164" to-port="1" />
		<edge from-layer="164" from-port="2" to-layer="166" to-port="0" />
		<edge from-layer="165" from-port="0" to-layer="166" to-port="1" />
		<edge from-layer="166" from-port="2" to-layer="168" to-port="0" />
		<edge from-layer="167" from-port="0" to-layer="168" to-port="1" />
		<edge from-layer="168" from-port="2" to-layer="169" to-port="1" />
		<edge from-layer="169" from-port="2" to-layer="171" to-port="0" />
		<edge from-layer="170" from-port="0" to-layer="171" to-port="1" />
		<edge from-layer="171" from-port="2" to-layer="172" to-port="0" />
		<edge from-layer="172" from-port="1" to-layer="177" to-port="0" />
		<edge from-layer="173" from-port="0" to-layer="177" to-port="1" />
		<edge from-layer="174" from-port="0" to-layer="177" to-port="2" />
		<edge from-layer="175" from-port="0" to-layer="177" to-port="3" />
		<edge from-layer="176" from-port="0" to-layer="177" to-port="4" />
		<edge from-layer="177" from-port="5" to-layer="182" to-port="0" />
		<edge from-layer="178" from-port="0" to-layer="179" to-port="0" />
		<edge from-layer="179" from-port="1" to-layer="181" to-port="0" />
		<edge from-layer="180" from-port="0" to-layer="181" to-port="1" />
		<edge from-layer="181" from-port="2" to-layer="182" to-port="1" />
		<edge from-layer="182" from-port="2" to-layer="184" to-port="0" />
		<edge from-layer="183" from-port="0" to-layer="184" to-port="1" />
		<edge from-layer="184" from-port="2" to-layer="189" to-port="0" />
		<edge from-layer="185" from-port="0" to-layer="189" to-port="1" />
		<edge from-layer="186" from-port="0" to-layer="189" to-port="2" />
		<edge from-layer="187" from-port="0" to-layer="189" to-port="3" />
		<edge from-layer="188" from-port="0" to-layer="189" to-port="4" />
		<edge from-layer="189" from-port="5" to-layer="234" to-port="0" />
		<edge from-layer="189" from-port="5" to-layer="194" to-port="0" />
		<edge from-layer="190" from-port="0" to-layer="191" to-port="0" />
		<edge from-layer="191" from-port="1" to-layer="193" to-port="0" />
		<edge from-layer="192" from-port="0" to-layer="193" to-port="1" />
		<edge from-layer="193" from-port="2" to-layer="194" to-port="1" />
		<edge from-layer="194" from-port="2" to-layer="196" to-port="0" />
		<edge from-layer="195" from-port="0" to-layer="196" to-port="1" />
		<edge from-layer="196" from-port="2" to-layer="197" to-port="0" />
		<edge from-layer="197" from-port="1" to-layer="202" to-port="0" />
		<edge from-layer="198" from-port="0" to-layer="202" to-port="1" />
		<edge from-layer="199" from-port="0" to-layer="202" to-port="2" />
		<edge from-layer="200" from-port="0" to-layer="202" to-port="3" />
		<edge from-layer="201" from-port="0" to-layer="202" to-port="4" />
		<edge from-layer="202" from-port="5" to-layer="213" to-port="0" />
		<edge from-layer="203" from-port="0" to-layer="204" to-port="0" />
		<edge from-layer="204" from-port="1" to-layer="206" to-port="0" />
		<edge from-layer="205" from-port="0" to-layer="206" to-port="1" />
		<edge from-layer="206" from-port="2" to-layer="208" to-port="0" />
		<edge from-layer="207" from-port="0" to-layer="208" to-port="1" />
		<edge from-layer="208" from-port="2" to-layer="210" to-port="0" />
		<edge from-layer="209" from-port="0" to-layer="210" to-port="1" />
		<edge from-layer="210" from-port="2" to-layer="212" to-port="0" />
		<edge from-layer="211" from-port="0" to-layer="212" to-port="1" />
		<edge from-layer="212" from-port="2" to-layer="213" to-port="1" />
		<edge from-layer="213" from-port="2" to-layer="215" to-port="0" />
		<edge from-layer="214" from-port="0" to-layer="215" to-port="1" />
		<edge from-layer="215" from-port="2" to-layer="216" to-port="0" />
		<edge from-layer="216" from-port="1" to-layer="221" to-port="0" />
		<edge from-layer="217" from-port="0" to-layer="221" to-port="1" />
		<edge from-layer="218" from-port="0" to-layer="221" to-port="2" />
		<edge from-layer="219" from-port="0" to-layer="221" to-port="3" />
		<edge from-layer="220" from-port="0" to-layer="221" to-port="4" />
		<edge from-layer="221" from-port="5" to-layer="226" to-port="0" />
		<edge from-layer="222" from-port="0" to-layer="223" to-port="0" />
		<edge from-layer="223" from-port="1" to-layer="225" to-port="0" />
		<edge from-layer="224" from-port="0" to-layer="225" to-port="1" />
		<edge from-layer="225" from-port="2" to-layer="226" to-port="1" />
		<edge from-layer="226" from-port="2" to-layer="228" to-port="0" />
		<edge from-layer="227" from-port="0" to-layer="228" to-port="1" />
		<edge from-layer="228" from-port="2" to-layer="233" to-port="0" />
		<edge from-layer="229" from-port="0" to-layer="233" to-port="1" />
		<edge from-layer="230" from-port="0" to-layer="233" to-port="2" />
		<edge from-layer="231" from-port="0" to-layer="233" to-port="3" />
		<edge from-layer="232" from-port="0" to-layer="233" to-port="4" />
		<edge from-layer="233" from-port="5" to-layer="234" to-port="1" />
		<edge from-layer="234" from-port="2" to-layer="239" to-port="0" />
		<edge from-layer="235" from-port="0" to-layer="239" to-port="1" />
		<edge from-layer="236" from-port="0" to-layer="239" to-port="2" />
		<edge from-layer="237" from-port="0" to-layer="239" to-port="3" />
		<edge from-layer="238" from-port="0" to-layer="239" to-port="4" />
		<edge from-layer="239" from-port="5" to-layer="284" to-port="0" />
		<edge from-layer="239" from-port="5" to-layer="244" to-port="0" />
		<edge from-layer="240" from-port="0" to-layer="241" to-port="0" />
		<edge from-layer="241" from-port="1" to-layer="243" to-port="0" />
		<edge from-layer="242" from-port="0" to-layer="243" to-port="1" />
		<edge from-layer="243" from-port="2" to-layer="244" to-port="1" />
		<edge from-layer="244" from-port="2" to-layer="246" to-port="0" />
		<edge from-layer="245" from-port="0" to-layer="246" to-port="1" />
		<edge from-layer="246" from-port="2" to-layer="247" to-port="0" />
		<edge from-layer="247" from-port="1" to-layer="252" to-port="0" />
		<edge from-layer="248" from-port="0" to-layer="252" to-port="1" />
		<edge from-layer="249" from-port="0" to-layer="252" to-port="2" />
		<edge from-layer="250" from-port="0" to-layer="252" to-port="3" />
		<edge from-layer="251" from-port="0" to-layer="252" to-port="4" />
		<edge from-layer="252" from-port="5" to-layer="263" to-port="0" />
		<edge from-layer="253" from-port="0" to-layer="254" to-port="0" />
		<edge from-layer="254" from-port="1" to-layer="256" to-port="0" />
		<edge from-layer="255" from-port="0" to-layer="256" to-port="1" />
		<edge from-layer="256" from-port="2" to-layer="258" to-port="0" />
		<edge from-layer="257" from-port="0" to-layer="258" to-port="1" />
		<edge from-layer="258" from-port="2" to-layer="260" to-port="0" />
		<edge from-layer="259" from-port="0" to-layer="260" to-port="1" />
		<edge from-layer="260" from-port="2" to-layer="262" to-port="0" />
		<edge from-layer="261" from-port="0" to-layer="262" to-port="1" />
		<edge from-layer="262" from-port="2" to-layer="263" to-port="1" />
		<edge from-layer="263" from-port="2" to-layer="265" to-port="0" />
		<edge from-layer="264" from-port="0" to-layer="265" to-port="1" />
		<edge from-layer="265" from-port="2" to-layer="266" to-port="0" />
		<edge from-layer="266" from-port="1" to-layer="271" to-port="0" />
		<edge from-layer="267" from-port="0" to-layer="271" to-port="1" />
		<edge from-layer="268" from-port="0" to-layer="271" to-port="2" />
		<edge from-layer="269" from-port="0" to-layer="271" to-port="3" />
		<edge from-layer="270" from-port="0" to-layer="271" to-port="4" />
		<edge from-layer="271" from-port="5" to-layer="276" to-port="0" />
		<edge from-layer="272" from-port="0" to-layer="273" to-port="0" />
		<edge from-layer="273" from-port="1" to-layer="275" to-port="0" />
		<edge from-layer="274" from-port="0" to-layer="275" to-port="1" />
		<edge from-layer="275" from-port="2" to-layer="276" to-port="1" />
		<edge from-layer="276" from-port="2" to-layer="278" to-port="0" />
		<edge from-layer="277" from-port="0" to-layer="278" to-port="1" />
		<edge from-layer="278" from-port="2" to-layer="283" to-port="0" />
		<edge from-layer="279" from-port="0" to-layer="283" to-port="1" />
		<edge from-layer="280" from-port="0" to-layer="283" to-port="2" />
		<edge from-layer="281" from-port="0" to-layer="283" to-port="3" />
		<edge from-layer="282" from-port="0" to-layer="283" to-port="4" />
		<edge from-layer="283" from-port="5" to-layer="284" to-port="1" />
		<edge from-layer="284" from-port="2" to-layer="289" to-port="0" />
		<edge from-layer="285" from-port="0" to-layer="289" to-port="1" />
		<edge from-layer="286" from-port="0" to-layer="289" to-port="2" />
		<edge from-layer="287" from-port="0" to-layer="289" to-port="3" />
		<edge from-layer="288" from-port="0" to-layer="289" to-port="4" />
		<edge from-layer="289" from-port="5" to-layer="294" to-port="0" />
		<edge from-layer="290" from-port="0" to-layer="291" to-port="0" />
		<edge from-layer="291" from-port="1" to-layer="293" to-port="0" />
		<edge from-layer="292" from-port="0" to-layer="293" to-port="1" />
		<edge from-layer="293" from-port="2" to-layer="294" to-port="1" />
		<edge from-layer="294" from-port="2" to-layer="296" to-port="0" />
		<edge from-layer="295" from-port="0" to-layer="296" to-port="1" />
		<edge from-layer="296" from-port="2" to-layer="297" to-port="0" />
		<edge from-layer="297" from-port="1" to-layer="302" to-port="0" />
		<edge from-layer="298" from-port="0" to-layer="302" to-port="1" />
		<edge from-layer="299" from-port="0" to-layer="302" to-port="2" />
		<edge from-layer="300" from-port="0" to-layer="302" to-port="3" />
		<edge from-layer="301" from-port="0" to-layer="302" to-port="4" />
		<edge from-layer="302" from-port="5" to-layer="313" to-port="0" />
		<edge from-layer="303" from-port="0" to-layer="304" to-port="0" />
		<edge from-layer="304" from-port="1" to-layer="306" to-port="0" />
		<edge from-layer="305" from-port="0" to-layer="306" to-port="1" />
		<edge from-layer="306" from-port="2" to-layer="308" to-port="0" />
		<edge from-layer="307" from-port="0" to-layer="308" to-port="1" />
		<edge from-layer="308" from-port="2" to-layer="310" to-port="0" />
		<edge from-layer="309" from-port="0" to-layer="310" to-port="1" />
		<edge from-layer="310" from-port="2" to-layer="312" to-port="0" />
		<edge from-layer="311" from-port="0" to-layer="312" to-port="1" />
		<edge from-layer="312" from-port="2" to-layer="313" to-port="1" />
		<edge from-layer="313" from-port="2" to-layer="315" to-port="0" />
		<edge from-layer="314" from-port="0" to-layer="315" to-port="1" />
		<edge from-layer="315" from-port="2" to-layer="316" to-port="0" />
		<edge from-layer="316" from-port="1" to-layer="321" to-port="0" />
		<edge from-layer="317" from-port="0" to-layer="321" to-port="1" />
		<edge from-layer="318" from-port="0" to-layer="321" to-port="2" />
		<edge from-layer="319" from-port="0" to-layer="321" to-port="3" />
		<edge from-layer="320" from-port="0" to-layer="321" to-port="4" />
		<edge from-layer="321" from-port="5" to-layer="326" to-port="0" />
		<edge from-layer="322" from-port="0" to-layer="323" to-port="0" />
		<edge from-layer="323" from-port="1" to-layer="325" to-port="0" />
		<edge from-layer="324" from-port="0" to-layer="325" to-port="1" />
		<edge from-layer="325" from-port="2" to-layer="326" to-port="1" />
		<edge from-layer="326" from-port="2" to-layer="328" to-port="0" />
		<edge from-layer="327" from-port="0" to-layer="328" to-port="1" />
		<edge from-layer="328" from-port="2" to-layer="333" to-port="0" />
		<edge from-layer="329" from-port="0" to-layer="333" to-port="1" />
		<edge from-layer="330" from-port="0" to-layer="333" to-port="2" />
		<edge from-layer="331" from-port="0" to-layer="333" to-port="3" />
		<edge from-layer="332" from-port="0" to-layer="333" to-port="4" />
		<edge from-layer="333" from-port="5" to-layer="378" to-port="0" />
		<edge from-layer="333" from-port="5" to-layer="338" to-port="0" />
		<edge from-layer="334" from-port="0" to-layer="335" to-port="0" />
		<edge from-layer="335" from-port="1" to-layer="337" to-port="0" />
		<edge from-layer="336" from-port="0" to-layer="337" to-port="1" />
		<edge from-layer="337" from-port="2" to-layer="338" to-port="1" />
		<edge from-layer="338" from-port="2" to-layer="340" to-port="0" />
		<edge from-layer="339" from-port="0" to-layer="340" to-port="1" />
		<edge from-layer="340" from-port="2" to-layer="341" to-port="0" />
		<edge from-layer="341" from-port="1" to-layer="346" to-port="0" />
		<edge from-layer="342" from-port="0" to-layer="346" to-port="1" />
		<edge from-layer="343" from-port="0" to-layer="346" to-port="2" />
		<edge from-layer="344" from-port="0" to-layer="346" to-port="3" />
		<edge from-layer="345" from-port="0" to-layer="346" to-port="4" />
		<edge from-layer="346" from-port="5" to-layer="357" to-port="0" />
		<edge from-layer="347" from-port="0" to-layer="348" to-port="0" />
		<edge from-layer="348" from-port="1" to-layer="350" to-port="0" />
		<edge from-layer="349" from-port="0" to-layer="350" to-port="1" />
		<edge from-layer="350" from-port="2" to-layer="352" to-port="0" />
		<edge from-layer="351" from-port="0" to-layer="352" to-port="1" />
		<edge from-layer="352" from-port="2" to-layer="354" to-port="0" />
		<edge from-layer="353" from-port="0" to-layer="354" to-port="1" />
		<edge from-layer="354" from-port="2" to-layer="356" to-port="0" />
		<edge from-layer="355" from-port="0" to-layer="356" to-port="1" />
		<edge from-layer="356" from-port="2" to-layer="357" to-port="1" />
		<edge from-layer="357" from-port="2" to-layer="359" to-port="0" />
		<edge from-layer="358" from-port="0" to-layer="359" to-port="1" />
		<edge from-layer="359" from-port="2" to-layer="360" to-port="0" />
		<edge from-layer="360" from-port="1" to-layer="365" to-port="0" />
		<edge from-layer="361" from-port="0" to-layer="365" to-port="1" />
		<edge from-layer="362" from-port="0" to-layer="365" to-port="2" />
		<edge from-layer="363" from-port="0" to-layer="365" to-port="3" />
		<edge from-layer="364" from-port="0" to-layer="365" to-port="4" />
		<edge from-layer="365" from-port="5" to-layer="370" to-port="0" />
		<edge from-layer="366" from-port="0" to-layer="367" to-port="0" />
		<edge from-layer="367" from-port="1" to-layer="369" to-port="0" />
		<edge from-layer="368" from-port="0" to-layer="369" to-port="1" />
		<edge from-layer="369" from-port="2" to-layer="370" to-port="1" />
		<edge from-layer="370" from-port="2" to-layer="372" to-port="0" />
		<edge from-layer="371" from-port="0" to-layer="372" to-port="1" />
		<edge from-layer="372" from-port="2" to-layer="377" to-port="0" />
		<edge from-layer="373" from-port="0" to-layer="377" to-port="1" />
		<edge from-layer="374" from-port="0" to-layer="377" to-port="2" />
		<edge from-layer="375" from-port="0" to-layer="377" to-port="3" />
		<edge from-layer="376" from-port="0" to-layer="377" to-port="4" />
		<edge from-layer="377" from-port="5" to-layer="378" to-port="1" />
		<edge from-layer="378" from-port="2" to-layer="383" to-port="0" />
		<edge from-layer="379" from-port="0" to-layer="383" to-port="1" />
		<edge from-layer="380" from-port="0" to-layer="383" to-port="2" />
		<edge from-layer="381" from-port="0" to-layer="383" to-port="3" />
		<edge from-layer="382" from-port="0" to-layer="383" to-port="4" />
		<edge from-layer="383" from-port="5" to-layer="428" to-port="0" />
		<edge from-layer="383" from-port="5" to-layer="388" to-port="0" />
		<edge from-layer="384" from-port="0" to-layer="385" to-port="0" />
		<edge from-layer="385" from-port="1" to-layer="387" to-port="0" />
		<edge from-layer="386" from-port="0" to-layer="387" to-port="1" />
		<edge from-layer="387" from-port="2" to-layer="388" to-port="1" />
		<edge from-layer="388" from-port="2" to-layer="390" to-port="0" />
		<edge from-layer="389" from-port="0" to-layer="390" to-port="1" />
		<edge from-layer="390" from-port="2" to-layer="391" to-port="0" />
		<edge from-layer="391" from-port="1" to-layer="396" to-port="0" />
		<edge from-layer="392" from-port="0" to-layer="396" to-port="1" />
		<edge from-layer="393" from-port="0" to-layer="396" to-port="2" />
		<edge from-layer="394" from-port="0" to-layer="396" to-port="3" />
		<edge from-layer="395" from-port="0" to-layer="396" to-port="4" />
		<edge from-layer="396" from-port="5" to-layer="407" to-port="0" />
		<edge from-layer="397" from-port="0" to-layer="398" to-port="0" />
		<edge from-layer="398" from-port="1" to-layer="400" to-port="0" />
		<edge from-layer="399" from-port="0" to-layer="400" to-port="1" />
		<edge from-layer="400" from-port="2" to-layer="402" to-port="0" />
		<edge from-layer="401" from-port="0" to-layer="402" to-port="1" />
		<edge from-layer="402" from-port="2" to-layer="404" to-port="0" />
		<edge from-layer="403" from-port="0" to-layer="404" to-port="1" />
		<edge from-layer="404" from-port="2" to-layer="406" to-port="0" />
		<edge from-layer="405" from-port="0" to-layer="406" to-port="1" />
		<edge from-layer="406" from-port="2" to-layer="407" to-port="1" />
		<edge from-layer="407" from-port="2" to-layer="409" to-port="0" />
		<edge from-layer="408" from-port="0" to-layer="409" to-port="1" />
		<edge from-layer="409" from-port="2" to-layer="410" to-port="0" />
		<edge from-layer="410" from-port="1" to-layer="415" to-port="0" />
		<edge from-layer="411" from-port="0" to-layer="415" to-port="1" />
		<edge from-layer="412" from-port="0" to-layer="415" to-port="2" />
		<edge from-layer="413" from-port="0" to-layer="415" to-port="3" />
		<edge from-layer="414" from-port="0" to-layer="415" to-port="4" />
		<edge from-layer="415" from-port="5" to-layer="420" to-port="0" />
		<edge from-layer="416" from-port="0" to-layer="417" to-port="0" />
		<edge from-layer="417" from-port="1" to-layer="419" to-port="0" />
		<edge from-layer="418" from-port="0" to-layer="419" to-port="1" />
		<edge from-layer="419" from-port="2" to-layer="420" to-port="1" />
		<edge from-layer="420" from-port="2" to-layer="422" to-port="0" />
		<edge from-layer="421" from-port="0" to-layer="422" to-port="1" />
		<edge from-layer="422" from-port="2" to-layer="427" to-port="0" />
		<edge from-layer="423" from-port="0" to-layer="427" to-port="1" />
		<edge from-layer="424" from-port="0" to-layer="427" to-port="2" />
		<edge from-layer="425" from-port="0" to-layer="427" to-port="3" />
		<edge from-layer="426" from-port="0" to-layer="427" to-port="4" />
		<edge from-layer="427" from-port="5" to-layer="428" to-port="1" />
		<edge from-layer="428" from-port="2" to-layer="433" to-port="0" />
		<edge from-layer="429" from-port="0" to-layer="433" to-port="1" />
		<edge from-layer="430" from-port="0" to-layer="433" to-port="2" />
		<edge from-layer="431" from-port="0" to-layer="433" to-port="3" />
		<edge from-layer="432" from-port="0" to-layer="433" to-port="4" />
		<edge from-layer="433" from-port="5" to-layer="438" to-port="0" />
		<edge from-layer="433" from-port="5" to-layer="478" to-port="0" />
		<edge from-layer="434" from-port="0" to-layer="435" to-port="0" />
		<edge from-layer="435" from-port="1" to-layer="437" to-port="0" />
		<edge from-layer="436" from-port="0" to-layer="437" to-port="1" />
		<edge from-layer="437" from-port="2" to-layer="438" to-port="1" />
		<edge from-layer="438" from-port="2" to-layer="440" to-port="0" />
		<edge from-layer="439" from-port="0" to-layer="440" to-port="1" />
		<edge from-layer="440" from-port="2" to-layer="441" to-port="0" />
		<edge from-layer="441" from-port="1" to-layer="446" to-port="0" />
		<edge from-layer="442" from-port="0" to-layer="446" to-port="1" />
		<edge from-layer="443" from-port="0" to-layer="446" to-port="2" />
		<edge from-layer="444" from-port="0" to-layer="446" to-port="3" />
		<edge from-layer="445" from-port="0" to-layer="446" to-port="4" />
		<edge from-layer="446" from-port="5" to-layer="457" to-port="0" />
		<edge from-layer="447" from-port="0" to-layer="448" to-port="0" />
		<edge from-layer="448" from-port="1" to-layer="450" to-port="0" />
		<edge from-layer="449" from-port="0" to-layer="450" to-port="1" />
		<edge from-layer="450" from-port="2" to-layer="452" to-port="0" />
		<edge from-layer="451" from-port="0" to-layer="452" to-port="1" />
		<edge from-layer="452" from-port="2" to-layer="454" to-port="0" />
		<edge from-layer="453" from-port="0" to-layer="454" to-port="1" />
		<edge from-layer="454" from-port="2" to-layer="456" to-port="0" />
		<edge from-layer="455" from-port="0" to-layer="456" to-port="1" />
		<edge from-layer="456" from-port="2" to-layer="457" to-port="1" />
		<edge from-layer="457" from-port="2" to-layer="459" to-port="0" />
		<edge from-layer="458" from-port="0" to-layer="459" to-port="1" />
		<edge from-layer="459" from-port="2" to-layer="460" to-port="0" />
		<edge from-layer="460" from-port="1" to-layer="465" to-port="0" />
		<edge from-layer="461" from-port="0" to-layer="465" to-port="1" />
		<edge from-layer="462" from-port="0" to-layer="465" to-port="2" />
		<edge from-layer="463" from-port="0" to-layer="465" to-port="3" />
		<edge from-layer="464" from-port="0" to-layer="465" to-port="4" />
		<edge from-layer="465" from-port="5" to-layer="470" to-port="0" />
		<edge from-layer="466" from-port="0" to-layer="467" to-port="0" />
		<edge from-layer="467" from-port="1" to-layer="469" to-port="0" />
		<edge from-layer="468" from-port="0" to-layer="469" to-port="1" />
		<edge from-layer="469" from-port="2" to-layer="470" to-port="1" />
		<edge from-layer="470" from-port="2" to-layer="472" to-port="0" />
		<edge from-layer="471" from-port="0" to-layer="472" to-port="1" />
		<edge from-layer="472" from-port="2" to-layer="477" to-port="0" />
		<edge from-layer="473" from-port="0" to-layer="477" to-port="1" />
		<edge from-layer="474" from-port="0" to-layer="477" to-port="2" />
		<edge from-layer="475" from-port="0" to-layer="477" to-port="3" />
		<edge from-layer="476" from-port="0" to-layer="477" to-port="4" />
		<edge from-layer="477" from-port="5" to-layer="478" to-port="1" />
		<edge from-layer="478" from-port="2" to-layer="483" to-port="0" />
		<edge from-layer="479" from-port="0" to-layer="483" to-port="1" />
		<edge from-layer="480" from-port="0" to-layer="483" to-port="2" />
		<edge from-layer="481" from-port="0" to-layer="483" to-port="3" />
		<edge from-layer="482" from-port="0" to-layer="483" to-port="4" />
		<edge from-layer="483" from-port="5" to-layer="488" to-port="0" />
		<edge from-layer="484" from-port="0" to-layer="485" to-port="0" />
		<edge from-layer="485" from-port="1" to-layer="487" to-port="0" />
		<edge from-layer="486" from-port="0" to-layer="487" to-port="1" />
		<edge from-layer="487" from-port="2" to-layer="488" to-port="1" />
		<edge from-layer="488" from-port="2" to-layer="490" to-port="0" />
		<edge from-layer="489" from-port="0" to-layer="490" to-port="1" />
		<edge from-layer="490" from-port="2" to-layer="491" to-port="0" />
		<edge from-layer="491" from-port="1" to-layer="496" to-port="0" />
		<edge from-layer="492" from-port="0" to-layer="496" to-port="1" />
		<edge from-layer="493" from-port="0" to-layer="496" to-port="2" />
		<edge from-layer="494" from-port="0" to-layer="496" to-port="3" />
		<edge from-layer="495" from-port="0" to-layer="496" to-port="4" />
		<edge from-layer="496" from-port="5" to-layer="507" to-port="0" />
		<edge from-layer="497" from-port="0" to-layer="498" to-port="0" />
		<edge from-layer="498" from-port="1" to-layer="500" to-port="0" />
		<edge from-layer="499" from-port="0" to-layer="500" to-port="1" />
		<edge from-layer="500" from-port="2" to-layer="502" to-port="0" />
		<edge from-layer="501" from-port="0" to-layer="502" to-port="1" />
		<edge from-layer="502" from-port="2" to-layer="504" to-port="0" />
		<edge from-layer="503" from-port="0" to-layer="504" to-port="1" />
		<edge from-layer="504" from-port="2" to-layer="506" to-port="0" />
		<edge from-layer="505" from-port="0" to-layer="506" to-port="1" />
		<edge from-layer="506" from-port="2" to-layer="507" to-port="1" />
		<edge from-layer="507" from-port="2" to-layer="509" to-port="0" />
		<edge from-layer="508" from-port="0" to-layer="509" to-port="1" />
		<edge from-layer="509" from-port="2" to-layer="510" to-port="0" />
		<edge from-layer="510" from-port="1" to-layer="515" to-port="0" />
		<edge from-layer="511" from-port="0" to-layer="515" to-port="1" />
		<edge from-layer="512" from-port="0" to-layer="515" to-port="2" />
		<edge from-layer="513" from-port="0" to-layer="515" to-port="3" />
		<edge from-layer="514" from-port="0" to-layer="515" to-port="4" />
		<edge from-layer="515" from-port="5" to-layer="520" to-port="0" />
		<edge from-layer="516" from-port="0" to-layer="517" to-port="0" />
		<edge from-layer="517" from-port="1" to-layer="519" to-port="0" />
		<edge from-layer="518" from-port="0" to-layer="519" to-port="1" />
		<edge from-layer="519" from-port="2" to-layer="520" to-port="1" />
		<edge from-layer="520" from-port="2" to-layer="522" to-port="0" />
		<edge from-layer="521" from-port="0" to-layer="522" to-port="1" />
		<edge from-layer="522" from-port="2" to-layer="527" to-port="0" />
		<edge from-layer="523" from-port="0" to-layer="527" to-port="1" />
		<edge from-layer="524" from-port="0" to-layer="527" to-port="2" />
		<edge from-layer="525" from-port="0" to-layer="527" to-port="3" />
		<edge from-layer="526" from-port="0" to-layer="527" to-port="4" />
		<edge from-layer="527" from-port="5" to-layer="532" to-port="0" />
		<edge from-layer="527" from-port="5" to-layer="572" to-port="0" />
		<edge from-layer="528" from-port="0" to-layer="529" to-port="0" />
		<edge from-layer="529" from-port="1" to-layer="531" to-port="0" />
		<edge from-layer="530" from-port="0" to-layer="531" to-port="1" />
		<edge from-layer="531" from-port="2" to-layer="532" to-port="1" />
		<edge from-layer="532" from-port="2" to-layer="534" to-port="0" />
		<edge from-layer="533" from-port="0" to-layer="534" to-port="1" />
		<edge from-layer="534" from-port="2" to-layer="535" to-port="0" />
		<edge from-layer="535" from-port="1" to-layer="540" to-port="0" />
		<edge from-layer="536" from-port="0" to-layer="540" to-port="1" />
		<edge from-layer="537" from-port="0" to-layer="540" to-port="2" />
		<edge from-layer="538" from-port="0" to-layer="540" to-port="3" />
		<edge from-layer="539" from-port="0" to-layer="540" to-port="4" />
		<edge from-layer="540" from-port="5" to-layer="551" to-port="0" />
		<edge from-layer="541" from-port="0" to-layer="542" to-port="0" />
		<edge from-layer="542" from-port="1" to-layer="544" to-port="0" />
		<edge from-layer="543" from-port="0" to-layer="544" to-port="1" />
		<edge from-layer="544" from-port="2" to-layer="546" to-port="0" />
		<edge from-layer="545" from-port="0" to-layer="546" to-port="1" />
		<edge from-layer="546" from-port="2" to-layer="548" to-port="0" />
		<edge from-layer="547" from-port="0" to-layer="548" to-port="1" />
		<edge from-layer="548" from-port="2" to-layer="550" to-port="0" />
		<edge from-layer="549" from-port="0" to-layer="550" to-port="1" />
		<edge from-layer="550" from-port="2" to-layer="551" to-port="1" />
		<edge from-layer="551" from-port="2" to-layer="553" to-port="0" />
		<edge from-layer="552" from-port="0" to-layer="553" to-port="1" />
		<edge from-layer="553" from-port="2" to-layer="554" to-port="0" />
		<edge from-layer="554" from-port="1" to-layer="559" to-port="0" />
		<edge from-layer="555" from-port="0" to-layer="559" to-port="1" />
		<edge from-layer="556" from-port="0" to-layer="559" to-port="2" />
		<edge from-layer="557" from-port="0" to-layer="559" to-port="3" />
		<edge from-layer="558" from-port="0" to-layer="559" to-port="4" />
		<edge from-layer="559" from-port="5" to-layer="564" to-port="0" />
		<edge from-layer="560" from-port="0" to-layer="561" to-port="0" />
		<edge from-layer="561" from-port="1" to-layer="563" to-port="0" />
		<edge from-layer="562" from-port="0" to-layer="563" to-port="1" />
		<edge from-layer="563" from-port="2" to-layer="564" to-port="1" />
		<edge from-layer="564" from-port="2" to-layer="566" to-port="0" />
		<edge from-layer="565" from-port="0" to-layer="566" to-port="1" />
		<edge from-layer="566" from-port="2" to-layer="571" to-port="0" />
		<edge from-layer="567" from-port="0" to-layer="571" to-port="1" />
		<edge from-layer="568" from-port="0" to-layer="571" to-port="2" />
		<edge from-layer="569" from-port="0" to-layer="571" to-port="3" />
		<edge from-layer="570" from-port="0" to-layer="571" to-port="4" />
		<edge from-layer="571" from-port="5" to-layer="572" to-port="1" />
		<edge from-layer="572" from-port="2" to-layer="577" to-port="0" />
		<edge from-layer="573" from-port="0" to-layer="577" to-port="1" />
		<edge from-layer="574" from-port="0" to-layer="577" to-port="2" />
		<edge from-layer="575" from-port="0" to-layer="577" to-port="3" />
		<edge from-layer="576" from-port="0" to-layer="577" to-port="4" />
		<edge from-layer="577" from-port="5" to-layer="582" to-port="0" />
		<edge from-layer="577" from-port="5" to-layer="622" to-port="0" />
		<edge from-layer="578" from-port="0" to-layer="579" to-port="0" />
		<edge from-layer="579" from-port="1" to-layer="581" to-port="0" />
		<edge from-layer="580" from-port="0" to-layer="581" to-port="1" />
		<edge from-layer="581" from-port="2" to-layer="582" to-port="1" />
		<edge from-layer="582" from-port="2" to-layer="584" to-port="0" />
		<edge from-layer="583" from-port="0" to-layer="584" to-port="1" />
		<edge from-layer="584" from-port="2" to-layer="585" to-port="0" />
		<edge from-layer="585" from-port="1" to-layer="590" to-port="0" />
		<edge from-layer="586" from-port="0" to-layer="590" to-port="1" />
		<edge from-layer="587" from-port="0" to-layer="590" to-port="2" />
		<edge from-layer="588" from-port="0" to-layer="590" to-port="3" />
		<edge from-layer="589" from-port="0" to-layer="590" to-port="4" />
		<edge from-layer="590" from-port="5" to-layer="601" to-port="0" />
		<edge from-layer="591" from-port="0" to-layer="592" to-port="0" />
		<edge from-layer="592" from-port="1" to-layer="594" to-port="0" />
		<edge from-layer="593" from-port="0" to-layer="594" to-port="1" />
		<edge from-layer="594" from-port="2" to-layer="596" to-port="0" />
		<edge from-layer="595" from-port="0" to-layer="596" to-port="1" />
		<edge from-layer="596" from-port="2" to-layer="598" to-port="0" />
		<edge from-layer="597" from-port="0" to-layer="598" to-port="1" />
		<edge from-layer="598" from-port="2" to-layer="600" to-port="0" />
		<edge from-layer="599" from-port="0" to-layer="600" to-port="1" />
		<edge from-layer="600" from-port="2" to-layer="601" to-port="1" />
		<edge from-layer="601" from-port="2" to-layer="603" to-port="0" />
		<edge from-layer="602" from-port="0" to-layer="603" to-port="1" />
		<edge from-layer="603" from-port="2" to-layer="604" to-port="0" />
		<edge from-layer="604" from-port="1" to-layer="609" to-port="0" />
		<edge from-layer="605" from-port="0" to-layer="609" to-port="1" />
		<edge from-layer="606" from-port="0" to-layer="609" to-port="2" />
		<edge from-layer="607" from-port="0" to-layer="609" to-port="3" />
		<edge from-layer="608" from-port="0" to-layer="609" to-port="4" />
		<edge from-layer="609" from-port="5" to-layer="614" to-port="0" />
		<edge from-layer="610" from-port="0" to-layer="611" to-port="0" />
		<edge from-layer="611" from-port="1" to-layer="613" to-port="0" />
		<edge from-layer="612" from-port="0" to-layer="613" to-port="1" />
		<edge from-layer="613" from-port="2" to-layer="614" to-port="1" />
		<edge from-layer="614" from-port="2" to-layer="616" to-port="0" />
		<edge from-layer="615" from-port="0" to-layer="616" to-port="1" />
		<edge from-layer="616" from-port="2" to-layer="621" to-port="0" />
		<edge from-layer="617" from-port="0" to-layer="621" to-port="1" />
		<edge from-layer="618" from-port="0" to-layer="621" to-port="2" />
		<edge from-layer="619" from-port="0" to-layer="621" to-port="3" />
		<edge from-layer="620" from-port="0" to-layer="621" to-port="4" />
		<edge from-layer="621" from-port="5" to-layer="622" to-port="1" />
		<edge from-layer="622" from-port="2" to-layer="627" to-port="0" />
		<edge from-layer="623" from-port="0" to-layer="627" to-port="1" />
		<edge from-layer="624" from-port="0" to-layer="627" to-port="2" />
		<edge from-layer="625" from-port="0" to-layer="627" to-port="3" />
		<edge from-layer="626" from-port="0" to-layer="627" to-port="4" />
		<edge from-layer="627" from-port="5" to-layer="632" to-port="0" />
		<edge from-layer="628" from-port="0" to-layer="629" to-port="0" />
		<edge from-layer="629" from-port="1" to-layer="631" to-port="0" />
		<edge from-layer="630" from-port="0" to-layer="631" to-port="1" />
		<edge from-layer="631" from-port="2" to-layer="632" to-port="1" />
		<edge from-layer="632" from-port="2" to-layer="634" to-port="0" />
		<edge from-layer="633" from-port="0" to-layer="634" to-port="1" />
		<edge from-layer="634" from-port="2" to-layer="635" to-port="0" />
		<edge from-layer="635" from-port="1" to-layer="640" to-port="0" />
		<edge from-layer="636" from-port="0" to-layer="640" to-port="1" />
		<edge from-layer="637" from-port="0" to-layer="640" to-port="2" />
		<edge from-layer="638" from-port="0" to-layer="640" to-port="3" />
		<edge from-layer="639" from-port="0" to-layer="640" to-port="4" />
		<edge from-layer="640" from-port="5" to-layer="651" to-port="0" />
		<edge from-layer="641" from-port="0" to-layer="642" to-port="0" />
		<edge from-layer="642" from-port="1" to-layer="644" to-port="0" />
		<edge from-layer="643" from-port="0" to-layer="644" to-port="1" />
		<edge from-layer="644" from-port="2" to-layer="646" to-port="0" />
		<edge from-layer="645" from-port="0" to-layer="646" to-port="1" />
		<edge from-layer="646" from-port="2" to-layer="648" to-port="0" />
		<edge from-layer="647" from-port="0" to-layer="648" to-port="1" />
		<edge from-layer="648" from-port="2" to-layer="650" to-port="0" />
		<edge from-layer="649" from-port="0" to-layer="650" to-port="1" />
		<edge from-layer="650" from-port="2" to-layer="651" to-port="1" />
		<edge from-layer="651" from-port="2" to-layer="653" to-port="0" />
		<edge from-layer="652" from-port="0" to-layer="653" to-port="1" />
		<edge from-layer="653" from-port="2" to-layer="654" to-port="0" />
		<edge from-layer="654" from-port="1" to-layer="659" to-port="0" />
		<edge from-layer="655" from-port="0" to-layer="659" to-port="1" />
		<edge from-layer="656" from-port="0" to-layer="659" to-port="2" />
		<edge from-layer="657" from-port="0" to-layer="659" to-port="3" />
		<edge from-layer="658" from-port="0" to-layer="659" to-port="4" />
		<edge from-layer="659" from-port="5" to-layer="664" to-port="0" />
		<edge from-layer="660" from-port="0" to-layer="661" to-port="0" />
		<edge from-layer="661" from-port="1" to-layer="663" to-port="0" />
		<edge from-layer="662" from-port="0" to-layer="663" to-port="1" />
		<edge from-layer="663" from-port="2" to-layer="664" to-port="1" />
		<edge from-layer="664" from-port="2" to-layer="666" to-port="0" />
		<edge from-layer="665" from-port="0" to-layer="666" to-port="1" />
		<edge from-layer="666" from-port="2" to-layer="671" to-port="0" />
		<edge from-layer="667" from-port="0" to-layer="671" to-port="1" />
		<edge from-layer="668" from-port="0" to-layer="671" to-port="2" />
		<edge from-layer="669" from-port="0" to-layer="671" to-port="3" />
		<edge from-layer="670" from-port="0" to-layer="671" to-port="4" />
		<edge from-layer="671" from-port="5" to-layer="676" to-port="0" />
		<edge from-layer="671" from-port="5" to-layer="716" to-port="0" />
		<edge from-layer="672" from-port="0" to-layer="673" to-port="0" />
		<edge from-layer="673" from-port="1" to-layer="675" to-port="0" />
		<edge from-layer="674" from-port="0" to-layer="675" to-port="1" />
		<edge from-layer="675" from-port="2" to-layer="676" to-port="1" />
		<edge from-layer="676" from-port="2" to-layer="678" to-port="0" />
		<edge from-layer="677" from-port="0" to-layer="678" to-port="1" />
		<edge from-layer="678" from-port="2" to-layer="679" to-port="0" />
		<edge from-layer="679" from-port="1" to-layer="684" to-port="0" />
		<edge from-layer="680" from-port="0" to-layer="684" to-port="1" />
		<edge from-layer="681" from-port="0" to-layer="684" to-port="2" />
		<edge from-layer="682" from-port="0" to-layer="684" to-port="3" />
		<edge from-layer="683" from-port="0" to-layer="684" to-port="4" />
		<edge from-layer="684" from-port="5" to-layer="695" to-port="0" />
		<edge from-layer="685" from-port="0" to-layer="686" to-port="0" />
		<edge from-layer="686" from-port="1" to-layer="688" to-port="0" />
		<edge from-layer="687" from-port="0" to-layer="688" to-port="1" />
		<edge from-layer="688" from-port="2" to-layer="690" to-port="0" />
		<edge from-layer="689" from-port="0" to-layer="690" to-port="1" />
		<edge from-layer="690" from-port="2" to-layer="692" to-port="0" />
		<edge from-layer="691" from-port="0" to-layer="692" to-port="1" />
		<edge from-layer="692" from-port="2" to-layer="694" to-port="0" />
		<edge from-layer="693" from-port="0" to-layer="694" to-port="1" />
		<edge from-layer="694" from-port="2" to-layer="695" to-port="1" />
		<edge from-layer="695" from-port="2" to-layer="697" to-port="0" />
		<edge from-layer="696" from-port="0" to-layer="697" to-port="1" />
		<edge from-layer="697" from-port="2" to-layer="698" to-port="0" />
		<edge from-layer="698" from-port="1" to-layer="703" to-port="0" />
		<edge from-layer="699" from-port="0" to-layer="703" to-port="1" />
		<edge from-layer="700" from-port="0" to-layer="703" to-port="2" />
		<edge from-layer="701" from-port="0" to-layer="703" to-port="3" />
		<edge from-layer="702" from-port="0" to-layer="703" to-port="4" />
		<edge from-layer="703" from-port="5" to-layer="708" to-port="0" />
		<edge from-layer="704" from-port="0" to-layer="705" to-port="0" />
		<edge from-layer="705" from-port="1" to-layer="707" to-port="0" />
		<edge from-layer="706" from-port="0" to-layer="707" to-port="1" />
		<edge from-layer="707" from-port="2" to-layer="708" to-port="1" />
		<edge from-layer="708" from-port="2" to-layer="710" to-port="0" />
		<edge from-layer="709" from-port="0" to-layer="710" to-port="1" />
		<edge from-layer="710" from-port="2" to-layer="715" to-port="0" />
		<edge from-layer="711" from-port="0" to-layer="715" to-port="1" />
		<edge from-layer="712" from-port="0" to-layer="715" to-port="2" />
		<edge from-layer="713" from-port="0" to-layer="715" to-port="3" />
		<edge from-layer="714" from-port="0" to-layer="715" to-port="4" />
		<edge from-layer="715" from-port="5" to-layer="716" to-port="1" />
		<edge from-layer="716" from-port="2" to-layer="721" to-port="0" />
		<edge from-layer="717" from-port="0" to-layer="721" to-port="1" />
		<edge from-layer="718" from-port="0" to-layer="721" to-port="2" />
		<edge from-layer="719" from-port="0" to-layer="721" to-port="3" />
		<edge from-layer="720" from-port="0" to-layer="721" to-port="4" />
		<edge from-layer="721" from-port="5" to-layer="726" to-port="0" />
		<edge from-layer="721" from-port="5" to-layer="766" to-port="0" />
		<edge from-layer="722" from-port="0" to-layer="723" to-port="0" />
		<edge from-layer="723" from-port="1" to-layer="725" to-port="0" />
		<edge from-layer="724" from-port="0" to-layer="725" to-port="1" />
		<edge from-layer="725" from-port="2" to-layer="726" to-port="1" />
		<edge from-layer="726" from-port="2" to-layer="728" to-port="0" />
		<edge from-layer="727" from-port="0" to-layer="728" to-port="1" />
		<edge from-layer="728" from-port="2" to-layer="729" to-port="0" />
		<edge from-layer="729" from-port="1" to-layer="734" to-port="0" />
		<edge from-layer="730" from-port="0" to-layer="734" to-port="1" />
		<edge from-layer="731" from-port="0" to-layer="734" to-port="2" />
		<edge from-layer="732" from-port="0" to-layer="734" to-port="3" />
		<edge from-layer="733" from-port="0" to-layer="734" to-port="4" />
		<edge from-layer="734" from-port="5" to-layer="745" to-port="0" />
		<edge from-layer="735" from-port="0" to-layer="736" to-port="0" />
		<edge from-layer="736" from-port="1" to-layer="738" to-port="0" />
		<edge from-layer="737" from-port="0" to-layer="738" to-port="1" />
		<edge from-layer="738" from-port="2" to-layer="740" to-port="0" />
		<edge from-layer="739" from-port="0" to-layer="740" to-port="1" />
		<edge from-layer="740" from-port="2" to-layer="742" to-port="0" />
		<edge from-layer="741" from-port="0" to-layer="742" to-port="1" />
		<edge from-layer="742" from-port="2" to-layer="744" to-port="0" />
		<edge from-layer="743" from-port="0" to-layer="744" to-port="1" />
		<edge from-layer="744" from-port="2" to-layer="745" to-port="1" />
		<edge from-layer="745" from-port="2" to-layer="747" to-port="0" />
		<edge from-layer="746" from-port="0" to-layer="747" to-port="1" />
		<edge from-layer="747" from-port="2" to-layer="748" to-port="0" />
		<edge from-layer="748" from-port="1" to-layer="753" to-port="0" />
		<edge from-layer="749" from-port="0" to-layer="753" to-port="1" />
		<edge from-layer="750" from-port="0" to-layer="753" to-port="2" />
		<edge from-layer="751" from-port="0" to-layer="753" to-port="3" />
		<edge from-layer="752" from-port="0" to-layer="753" to-port="4" />
		<edge from-layer="753" from-port="5" to-layer="758" to-port="0" />
		<edge from-layer="754" from-port="0" to-layer="755" to-port="0" />
		<edge from-layer="755" from-port="1" to-layer="757" to-port="0" />
		<edge from-layer="756" from-port="0" to-layer="757" to-port="1" />
		<edge from-layer="757" from-port="2" to-layer="758" to-port="1" />
		<edge from-layer="758" from-port="2" to-layer="760" to-port="0" />
		<edge from-layer="759" from-port="0" to-layer="760" to-port="1" />
		<edge from-layer="760" from-port="2" to-layer="765" to-port="0" />
		<edge from-layer="761" from-port="0" to-layer="765" to-port="1" />
		<edge from-layer="762" from-port="0" to-layer="765" to-port="2" />
		<edge from-layer="763" from-port="0" to-layer="765" to-port="3" />
		<edge from-layer="764" from-port="0" to-layer="765" to-port="4" />
		<edge from-layer="765" from-port="5" to-layer="766" to-port="1" />
		<edge from-layer="766" from-port="2" to-layer="771" to-port="0" />
		<edge from-layer="767" from-port="0" to-layer="771" to-port="1" />
		<edge from-layer="768" from-port="0" to-layer="771" to-port="2" />
		<edge from-layer="769" from-port="0" to-layer="771" to-port="3" />
		<edge from-layer="770" from-port="0" to-layer="771" to-port="4" />
		<edge from-layer="771" from-port="5" to-layer="776" to-port="0" />
		<edge from-layer="772" from-port="0" to-layer="773" to-port="0" />
		<edge from-layer="773" from-port="1" to-layer="775" to-port="0" />
		<edge from-layer="774" from-port="0" to-layer="775" to-port="1" />
		<edge from-layer="775" from-port="2" to-layer="776" to-port="1" />
		<edge from-layer="776" from-port="2" to-layer="778" to-port="0" />
		<edge from-layer="777" from-port="0" to-layer="778" to-port="1" />
		<edge from-layer="778" from-port="2" to-layer="779" to-port="0" />
		<edge from-layer="779" from-port="1" to-layer="784" to-port="0" />
		<edge from-layer="780" from-port="0" to-layer="784" to-port="1" />
		<edge from-layer="781" from-port="0" to-layer="784" to-port="2" />
		<edge from-layer="782" from-port="0" to-layer="784" to-port="3" />
		<edge from-layer="783" from-port="0" to-layer="784" to-port="4" />
		<edge from-layer="784" from-port="5" to-layer="795" to-port="0" />
		<edge from-layer="785" from-port="0" to-layer="786" to-port="0" />
		<edge from-layer="786" from-port="1" to-layer="788" to-port="0" />
		<edge from-layer="787" from-port="0" to-layer="788" to-port="1" />
		<edge from-layer="788" from-port="2" to-layer="790" to-port="0" />
		<edge from-layer="789" from-port="0" to-layer="790" to-port="1" />
		<edge from-layer="790" from-port="2" to-layer="792" to-port="0" />
		<edge from-layer="791" from-port="0" to-layer="792" to-port="1" />
		<edge from-layer="792" from-port="2" to-layer="794" to-port="0" />
		<edge from-layer="793" from-port="0" to-layer="794" to-port="1" />
		<edge from-layer="794" from-port="2" to-layer="795" to-port="1" />
		<edge from-layer="795" from-port="2" to-layer="797" to-port="0" />
		<edge from-layer="796" from-port="0" to-layer="797" to-port="1" />
		<edge from-layer="797" from-port="2" to-layer="798" to-port="0" />
		<edge from-layer="798" from-port="1" to-layer="803" to-port="0" />
		<edge from-layer="799" from-port="0" to-layer="803" to-port="1" />
		<edge from-layer="800" from-port="0" to-layer="803" to-port="2" />
		<edge from-layer="801" from-port="0" to-layer="803" to-port="3" />
		<edge from-layer="802" from-port="0" to-layer="803" to-port="4" />
		<edge from-layer="803" from-port="5" to-layer="808" to-port="0" />
		<edge from-layer="804" from-port="0" to-layer="805" to-port="0" />
		<edge from-layer="805" from-port="1" to-layer="807" to-port="0" />
		<edge from-layer="806" from-port="0" to-layer="807" to-port="1" />
		<edge from-layer="807" from-port="2" to-layer="808" to-port="1" />
		<edge from-layer="808" from-port="2" to-layer="810" to-port="0" />
		<edge from-layer="809" from-port="0" to-layer="810" to-port="1" />
		<edge from-layer="810" from-port="2" to-layer="815" to-port="0" />
		<edge from-layer="811" from-port="0" to-layer="815" to-port="1" />
		<edge from-layer="812" from-port="0" to-layer="815" to-port="2" />
		<edge from-layer="813" from-port="0" to-layer="815" to-port="3" />
		<edge from-layer="814" from-port="0" to-layer="815" to-port="4" />
		<edge from-layer="815" from-port="5" to-layer="820" to-port="0" />
		<edge from-layer="816" from-port="0" to-layer="817" to-port="0" />
		<edge from-layer="817" from-port="1" to-layer="819" to-port="0" />
		<edge from-layer="818" from-port="0" to-layer="819" to-port="1" />
		<edge from-layer="819" from-port="2" to-layer="820" to-port="1" />
		<edge from-layer="820" from-port="2" to-layer="822" to-port="0" />
		<edge from-layer="821" from-port="0" to-layer="822" to-port="1" />
		<edge from-layer="822" from-port="2" to-layer="823" to-port="0" />
		<edge from-layer="823" from-port="1" to-layer="828" to-port="0" />
		<edge from-layer="824" from-port="0" to-layer="828" to-port="1" />
		<edge from-layer="825" from-port="0" to-layer="828" to-port="2" />
		<edge from-layer="826" from-port="0" to-layer="828" to-port="3" />
		<edge from-layer="827" from-port="0" to-layer="828" to-port="4" />
		<edge from-layer="828" from-port="5" to-layer="830" to-port="0" />
		<edge from-layer="829" from-port="0" to-layer="830" to-port="1" />
		<edge from-layer="830" from-port="2" to-layer="835" to-port="0" />
		<edge from-layer="831" from-port="0" to-layer="835" to-port="1" />
		<edge from-layer="832" from-port="0" to-layer="835" to-port="2" />
		<edge from-layer="833" from-port="0" to-layer="835" to-port="3" />
		<edge from-layer="834" from-port="0" to-layer="835" to-port="4" />
		<edge from-layer="835" from-port="5" to-layer="842" to-port="0" />
		<edge from-layer="836" from-port="0" to-layer="837" to-port="0" />
		<edge from-layer="837" from-port="1" to-layer="839" to-port="0" />
		<edge from-layer="838" from-port="0" to-layer="839" to-port="1" />
		<edge from-layer="839" from-port="2" to-layer="841" to-port="0" />
		<edge from-layer="840" from-port="0" to-layer="841" to-port="1" />
		<edge from-layer="841" from-port="2" to-layer="842" to-port="1" />
		<edge from-layer="842" from-port="2" to-layer="844" to-port="0" />
		<edge from-layer="843" from-port="0" to-layer="844" to-port="1" />
		<edge from-layer="844" from-port="2" to-layer="845" to-port="0" />
		<edge from-layer="845" from-port="1" to-layer="846" to-port="0" />
	</edges>
	<rt_info>
		<Runtime_version value="2023.2.0-13089-cfd42bd2cb0-HEAD" />
		<conversion_parameters>
			<framework value="tf" />
			<is_python_object value="True" />
			<share_weights value="False" />
		</conversion_parameters>
	</rt_info>
</net>
