<?xml version="1.0" ?>
<net name="ssdlite_mobilenet_v2" version="10">
	<layers>
		<layer id="0" name="image_tensor" type="Parameter" version="opset1">
			<data element_type="f32" shape="1, 3, 300, 300"/>
			<output>
				<port id="0" precision="FP32">
					<dim>1</dim>
					<dim>3</dim>
					<dim>300</dim>
					<dim>300</dim>
				</port>
			</output>
		</layer>
		<layer id="1" name="Preprocessor/mul/x" type="Const" version="opset1">
			<data element_type="f32" offset="0" shape="1, 1, 1, 1" size="4"/>
			<output>
				<port id="0" names="Preprocessor/mul/x:0" precision="FP32">
					<dim>1</dim>
					<dim>1</dim>
					<dim>1</dim>
					<dim>1</dim>
				</port>
			</output>
		</layer>
		<layer id="2" name="Preprocessor/mul" type="Multiply" version="opset1">
			<data auto_broadcast="numpy"/>
			<input>
				<port id="0" precision="FP32">
					<dim>1</dim>
					<dim>1</dim>
					<dim>1</dim>
					<dim>1</dim>
				</port>
				<port id="1" precision="FP32">
					<dim>1</dim>
					<dim>3</dim>
					<dim>300</dim>
					<dim>300</dim>
				</port>
			</input>
			<output>
				<port id="2" names="Preprocessor/mul:0" precision="FP32">
					<dim>1</dim>
					<dim>3</dim>
					<dim>300</dim>
					<dim>300</dim>
				</port>
			</output>
		</layer>
		<layer id="3" name="Preprocessor/sub/y" type="Const" version="opset1">
			<data element_type="f32" offset="4" shape="1, 1, 1, 1" size="4"/>
			<output>
				<port id="0" names="Preprocessor/sub/y:0" precision="FP32">
					<dim>1</dim>
					<dim>1</dim>
					<dim>1</dim>
					<dim>1</dim>
				</port>
			</output>
		</layer>
		<layer id="4" name="Preprocessor/sub" type="Add" version="opset1">
			<data auto_broadcast="numpy"/>
			<input>
				<port id="0" precision="FP32">
					<dim>1</dim>
					<dim>3</dim>
					<dim>300</dim>
					<dim>300</dim>
				</port>
				<port id="1" precision="FP32">
					<dim>1</dim>
					<dim>1</dim>
					<dim>1</dim>
					<dim>1</dim>
				</port>
			</input>
			<output>
				<port id="2" names="FeatureExtractor/MobilenetV2/MobilenetV2/input:0,Preprocessor/map/TensorArrayStack/TensorArrayGatherV3:0,Preprocessor/sub:0" precision="FP32">
					<dim>1</dim>
					<dim>3</dim>
					<dim>300</dim>
					<dim>300</dim>
				</port>
			</output>
		</layer>
		<layer id="5" name="FeatureExtractor/MobilenetV2/Conv/BatchNorm/FusedBatchNorm/mean/Fused_Mul__copy" type="Const" version="opset1">
			<data element_type="f32" offset="8" shape="32, 3, 3, 3" size="3456"/>
			<output>
				<port id="0" names="FeatureExtractor/MobilenetV2/Conv/weights/read:0" precision="FP32">
					<dim>32</dim>
					<dim>3</dim>
					<dim>3</dim>
					<dim>3</dim>
				</port>
			</output>
		</layer>
		<layer id="6" name="FeatureExtractor/MobilenetV2/Conv/Conv2D" type="Convolution" version="opset1">
			<data auto_pad="same_upper" dilations="1, 1" pads_begin="0, 0" pads_end="1, 1" strides="2, 2"/>
			<input>
				<port id="0" precision="FP32">
					<dim>1</dim>
					<dim>3</dim>
					<dim>300</dim>
					<dim>300</dim>
				</port>
				<port id="1" precision="FP32">
					<dim>32</dim>
					<dim>3</dim>
					<dim>3</dim>
					<dim>3</dim>
				</port>
			</input>
			<output>
				<port id="2" precision="FP32">
					<dim>1</dim>
					<dim>32</dim>
					<dim>150</dim>
					<dim>150</dim>
				</port>
			</output>
		</layer>
		<layer id="7" name="data_add_20264" type="Const" version="opset1">
			<data element_type="f32" offset="3464" shape="1, 32, 1, 1" size="128"/>
			<output>
				<port id="0" precision="FP32">
					<dim>1</dim>
					<dim>32</dim>
					<dim>1</dim>
					<dim>1</dim>
				</port>
			</output>
		</layer>
		<layer id="8" name="FeatureExtractor/MobilenetV2/Conv/BatchNorm/FusedBatchNorm/variance/Fused_Add_" type="Add" version="opset1">
			<data auto_broadcast="numpy"/>
			<input>
				<port id="0" precision="FP32">
					<dim>1</dim>
					<dim>32</dim>
					<dim>150</dim>
					<dim>150</dim>
				</port>
				<port id="1" precision="FP32">
					<dim>1</dim>
					<dim>32</dim>
					<dim>1</dim>
					<dim>1</dim>
				</port>
			</input>
			<output>
				<port id="2" names="FeatureExtractor/MobilenetV2/Conv/BatchNorm/FusedBatchNorm:0" precision="FP32">
					<dim>1</dim>
					<dim>32</dim>
					<dim>150</dim>
					<dim>150</dim>
				</port>
			</output>
		</layer>
		<layer id="9" name="FeatureExtractor/MobilenetV2/Conv/Relu6" type="Clamp" version="opset1">
			<data max="6" min="0"/>
			<input>
				<port id="0" precision="FP32">
					<dim>1</dim>
					<dim>32</dim>
					<dim>150</dim>
					<dim>150</dim>
				</port>
			</input>
			<output>
				<port id="1" names="FeatureExtractor/MobilenetV2/Conv/Relu6:0,FeatureExtractor/MobilenetV2/expanded_conv/input:0" precision="FP32">
					<dim>1</dim>
					<dim>32</dim>
					<dim>150</dim>
					<dim>150</dim>
				</port>
			</output>
		</layer>
		<layer id="10" name="FeatureExtractor/MobilenetV2/expanded_conv/depthwise/BatchNorm/FusedBatchNorm/mean/Fused_Mul__copy" type="Const" version="opset1">
			<data element_type="f32" offset="3592" shape="32, 1, 1, 3, 3" size="1152"/>
			<output>
				<port id="0" names="FeatureExtractor/MobilenetV2/expanded_conv/depthwise/depthwise_weights/read:0" precision="FP32">
					<dim>32</dim>
					<dim>1</dim>
					<dim>1</dim>
					<dim>3</dim>
					<dim>3</dim>
				</port>
			</output>
		</layer>
		<layer id="11" name="FeatureExtractor/MobilenetV2/expanded_conv/depthwise/depthwise" type="GroupConvolution" version="opset1">
			<data auto_pad="same_upper" dilations="1, 1" pads_begin="1, 1" pads_end="1, 1" strides="1, 1"/>
			<input>
				<port id="0" precision="FP32">
					<dim>1</dim>
					<dim>32</dim>
					<dim>150</dim>
					<dim>150</dim>
				</port>
				<port id="1" precision="FP32">
					<dim>32</dim>
					<dim>1</dim>
					<dim>1</dim>
					<dim>3</dim>
					<dim>3</dim>
				</port>
			</input>
			<output>
				<port id="2" precision="FP32">
					<dim>1</dim>
					<dim>32</dim>
					<dim>150</dim>
					<dim>150</dim>
				</port>
			</output>
		</layer>
		<layer id="12" name="data_add_2026720272" type="Const" version="opset1">
			<data element_type="f32" offset="4744" shape="1, 32, 1, 1" size="128"/>
			<output>
				<port id="0" precision="FP32">
					<dim>1</dim>
					<dim>32</dim>
					<dim>1</dim>
					<dim>1</dim>
				</port>
			</output>
		</layer>
		<layer id="13" name="FeatureExtractor/MobilenetV2/expanded_conv/depthwise/BatchNorm/FusedBatchNorm/variance/Fused_Add_" type="Add" version="opset1">
			<data auto_broadcast="numpy"/>
			<input>
				<port id="0" precision="FP32">
					<dim>1</dim>
					<dim>32</dim>
					<dim>150</dim>
					<dim>150</dim>
				</port>
				<port id="1" precision="FP32">
					<dim>1</dim>
					<dim>32</dim>
					<dim>1</dim>
					<dim>1</dim>
				</port>
			</input>
			<output>
				<port id="2" names="FeatureExtractor/MobilenetV2/expanded_conv/depthwise/BatchNorm/FusedBatchNorm:0" precision="FP32">
					<dim>1</dim>
					<dim>32</dim>
					<dim>150</dim>
					<dim>150</dim>
				</port>
			</output>
		</layer>
		<layer id="14" name="FeatureExtractor/MobilenetV2/expanded_conv/depthwise/Relu6" type="Clamp" version="opset1">
			<data max="6" min="0"/>
			<input>
				<port id="0" precision="FP32">
					<dim>1</dim>
					<dim>32</dim>
					<dim>150</dim>
					<dim>150</dim>
				</port>
			</input>
			<output>
				<port id="1" names="FeatureExtractor/MobilenetV2/expanded_conv/depthwise/Relu6:0,FeatureExtractor/MobilenetV2/expanded_conv/depthwise_output:0" precision="FP32">
					<dim>1</dim>
					<dim>32</dim>
					<dim>150</dim>
					<dim>150</dim>
				</port>
			</output>
		</layer>
		<layer id="15" name="FeatureExtractor/MobilenetV2/expanded_conv/project/BatchNorm/FusedBatchNorm/mean/Fused_Mul__copy" type="Const" version="opset1">
			<data element_type="f32" offset="4872" shape="16, 32, 1, 1" size="2048"/>
			<output>
				<port id="0" names="FeatureExtractor/MobilenetV2/expanded_conv/project/weights/read:0" precision="FP32">
					<dim>16</dim>
					<dim>32</dim>
					<dim>1</dim>
					<dim>1</dim>
				</port>
			</output>
		</layer>
		<layer id="16" name="FeatureExtractor/MobilenetV2/expanded_conv/project/Conv2D" type="Convolution" version="opset1">
			<data auto_pad="same_upper" dilations="1, 1" pads_begin="0, 0" pads_end="0, 0" strides="1, 1"/>
			<input>
				<port id="0" precision="FP32">
					<dim>1</dim>
					<dim>32</dim>
					<dim>150</dim>
					<dim>150</dim>
				</port>
				<port id="1" precision="FP32">
					<dim>16</dim>
					<dim>32</dim>
					<dim>1</dim>
					<dim>1</dim>
				</port>
			</input>
			<output>
				<port id="2" precision="FP32">
					<dim>1</dim>
					<dim>16</dim>
					<dim>150</dim>
					<dim>150</dim>
				</port>
			</output>
		</layer>
		<layer id="17" name="data_add_2027520280" type="Const" version="opset1">
			<data element_type="f32" offset="6920" shape="1, 16, 1, 1" size="64"/>
			<output>
				<port id="0" precision="FP32">
					<dim>1</dim>
					<dim>16</dim>
					<dim>1</dim>
					<dim>1</dim>
				</port>
			</output>
		</layer>
		<layer id="18" name="FeatureExtractor/MobilenetV2/expanded_conv/project/BatchNorm/FusedBatchNorm/variance/Fused_Add_" type="Add" version="opset1">
			<data auto_broadcast="numpy"/>
			<input>
				<port id="0" precision="FP32">
					<dim>1</dim>
					<dim>16</dim>
					<dim>150</dim>
					<dim>150</dim>
				</port>
				<port id="1" precision="FP32">
					<dim>1</dim>
					<dim>16</dim>
					<dim>1</dim>
					<dim>1</dim>
				</port>
			</input>
			<output>
				<port id="2" names="FeatureExtractor/MobilenetV2/expanded_conv/output:0,FeatureExtractor/MobilenetV2/expanded_conv/project/BatchNorm/FusedBatchNorm:0,FeatureExtractor/MobilenetV2/expanded_conv/project/Identity:0,FeatureExtractor/MobilenetV2/expanded_conv_1/input:0" precision="FP32">
					<dim>1</dim>
					<dim>16</dim>
					<dim>150</dim>
					<dim>150</dim>
				</port>
			</output>
		</layer>
		<layer id="19" name="FeatureExtractor/MobilenetV2/expanded_conv_1/expand/BatchNorm/FusedBatchNorm/mean/Fused_Mul__copy" type="Const" version="opset1">
			<data element_type="f32" offset="6984" shape="96, 16, 1, 1" size="6144"/>
			<output>
				<port id="0" names="FeatureExtractor/MobilenetV2/expanded_conv_1/expand/weights/read:0" precision="FP32">
					<dim>96</dim>
					<dim>16</dim>
					<dim>1</dim>
					<dim>1</dim>
				</port>
			</output>
		</layer>
		<layer id="20" name="FeatureExtractor/MobilenetV2/expanded_conv_1/expand/Conv2D" type="Convolution" version="opset1">
			<data auto_pad="same_upper" dilations="1, 1" pads_begin="0, 0" pads_end="0, 0" strides="1, 1"/>
			<input>
				<port id="0" precision="FP32">
					<dim>1</dim>
					<dim>16</dim>
					<dim>150</dim>
					<dim>150</dim>
				</port>
				<port id="1" precision="FP32">
					<dim>96</dim>
					<dim>16</dim>
					<dim>1</dim>
					<dim>1</dim>
				</port>
			</input>
			<output>
				<port id="2" precision="FP32">
					<dim>1</dim>
					<dim>96</dim>
					<dim>150</dim>
					<dim>150</dim>
				</port>
			</output>
		</layer>
		<layer id="21" name="data_add_2028320288" type="Const" version="opset1">
			<data element_type="f32" offset="13128" shape="1, 96, 1, 1" size="384"/>
			<output>
				<port id="0" precision="FP32">
					<dim>1</dim>
					<dim>96</dim>
					<dim>1</dim>
					<dim>1</dim>
				</port>
			</output>
		</layer>
		<layer id="22" name="FeatureExtractor/MobilenetV2/expanded_conv_1/expand/BatchNorm/FusedBatchNorm/variance/Fused_Add_" type="Add" version="opset1">
			<data auto_broadcast="numpy"/>
			<input>
				<port id="0" precision="FP32">
					<dim>1</dim>
					<dim>96</dim>
					<dim>150</dim>
					<dim>150</dim>
				</port>
				<port id="1" precision="FP32">
					<dim>1</dim>
					<dim>96</dim>
					<dim>1</dim>
					<dim>1</dim>
				</port>
			</input>
			<output>
				<port id="2" names="FeatureExtractor/MobilenetV2/expanded_conv_1/expand/BatchNorm/FusedBatchNorm:0" precision="FP32">
					<dim>1</dim>
					<dim>96</dim>
					<dim>150</dim>
					<dim>150</dim>
				</port>
			</output>
		</layer>
		<layer id="23" name="FeatureExtractor/MobilenetV2/expanded_conv_1/expand/Relu6" type="Clamp" version="opset1">
			<data max="6" min="0"/>
			<input>
				<port id="0" precision="FP32">
					<dim>1</dim>
					<dim>96</dim>
					<dim>150</dim>
					<dim>150</dim>
				</port>
			</input>
			<output>
				<port id="1" names="FeatureExtractor/MobilenetV2/expanded_conv_1/expand/Relu6:0,FeatureExtractor/MobilenetV2/expanded_conv_1/expansion_output:0" precision="FP32">
					<dim>1</dim>
					<dim>96</dim>
					<dim>150</dim>
					<dim>150</dim>
				</port>
			</output>
		</layer>
		<layer id="24" name="FeatureExtractor/MobilenetV2/expanded_conv_1/depthwise/BatchNorm/FusedBatchNorm/mean/Fused_Mul__copy" type="Const" version="opset1">
			<data element_type="f32" offset="13512" shape="96, 1, 1, 3, 3" size="3456"/>
			<output>
				<port id="0" names="FeatureExtractor/MobilenetV2/expanded_conv_1/depthwise/depthwise_weights/read:0" precision="FP32">
					<dim>96</dim>
					<dim>1</dim>
					<dim>1</dim>
					<dim>3</dim>
					<dim>3</dim>
				</port>
			</output>
		</layer>
		<layer id="25" name="FeatureExtractor/MobilenetV2/expanded_conv_1/depthwise/depthwise" type="GroupConvolution" version="opset1">
			<data auto_pad="same_upper" dilations="1, 1" pads_begin="0, 0" pads_end="1, 1" strides="2, 2"/>
			<input>
				<port id="0" precision="FP32">
					<dim>1</dim>
					<dim>96</dim>
					<dim>150</dim>
					<dim>150</dim>
				</port>
				<port id="1" precision="FP32">
					<dim>96</dim>
					<dim>1</dim>
					<dim>1</dim>
					<dim>3</dim>
					<dim>3</dim>
				</port>
			</input>
			<output>
				<port id="2" precision="FP32">
					<dim>1</dim>
					<dim>96</dim>
					<dim>75</dim>
					<dim>75</dim>
				</port>
			</output>
		</layer>
		<layer id="26" name="data_add_2029120296" type="Const" version="opset1">
			<data element_type="f32" offset="16968" shape="1, 96, 1, 1" size="384"/>
			<output>
				<port id="0" precision="FP32">
					<dim>1</dim>
					<dim>96</dim>
					<dim>1</dim>
					<dim>1</dim>
				</port>
			</output>
		</layer>
		<layer id="27" name="FeatureExtractor/MobilenetV2/expanded_conv_1/depthwise/BatchNorm/FusedBatchNorm/variance/Fused_Add_" type="Add" version="opset1">
			<data auto_broadcast="numpy"/>
			<input>
				<port id="0" precision="FP32">
					<dim>1</dim>
					<dim>96</dim>
					<dim>75</dim>
					<dim>75</dim>
				</port>
				<port id="1" precision="FP32">
					<dim>1</dim>
					<dim>96</dim>
					<dim>1</dim>
					<dim>1</dim>
				</port>
			</input>
			<output>
				<port id="2" names="FeatureExtractor/MobilenetV2/expanded_conv_1/depthwise/BatchNorm/FusedBatchNorm:0" precision="FP32">
					<dim>1</dim>
					<dim>96</dim>
					<dim>75</dim>
					<dim>75</dim>
				</port>
			</output>
		</layer>
		<layer id="28" name="FeatureExtractor/MobilenetV2/expanded_conv_1/depthwise/Relu6" type="Clamp" version="opset1">
			<data max="6" min="0"/>
			<input>
				<port id="0" precision="FP32">
					<dim>1</dim>
					<dim>96</dim>
					<dim>75</dim>
					<dim>75</dim>
				</port>
			</input>
			<output>
				<port id="1" names="FeatureExtractor/MobilenetV2/expanded_conv_1/depthwise/Relu6:0,FeatureExtractor/MobilenetV2/expanded_conv_1/depthwise_output:0" precision="FP32">
					<dim>1</dim>
					<dim>96</dim>
					<dim>75</dim>
					<dim>75</dim>
				</port>
			</output>
		</layer>
		<layer id="29" name="FeatureExtractor/MobilenetV2/expanded_conv_1/project/BatchNorm/FusedBatchNorm/mean/Fused_Mul__copy" type="Const" version="opset1">
			<data element_type="f32" offset="17352" shape="24, 96, 1, 1" size="9216"/>
			<output>
				<port id="0" names="FeatureExtractor/MobilenetV2/expanded_conv_1/project/weights/read:0" precision="FP32">
					<dim>24</dim>
					<dim>96</dim>
					<dim>1</dim>
					<dim>1</dim>
				</port>
			</output>
		</layer>
		<layer id="30" name="FeatureExtractor/MobilenetV2/expanded_conv_1/project/Conv2D" type="Convolution" version="opset1">
			<data auto_pad="same_upper" dilations="1, 1" pads_begin="0, 0" pads_end="0, 0" strides="1, 1"/>
			<input>
				<port id="0" precision="FP32">
					<dim>1</dim>
					<dim>96</dim>
					<dim>75</dim>
					<dim>75</dim>
				</port>
				<port id="1" precision="FP32">
					<dim>24</dim>
					<dim>96</dim>
					<dim>1</dim>
					<dim>1</dim>
				</port>
			</input>
			<output>
				<port id="2" precision="FP32">
					<dim>1</dim>
					<dim>24</dim>
					<dim>75</dim>
					<dim>75</dim>
				</port>
			</output>
		</layer>
		<layer id="31" name="data_add_2029920304" type="Const" version="opset1">
			<data element_type="f32" offset="26568" shape="1, 24, 1, 1" size="96"/>
			<output>
				<port id="0" precision="FP32">
					<dim>1</dim>
					<dim>24</dim>
					<dim>1</dim>
					<dim>1</dim>
				</port>
			</output>
		</layer>
		<layer id="32" name="FeatureExtractor/MobilenetV2/expanded_conv_1/project/BatchNorm/FusedBatchNorm/variance/Fused_Add_" type="Add" version="opset1">
			<data auto_broadcast="numpy"/>
			<input>
				<port id="0" precision="FP32">
					<dim>1</dim>
					<dim>24</dim>
					<dim>75</dim>
					<dim>75</dim>
				</port>
				<port id="1" precision="FP32">
					<dim>1</dim>
					<dim>24</dim>
					<dim>1</dim>
					<dim>1</dim>
				</port>
			</input>
			<output>
				<port id="2" names="FeatureExtractor/MobilenetV2/expanded_conv_1/output:0,FeatureExtractor/MobilenetV2/expanded_conv_1/project/BatchNorm/FusedBatchNorm:0,FeatureExtractor/MobilenetV2/expanded_conv_1/project/Identity:0,FeatureExtractor/MobilenetV2/expanded_conv_2/input:0" precision="FP32">
					<dim>1</dim>
					<dim>24</dim>
					<dim>75</dim>
					<dim>75</dim>
				</port>
			</output>
		</layer>
		<layer id="33" name="FeatureExtractor/MobilenetV2/expanded_conv_2/expand/BatchNorm/FusedBatchNorm/mean/Fused_Mul__copy" type="Const" version="opset1">
			<data element_type="f32" offset="26664" shape="144, 24, 1, 1" size="13824"/>
			<output>
				<port id="0" names="FeatureExtractor/MobilenetV2/expanded_conv_2/expand/weights/read:0" precision="FP32">
					<dim>144</dim>
					<dim>24</dim>
					<dim>1</dim>
					<dim>1</dim>
				</port>
			</output>
		</layer>
		<layer id="34" name="FeatureExtractor/MobilenetV2/expanded_conv_2/expand/Conv2D" type="Convolution" version="opset1">
			<data auto_pad="same_upper" dilations="1, 1" pads_begin="0, 0" pads_end="0, 0" strides="1, 1"/>
			<input>
				<port id="0" precision="FP32">
					<dim>1</dim>
					<dim>24</dim>
					<dim>75</dim>
					<dim>75</dim>
				</port>
				<port id="1" precision="FP32">
					<dim>144</dim>
					<dim>24</dim>
					<dim>1</dim>
					<dim>1</dim>
				</port>
			</input>
			<output>
				<port id="2" precision="FP32">
					<dim>1</dim>
					<dim>144</dim>
					<dim>75</dim>
					<dim>75</dim>
				</port>
			</output>
		</layer>
		<layer id="35" name="data_add_2030720312" type="Const" version="opset1">
			<data element_type="f32" offset="40488" shape="1, 144, 1, 1" size="576"/>
			<output>
				<port id="0" precision="FP32">
					<dim>1</dim>
					<dim>144</dim>
					<dim>1</dim>
					<dim>1</dim>
				</port>
			</output>
		</layer>
		<layer id="36" name="FeatureExtractor/MobilenetV2/expanded_conv_2/expand/BatchNorm/FusedBatchNorm/variance/Fused_Add_" type="Add" version="opset1">
			<data auto_broadcast="numpy"/>
			<input>
				<port id="0" precision="FP32">
					<dim>1</dim>
					<dim>144</dim>
					<dim>75</dim>
					<dim>75</dim>
				</port>
				<port id="1" precision="FP32">
					<dim>1</dim>
					<dim>144</dim>
					<dim>1</dim>
					<dim>1</dim>
				</port>
			</input>
			<output>
				<port id="2" names="FeatureExtractor/MobilenetV2/expanded_conv_2/expand/BatchNorm/FusedBatchNorm:0" precision="FP32">
					<dim>1</dim>
					<dim>144</dim>
					<dim>75</dim>
					<dim>75</dim>
				</port>
			</output>
		</layer>
		<layer id="37" name="FeatureExtractor/MobilenetV2/expanded_conv_2/expand/Relu6" type="Clamp" version="opset1">
			<data max="6" min="0"/>
			<input>
				<port id="0" precision="FP32">
					<dim>1</dim>
					<dim>144</dim>
					<dim>75</dim>
					<dim>75</dim>
				</port>
			</input>
			<output>
				<port id="1" names="FeatureExtractor/MobilenetV2/expanded_conv_2/expand/Relu6:0,FeatureExtractor/MobilenetV2/expanded_conv_2/expansion_output:0" precision="FP32">
					<dim>1</dim>
					<dim>144</dim>
					<dim>75</dim>
					<dim>75</dim>
				</port>
			</output>
		</layer>
		<layer id="38" name="FeatureExtractor/MobilenetV2/expanded_conv_2/depthwise/BatchNorm/FusedBatchNorm/mean/Fused_Mul__copy" type="Const" version="opset1">
			<data element_type="f32" offset="41064" shape="144, 1, 1, 3, 3" size="5184"/>
			<output>
				<port id="0" names="FeatureExtractor/MobilenetV2/expanded_conv_2/depthwise/depthwise_weights/read:0" precision="FP32">
					<dim>144</dim>
					<dim>1</dim>
					<dim>1</dim>
					<dim>3</dim>
					<dim>3</dim>
				</port>
			</output>
		</layer>
		<layer id="39" name="FeatureExtractor/MobilenetV2/expanded_conv_2/depthwise/depthwise" type="GroupConvolution" version="opset1">
			<data auto_pad="same_upper" dilations="1, 1" pads_begin="1, 1" pads_end="1, 1" strides="1, 1"/>
			<input>
				<port id="0" precision="FP32">
					<dim>1</dim>
					<dim>144</dim>
					<dim>75</dim>
					<dim>75</dim>
				</port>
				<port id="1" precision="FP32">
					<dim>144</dim>
					<dim>1</dim>
					<dim>1</dim>
					<dim>3</dim>
					<dim>3</dim>
				</port>
			</input>
			<output>
				<port id="2" precision="FP32">
					<dim>1</dim>
					<dim>144</dim>
					<dim>75</dim>
					<dim>75</dim>
				</port>
			</output>
		</layer>
		<layer id="40" name="data_add_2031520320" type="Const" version="opset1">
			<data element_type="f32" offset="46248" shape="1, 144, 1, 1" size="576"/>
			<output>
				<port id="0" precision="FP32">
					<dim>1</dim>
					<dim>144</dim>
					<dim>1</dim>
					<dim>1</dim>
				</port>
			</output>
		</layer>
		<layer id="41" name="FeatureExtractor/MobilenetV2/expanded_conv_2/depthwise/BatchNorm/FusedBatchNorm/variance/Fused_Add_" type="Add" version="opset1">
			<data auto_broadcast="numpy"/>
			<input>
				<port id="0" precision="FP32">
					<dim>1</dim>
					<dim>144</dim>
					<dim>75</dim>
					<dim>75</dim>
				</port>
				<port id="1" precision="FP32">
					<dim>1</dim>
					<dim>144</dim>
					<dim>1</dim>
					<dim>1</dim>
				</port>
			</input>
			<output>
				<port id="2" names="FeatureExtractor/MobilenetV2/expanded_conv_2/depthwise/BatchNorm/FusedBatchNorm:0" precision="FP32">
					<dim>1</dim>
					<dim>144</dim>
					<dim>75</dim>
					<dim>75</dim>
				</port>
			</output>
		</layer>
		<layer id="42" name="FeatureExtractor/MobilenetV2/expanded_conv_2/depthwise/Relu6" type="Clamp" version="opset1">
			<data max="6" min="0"/>
			<input>
				<port id="0" precision="FP32">
					<dim>1</dim>
					<dim>144</dim>
					<dim>75</dim>
					<dim>75</dim>
				</port>
			</input>
			<output>
				<port id="1" names="FeatureExtractor/MobilenetV2/expanded_conv_2/depthwise/Relu6:0,FeatureExtractor/MobilenetV2/expanded_conv_2/depthwise_output:0" precision="FP32">
					<dim>1</dim>
					<dim>144</dim>
					<dim>75</dim>
					<dim>75</dim>
				</port>
			</output>
		</layer>
		<layer id="43" name="FeatureExtractor/MobilenetV2/expanded_conv_2/project/BatchNorm/FusedBatchNorm/mean/Fused_Mul__copy" type="Const" version="opset1">
			<data element_type="f32" offset="46824" shape="24, 144, 1, 1" size="13824"/>
			<output>
				<port id="0" names="FeatureExtractor/MobilenetV2/expanded_conv_2/project/weights/read:0" precision="FP32">
					<dim>24</dim>
					<dim>144</dim>
					<dim>1</dim>
					<dim>1</dim>
				</port>
			</output>
		</layer>
		<layer id="44" name="FeatureExtractor/MobilenetV2/expanded_conv_2/project/Conv2D" type="Convolution" version="opset1">
			<data auto_pad="same_upper" dilations="1, 1" pads_begin="0, 0" pads_end="0, 0" strides="1, 1"/>
			<input>
				<port id="0" precision="FP32">
					<dim>1</dim>
					<dim>144</dim>
					<dim>75</dim>
					<dim>75</dim>
				</port>
				<port id="1" precision="FP32">
					<dim>24</dim>
					<dim>144</dim>
					<dim>1</dim>
					<dim>1</dim>
				</port>
			</input>
			<output>
				<port id="2" precision="FP32">
					<dim>1</dim>
					<dim>24</dim>
					<dim>75</dim>
					<dim>75</dim>
				</port>
			</output>
		</layer>
		<layer id="45" name="data_add_2032320328" type="Const" version="opset1">
			<data element_type="f32" offset="60648" shape="1, 24, 1, 1" size="96"/>
			<output>
				<port id="0" precision="FP32">
					<dim>1</dim>
					<dim>24</dim>
					<dim>1</dim>
					<dim>1</dim>
				</port>
			</output>
		</layer>
		<layer id="46" name="FeatureExtractor/MobilenetV2/expanded_conv_2/project/BatchNorm/FusedBatchNorm/variance/Fused_Add_" type="Add" version="opset1">
			<data auto_broadcast="numpy"/>
			<input>
				<port id="0" precision="FP32">
					<dim>1</dim>
					<dim>24</dim>
					<dim>75</dim>
					<dim>75</dim>
				</port>
				<port id="1" precision="FP32">
					<dim>1</dim>
					<dim>24</dim>
					<dim>1</dim>
					<dim>1</dim>
				</port>
			</input>
			<output>
				<port id="2" names="FeatureExtractor/MobilenetV2/expanded_conv_2/project/BatchNorm/FusedBatchNorm:0,FeatureExtractor/MobilenetV2/expanded_conv_2/project/Identity:0" precision="FP32">
					<dim>1</dim>
					<dim>24</dim>
					<dim>75</dim>
					<dim>75</dim>
				</port>
			</output>
		</layer>
		<layer id="47" name="FeatureExtractor/MobilenetV2/expanded_conv_2/add" type="Add" version="opset1">
			<data auto_broadcast="numpy"/>
			<input>
				<port id="0" precision="FP32">
					<dim>1</dim>
					<dim>24</dim>
					<dim>75</dim>
					<dim>75</dim>
				</port>
				<port id="1" precision="FP32">
					<dim>1</dim>
					<dim>24</dim>
					<dim>75</dim>
					<dim>75</dim>
				</port>
			</input>
			<output>
				<port id="2" names="FeatureExtractor/MobilenetV2/expanded_conv_2/add:0,FeatureExtractor/MobilenetV2/expanded_conv_2/output:0,FeatureExtractor/MobilenetV2/expanded_conv_3/input:0" precision="FP32">
					<dim>1</dim>
					<dim>24</dim>
					<dim>75</dim>
					<dim>75</dim>
				</port>
			</output>
		</layer>
		<layer id="48" name="FeatureExtractor/MobilenetV2/expanded_conv_3/expand/BatchNorm/FusedBatchNorm/mean/Fused_Mul__copy" type="Const" version="opset1">
			<data element_type="f32" offset="60744" shape="144, 24, 1, 1" size="13824"/>
			<output>
				<port id="0" names="FeatureExtractor/MobilenetV2/expanded_conv_3/expand/weights/read:0" precision="FP32">
					<dim>144</dim>
					<dim>24</dim>
					<dim>1</dim>
					<dim>1</dim>
				</port>
			</output>
		</layer>
		<layer id="49" name="FeatureExtractor/MobilenetV2/expanded_conv_3/expand/Conv2D" type="Convolution" version="opset1">
			<data auto_pad="same_upper" dilations="1, 1" pads_begin="0, 0" pads_end="0, 0" strides="1, 1"/>
			<input>
				<port id="0" precision="FP32">
					<dim>1</dim>
					<dim>24</dim>
					<dim>75</dim>
					<dim>75</dim>
				</port>
				<port id="1" precision="FP32">
					<dim>144</dim>
					<dim>24</dim>
					<dim>1</dim>
					<dim>1</dim>
				</port>
			</input>
			<output>
				<port id="2" precision="FP32">
					<dim>1</dim>
					<dim>144</dim>
					<dim>75</dim>
					<dim>75</dim>
				</port>
			</output>
		</layer>
		<layer id="50" name="data_add_2033120336" type="Const" version="opset1">
			<data element_type="f32" offset="74568" shape="1, 144, 1, 1" size="576"/>
			<output>
				<port id="0" precision="FP32">
					<dim>1</dim>
					<dim>144</dim>
					<dim>1</dim>
					<dim>1</dim>
				</port>
			</output>
		</layer>
		<layer id="51" name="FeatureExtractor/MobilenetV2/expanded_conv_3/expand/BatchNorm/FusedBatchNorm/variance/Fused_Add_" type="Add" version="opset1">
			<data auto_broadcast="numpy"/>
			<input>
				<port id="0" precision="FP32">
					<dim>1</dim>
					<dim>144</dim>
					<dim>75</dim>
					<dim>75</dim>
				</port>
				<port id="1" precision="FP32">
					<dim>1</dim>
					<dim>144</dim>
					<dim>1</dim>
					<dim>1</dim>
				</port>
			</input>
			<output>
				<port id="2" names="FeatureExtractor/MobilenetV2/expanded_conv_3/expand/BatchNorm/FusedBatchNorm:0" precision="FP32">
					<dim>1</dim>
					<dim>144</dim>
					<dim>75</dim>
					<dim>75</dim>
				</port>
			</output>
		</layer>
		<layer id="52" name="FeatureExtractor/MobilenetV2/expanded_conv_3/expand/Relu6" type="Clamp" version="opset1">
			<data max="6" min="0"/>
			<input>
				<port id="0" precision="FP32">
					<dim>1</dim>
					<dim>144</dim>
					<dim>75</dim>
					<dim>75</dim>
				</port>
			</input>
			<output>
				<port id="1" names="FeatureExtractor/MobilenetV2/expanded_conv_3/expand/Relu6:0,FeatureExtractor/MobilenetV2/expanded_conv_3/expansion_output:0" precision="FP32">
					<dim>1</dim>
					<dim>144</dim>
					<dim>75</dim>
					<dim>75</dim>
				</port>
			</output>
		</layer>
		<layer id="53" name="FeatureExtractor/MobilenetV2/expanded_conv_3/depthwise/BatchNorm/FusedBatchNorm/mean/Fused_Mul__copy" type="Const" version="opset1">
			<data element_type="f32" offset="75144" shape="144, 1, 1, 3, 3" size="5184"/>
			<output>
				<port id="0" names="FeatureExtractor/MobilenetV2/expanded_conv_3/depthwise/depthwise_weights/read:0" precision="FP32">
					<dim>144</dim>
					<dim>1</dim>
					<dim>1</dim>
					<dim>3</dim>
					<dim>3</dim>
				</port>
			</output>
		</layer>
		<layer id="54" name="FeatureExtractor/MobilenetV2/expanded_conv_3/depthwise/depthwise" type="GroupConvolution" version="opset1">
			<data auto_pad="same_upper" dilations="1, 1" pads_begin="1, 1" pads_end="1, 1" strides="2, 2"/>
			<input>
				<port id="0" precision="FP32">
					<dim>1</dim>
					<dim>144</dim>
					<dim>75</dim>
					<dim>75</dim>
				</port>
				<port id="1" precision="FP32">
					<dim>144</dim>
					<dim>1</dim>
					<dim>1</dim>
					<dim>3</dim>
					<dim>3</dim>
				</port>
			</input>
			<output>
				<port id="2" precision="FP32">
					<dim>1</dim>
					<dim>144</dim>
					<dim>38</dim>
					<dim>38</dim>
				</port>
			</output>
		</layer>
		<layer id="55" name="data_add_2033920344" type="Const" version="opset1">
			<data element_type="f32" offset="80328" shape="1, 144, 1, 1" size="576"/>
			<output>
				<port id="0" precision="FP32">
					<dim>1</dim>
					<dim>144</dim>
					<dim>1</dim>
					<dim>1</dim>
				</port>
			</output>
		</layer>
		<layer id="56" name="FeatureExtractor/MobilenetV2/expanded_conv_3/depthwise/BatchNorm/FusedBatchNorm/variance/Fused_Add_" type="Add" version="opset1">
			<data auto_broadcast="numpy"/>
			<input>
				<port id="0" precision="FP32">
					<dim>1</dim>
					<dim>144</dim>
					<dim>38</dim>
					<dim>38</dim>
				</port>
				<port id="1" precision="FP32">
					<dim>1</dim>
					<dim>144</dim>
					<dim>1</dim>
					<dim>1</dim>
				</port>
			</input>
			<output>
				<port id="2" names="FeatureExtractor/MobilenetV2/expanded_conv_3/depthwise/BatchNorm/FusedBatchNorm:0" precision="FP32">
					<dim>1</dim>
					<dim>144</dim>
					<dim>38</dim>
					<dim>38</dim>
				</port>
			</output>
		</layer>
		<layer id="57" name="FeatureExtractor/MobilenetV2/expanded_conv_3/depthwise/Relu6" type="Clamp" version="opset1">
			<data max="6" min="0"/>
			<input>
				<port id="0" precision="FP32">
					<dim>1</dim>
					<dim>144</dim>
					<dim>38</dim>
					<dim>38</dim>
				</port>
			</input>
			<output>
				<port id="1" names="FeatureExtractor/MobilenetV2/expanded_conv_3/depthwise/Relu6:0,FeatureExtractor/MobilenetV2/expanded_conv_3/depthwise_output:0" precision="FP32">
					<dim>1</dim>
					<dim>144</dim>
					<dim>38</dim>
					<dim>38</dim>
				</port>
			</output>
		</layer>
		<layer id="58" name="FeatureExtractor/MobilenetV2/expanded_conv_3/project/BatchNorm/FusedBatchNorm/mean/Fused_Mul__copy" type="Const" version="opset1">
			<data element_type="f32" offset="80904" shape="32, 144, 1, 1" size="18432"/>
			<output>
				<port id="0" names="FeatureExtractor/MobilenetV2/expanded_conv_3/project/weights/read:0" precision="FP32">
					<dim>32</dim>
					<dim>144</dim>
					<dim>1</dim>
					<dim>1</dim>
				</port>
			</output>
		</layer>
		<layer id="59" name="FeatureExtractor/MobilenetV2/expanded_conv_3/project/Conv2D" type="Convolution" version="opset1">
			<data auto_pad="same_upper" dilations="1, 1" pads_begin="0, 0" pads_end="0, 0" strides="1, 1"/>
			<input>
				<port id="0" precision="FP32">
					<dim>1</dim>
					<dim>144</dim>
					<dim>38</dim>
					<dim>38</dim>
				</port>
				<port id="1" precision="FP32">
					<dim>32</dim>
					<dim>144</dim>
					<dim>1</dim>
					<dim>1</dim>
				</port>
			</input>
			<output>
				<port id="2" precision="FP32">
					<dim>1</dim>
					<dim>32</dim>
					<dim>38</dim>
					<dim>38</dim>
				</port>
			</output>
		</layer>
		<layer id="60" name="data_add_2034720352" type="Const" version="opset1">
			<data element_type="f32" offset="99336" shape="1, 32, 1, 1" size="128"/>
			<output>
				<port id="0" precision="FP32">
					<dim>1</dim>
					<dim>32</dim>
					<dim>1</dim>
					<dim>1</dim>
				</port>
			</output>
		</layer>
		<layer id="61" name="FeatureExtractor/MobilenetV2/expanded_conv_3/project/BatchNorm/FusedBatchNorm/variance/Fused_Add_" type="Add" version="opset1">
			<data auto_broadcast="numpy"/>
			<input>
				<port id="0" precision="FP32">
					<dim>1</dim>
					<dim>32</dim>
					<dim>38</dim>
					<dim>38</dim>
				</port>
				<port id="1" precision="FP32">
					<dim>1</dim>
					<dim>32</dim>
					<dim>1</dim>
					<dim>1</dim>
				</port>
			</input>
			<output>
				<port id="2" names="FeatureExtractor/MobilenetV2/expanded_conv_3/output:0,FeatureExtractor/MobilenetV2/expanded_conv_3/project/BatchNorm/FusedBatchNorm:0,FeatureExtractor/MobilenetV2/expanded_conv_3/project/Identity:0,FeatureExtractor/MobilenetV2/expanded_conv_4/input:0" precision="FP32">
					<dim>1</dim>
					<dim>32</dim>
					<dim>38</dim>
					<dim>38</dim>
				</port>
			</output>
		</layer>
		<layer id="62" name="FeatureExtractor/MobilenetV2/expanded_conv_4/expand/BatchNorm/FusedBatchNorm/mean/Fused_Mul__copy" type="Const" version="opset1">
			<data element_type="f32" offset="99464" shape="192, 32, 1, 1" size="24576"/>
			<output>
				<port id="0" names="FeatureExtractor/MobilenetV2/expanded_conv_4/expand/weights/read:0" precision="FP32">
					<dim>192</dim>
					<dim>32</dim>
					<dim>1</dim>
					<dim>1</dim>
				</port>
			</output>
		</layer>
		<layer id="63" name="FeatureExtractor/MobilenetV2/expanded_conv_4/expand/Conv2D" type="Convolution" version="opset1">
			<data auto_pad="same_upper" dilations="1, 1" pads_begin="0, 0" pads_end="0, 0" strides="1, 1"/>
			<input>
				<port id="0" precision="FP32">
					<dim>1</dim>
					<dim>32</dim>
					<dim>38</dim>
					<dim>38</dim>
				</port>
				<port id="1" precision="FP32">
					<dim>192</dim>
					<dim>32</dim>
					<dim>1</dim>
					<dim>1</dim>
				</port>
			</input>
			<output>
				<port id="2" precision="FP32">
					<dim>1</dim>
					<dim>192</dim>
					<dim>38</dim>
					<dim>38</dim>
				</port>
			</output>
		</layer>
		<layer id="64" name="data_add_2035520360" type="Const" version="opset1">
			<data element_type="f32" offset="124040" shape="1, 192, 1, 1" size="768"/>
			<output>
				<port id="0" precision="FP32">
					<dim>1</dim>
					<dim>192</dim>
					<dim>1</dim>
					<dim>1</dim>
				</port>
			</output>
		</layer>
		<layer id="65" name="FeatureExtractor/MobilenetV2/expanded_conv_4/expand/BatchNorm/FusedBatchNorm/variance/Fused_Add_" type="Add" version="opset1">
			<data auto_broadcast="numpy"/>
			<input>
				<port id="0" precision="FP32">
					<dim>1</dim>
					<dim>192</dim>
					<dim>38</dim>
					<dim>38</dim>
				</port>
				<port id="1" precision="FP32">
					<dim>1</dim>
					<dim>192</dim>
					<dim>1</dim>
					<dim>1</dim>
				</port>
			</input>
			<output>
				<port id="2" names="FeatureExtractor/MobilenetV2/expanded_conv_4/expand/BatchNorm/FusedBatchNorm:0" precision="FP32">
					<dim>1</dim>
					<dim>192</dim>
					<dim>38</dim>
					<dim>38</dim>
				</port>
			</output>
		</layer>
		<layer id="66" name="FeatureExtractor/MobilenetV2/expanded_conv_4/expand/Relu6" type="Clamp" version="opset1">
			<data max="6" min="0"/>
			<input>
				<port id="0" precision="FP32">
					<dim>1</dim>
					<dim>192</dim>
					<dim>38</dim>
					<dim>38</dim>
				</port>
			</input>
			<output>
				<port id="1" names="FeatureExtractor/MobilenetV2/expanded_conv_4/expand/Relu6:0,FeatureExtractor/MobilenetV2/expanded_conv_4/expansion_output:0" precision="FP32">
					<dim>1</dim>
					<dim>192</dim>
					<dim>38</dim>
					<dim>38</dim>
				</port>
			</output>
		</layer>
		<layer id="67" name="FeatureExtractor/MobilenetV2/expanded_conv_4/depthwise/BatchNorm/FusedBatchNorm/mean/Fused_Mul__copy" type="Const" version="opset1">
			<data element_type="f32" offset="124808" shape="192, 1, 1, 3, 3" size="6912"/>
			<output>
				<port id="0" names="FeatureExtractor/MobilenetV2/expanded_conv_4/depthwise/depthwise_weights/read:0" precision="FP32">
					<dim>192</dim>
					<dim>1</dim>
					<dim>1</dim>
					<dim>3</dim>
					<dim>3</dim>
				</port>
			</output>
		</layer>
		<layer id="68" name="FeatureExtractor/MobilenetV2/expanded_conv_4/depthwise/depthwise" type="GroupConvolution" version="opset1">
			<data auto_pad="same_upper" dilations="1, 1" pads_begin="1, 1" pads_end="1, 1" strides="1, 1"/>
			<input>
				<port id="0" precision="FP32">
					<dim>1</dim>
					<dim>192</dim>
					<dim>38</dim>
					<dim>38</dim>
				</port>
				<port id="1" precision="FP32">
					<dim>192</dim>
					<dim>1</dim>
					<dim>1</dim>
					<dim>3</dim>
					<dim>3</dim>
				</port>
			</input>
			<output>
				<port id="2" precision="FP32">
					<dim>1</dim>
					<dim>192</dim>
					<dim>38</dim>
					<dim>38</dim>
				</port>
			</output>
		</layer>
		<layer id="69" name="data_add_2036320368" type="Const" version="opset1">
			<data element_type="f32" offset="131720" shape="1, 192, 1, 1" size="768"/>
			<output>
				<port id="0" precision="FP32">
					<dim>1</dim>
					<dim>192</dim>
					<dim>1</dim>
					<dim>1</dim>
				</port>
			</output>
		</layer>
		<layer id="70" name="FeatureExtractor/MobilenetV2/expanded_conv_4/depthwise/BatchNorm/FusedBatchNorm/variance/Fused_Add_" type="Add" version="opset1">
			<data auto_broadcast="numpy"/>
			<input>
				<port id="0" precision="FP32">
					<dim>1</dim>
					<dim>192</dim>
					<dim>38</dim>
					<dim>38</dim>
				</port>
				<port id="1" precision="FP32">
					<dim>1</dim>
					<dim>192</dim>
					<dim>1</dim>
					<dim>1</dim>
				</port>
			</input>
			<output>
				<port id="2" names="FeatureExtractor/MobilenetV2/expanded_conv_4/depthwise/BatchNorm/FusedBatchNorm:0" precision="FP32">
					<dim>1</dim>
					<dim>192</dim>
					<dim>38</dim>
					<dim>38</dim>
				</port>
			</output>
		</layer>
		<layer id="71" name="FeatureExtractor/MobilenetV2/expanded_conv_4/depthwise/Relu6" type="Clamp" version="opset1">
			<data max="6" min="0"/>
			<input>
				<port id="0" precision="FP32">
					<dim>1</dim>
					<dim>192</dim>
					<dim>38</dim>
					<dim>38</dim>
				</port>
			</input>
			<output>
				<port id="1" names="FeatureExtractor/MobilenetV2/expanded_conv_4/depthwise/Relu6:0,FeatureExtractor/MobilenetV2/expanded_conv_4/depthwise_output:0" precision="FP32">
					<dim>1</dim>
					<dim>192</dim>
					<dim>38</dim>
					<dim>38</dim>
				</port>
			</output>
		</layer>
		<layer id="72" name="FeatureExtractor/MobilenetV2/expanded_conv_4/project/BatchNorm/FusedBatchNorm/mean/Fused_Mul__copy" type="Const" version="opset1">
			<data element_type="f32" offset="132488" shape="32, 192, 1, 1" size="24576"/>
			<output>
				<port id="0" names="FeatureExtractor/MobilenetV2/expanded_conv_4/project/weights/read:0" precision="FP32">
					<dim>32</dim>
					<dim>192</dim>
					<dim>1</dim>
					<dim>1</dim>
				</port>
			</output>
		</layer>
		<layer id="73" name="FeatureExtractor/MobilenetV2/expanded_conv_4/project/Conv2D" type="Convolution" version="opset1">
			<data auto_pad="same_upper" dilations="1, 1" pads_begin="0, 0" pads_end="0, 0" strides="1, 1"/>
			<input>
				<port id="0" precision="FP32">
					<dim>1</dim>
					<dim>192</dim>
					<dim>38</dim>
					<dim>38</dim>
				</port>
				<port id="1" precision="FP32">
					<dim>32</dim>
					<dim>192</dim>
					<dim>1</dim>
					<dim>1</dim>
				</port>
			</input>
			<output>
				<port id="2" precision="FP32">
					<dim>1</dim>
					<dim>32</dim>
					<dim>38</dim>
					<dim>38</dim>
				</port>
			</output>
		</layer>
		<layer id="74" name="data_add_2037120376" type="Const" version="opset1">
			<data element_type="f32" offset="157064" shape="1, 32, 1, 1" size="128"/>
			<output>
				<port id="0" precision="FP32">
					<dim>1</dim>
					<dim>32</dim>
					<dim>1</dim>
					<dim>1</dim>
				</port>
			</output>
		</layer>
		<layer id="75" name="FeatureExtractor/MobilenetV2/expanded_conv_4/project/BatchNorm/FusedBatchNorm/variance/Fused_Add_" type="Add" version="opset1">
			<data auto_broadcast="numpy"/>
			<input>
				<port id="0" precision="FP32">
					<dim>1</dim>
					<dim>32</dim>
					<dim>38</dim>
					<dim>38</dim>
				</port>
				<port id="1" precision="FP32">
					<dim>1</dim>
					<dim>32</dim>
					<dim>1</dim>
					<dim>1</dim>
				</port>
			</input>
			<output>
				<port id="2" names="FeatureExtractor/MobilenetV2/expanded_conv_4/project/BatchNorm/FusedBatchNorm:0,FeatureExtractor/MobilenetV2/expanded_conv_4/project/Identity:0" precision="FP32">
					<dim>1</dim>
					<dim>32</dim>
					<dim>38</dim>
					<dim>38</dim>
				</port>
			</output>
		</layer>
		<layer id="76" name="FeatureExtractor/MobilenetV2/expanded_conv_4/add" type="Add" version="opset1">
			<data auto_broadcast="numpy"/>
			<input>
				<port id="0" precision="FP32">
					<dim>1</dim>
					<dim>32</dim>
					<dim>38</dim>
					<dim>38</dim>
				</port>
				<port id="1" precision="FP32">
					<dim>1</dim>
					<dim>32</dim>
					<dim>38</dim>
					<dim>38</dim>
				</port>
			</input>
			<output>
				<port id="2" names="FeatureExtractor/MobilenetV2/expanded_conv_4/add:0,FeatureExtractor/MobilenetV2/expanded_conv_4/output:0,FeatureExtractor/MobilenetV2/expanded_conv_5/input:0" precision="FP32">
					<dim>1</dim>
					<dim>32</dim>
					<dim>38</dim>
					<dim>38</dim>
				</port>
			</output>
		</layer>
		<layer id="77" name="FeatureExtractor/MobilenetV2/expanded_conv_5/expand/BatchNorm/FusedBatchNorm/mean/Fused_Mul__copy" type="Const" version="opset1">
			<data element_type="f32" offset="157192" shape="192, 32, 1, 1" size="24576"/>
			<output>
				<port id="0" names="FeatureExtractor/MobilenetV2/expanded_conv_5/expand/weights/read:0" precision="FP32">
					<dim>192</dim>
					<dim>32</dim>
					<dim>1</dim>
					<dim>1</dim>
				</port>
			</output>
		</layer>
		<layer id="78" name="FeatureExtractor/MobilenetV2/expanded_conv_5/expand/Conv2D" type="Convolution" version="opset1">
			<data auto_pad="same_upper" dilations="1, 1" pads_begin="0, 0" pads_end="0, 0" strides="1, 1"/>
			<input>
				<port id="0" precision="FP32">
					<dim>1</dim>
					<dim>32</dim>
					<dim>38</dim>
					<dim>38</dim>
				</port>
				<port id="1" precision="FP32">
					<dim>192</dim>
					<dim>32</dim>
					<dim>1</dim>
					<dim>1</dim>
				</port>
			</input>
			<output>
				<port id="2" precision="FP32">
					<dim>1</dim>
					<dim>192</dim>
					<dim>38</dim>
					<dim>38</dim>
				</port>
			</output>
		</layer>
		<layer id="79" name="data_add_2037920384" type="Const" version="opset1">
			<data element_type="f32" offset="181768" shape="1, 192, 1, 1" size="768"/>
			<output>
				<port id="0" precision="FP32">
					<dim>1</dim>
					<dim>192</dim>
					<dim>1</dim>
					<dim>1</dim>
				</port>
			</output>
		</layer>
		<layer id="80" name="FeatureExtractor/MobilenetV2/expanded_conv_5/expand/BatchNorm/FusedBatchNorm/variance/Fused_Add_" type="Add" version="opset1">
			<data auto_broadcast="numpy"/>
			<input>
				<port id="0" precision="FP32">
					<dim>1</dim>
					<dim>192</dim>
					<dim>38</dim>
					<dim>38</dim>
				</port>
				<port id="1" precision="FP32">
					<dim>1</dim>
					<dim>192</dim>
					<dim>1</dim>
					<dim>1</dim>
				</port>
			</input>
			<output>
				<port id="2" names="FeatureExtractor/MobilenetV2/expanded_conv_5/expand/BatchNorm/FusedBatchNorm:0" precision="FP32">
					<dim>1</dim>
					<dim>192</dim>
					<dim>38</dim>
					<dim>38</dim>
				</port>
			</output>
		</layer>
		<layer id="81" name="FeatureExtractor/MobilenetV2/expanded_conv_5/expand/Relu6" type="Clamp" version="opset1">
			<data max="6" min="0"/>
			<input>
				<port id="0" precision="FP32">
					<dim>1</dim>
					<dim>192</dim>
					<dim>38</dim>
					<dim>38</dim>
				</port>
			</input>
			<output>
				<port id="1" names="FeatureExtractor/MobilenetV2/expanded_conv_5/expand/Relu6:0,FeatureExtractor/MobilenetV2/expanded_conv_5/expansion_output:0" precision="FP32">
					<dim>1</dim>
					<dim>192</dim>
					<dim>38</dim>
					<dim>38</dim>
				</port>
			</output>
		</layer>
		<layer id="82" name="FeatureExtractor/MobilenetV2/expanded_conv_5/depthwise/BatchNorm/FusedBatchNorm/mean/Fused_Mul__copy" type="Const" version="opset1">
			<data element_type="f32" offset="182536" shape="192, 1, 1, 3, 3" size="6912"/>
			<output>
				<port id="0" names="FeatureExtractor/MobilenetV2/expanded_conv_5/depthwise/depthwise_weights/read:0" precision="FP32">
					<dim>192</dim>
					<dim>1</dim>
					<dim>1</dim>
					<dim>3</dim>
					<dim>3</dim>
				</port>
			</output>
		</layer>
		<layer id="83" name="FeatureExtractor/MobilenetV2/expanded_conv_5/depthwise/depthwise" type="GroupConvolution" version="opset1">
			<data auto_pad="same_upper" dilations="1, 1" pads_begin="1, 1" pads_end="1, 1" strides="1, 1"/>
			<input>
				<port id="0" precision="FP32">
					<dim>1</dim>
					<dim>192</dim>
					<dim>38</dim>
					<dim>38</dim>
				</port>
				<port id="1" precision="FP32">
					<dim>192</dim>
					<dim>1</dim>
					<dim>1</dim>
					<dim>3</dim>
					<dim>3</dim>
				</port>
			</input>
			<output>
				<port id="2" precision="FP32">
					<dim>1</dim>
					<dim>192</dim>
					<dim>38</dim>
					<dim>38</dim>
				</port>
			</output>
		</layer>
		<layer id="84" name="data_add_2038720392" type="Const" version="opset1">
			<data element_type="f32" offset="189448" shape="1, 192, 1, 1" size="768"/>
			<output>
				<port id="0" precision="FP32">
					<dim>1</dim>
					<dim>192</dim>
					<dim>1</dim>
					<dim>1</dim>
				</port>
			</output>
		</layer>
		<layer id="85" name="FeatureExtractor/MobilenetV2/expanded_conv_5/depthwise/BatchNorm/FusedBatchNorm/variance/Fused_Add_" type="Add" version="opset1">
			<data auto_broadcast="numpy"/>
			<input>
				<port id="0" precision="FP32">
					<dim>1</dim>
					<dim>192</dim>
					<dim>38</dim>
					<dim>38</dim>
				</port>
				<port id="1" precision="FP32">
					<dim>1</dim>
					<dim>192</dim>
					<dim>1</dim>
					<dim>1</dim>
				</port>
			</input>
			<output>
				<port id="2" names="FeatureExtractor/MobilenetV2/expanded_conv_5/depthwise/BatchNorm/FusedBatchNorm:0" precision="FP32">
					<dim>1</dim>
					<dim>192</dim>
					<dim>38</dim>
					<dim>38</dim>
				</port>
			</output>
		</layer>
		<layer id="86" name="FeatureExtractor/MobilenetV2/expanded_conv_5/depthwise/Relu6" type="Clamp" version="opset1">
			<data max="6" min="0"/>
			<input>
				<port id="0" precision="FP32">
					<dim>1</dim>
					<dim>192</dim>
					<dim>38</dim>
					<dim>38</dim>
				</port>
			</input>
			<output>
				<port id="1" names="FeatureExtractor/MobilenetV2/expanded_conv_5/depthwise/Relu6:0,FeatureExtractor/MobilenetV2/expanded_conv_5/depthwise_output:0" precision="FP32">
					<dim>1</dim>
					<dim>192</dim>
					<dim>38</dim>
					<dim>38</dim>
				</port>
			</output>
		</layer>
		<layer id="87" name="FeatureExtractor/MobilenetV2/expanded_conv_5/project/BatchNorm/FusedBatchNorm/mean/Fused_Mul__copy" type="Const" version="opset1">
			<data element_type="f32" offset="190216" shape="32, 192, 1, 1" size="24576"/>
			<output>
				<port id="0" names="FeatureExtractor/MobilenetV2/expanded_conv_5/project/weights/read:0" precision="FP32">
					<dim>32</dim>
					<dim>192</dim>
					<dim>1</dim>
					<dim>1</dim>
				</port>
			</output>
		</layer>
		<layer id="88" name="FeatureExtractor/MobilenetV2/expanded_conv_5/project/Conv2D" type="Convolution" version="opset1">
			<data auto_pad="same_upper" dilations="1, 1" pads_begin="0, 0" pads_end="0, 0" strides="1, 1"/>
			<input>
				<port id="0" precision="FP32">
					<dim>1</dim>
					<dim>192</dim>
					<dim>38</dim>
					<dim>38</dim>
				</port>
				<port id="1" precision="FP32">
					<dim>32</dim>
					<dim>192</dim>
					<dim>1</dim>
					<dim>1</dim>
				</port>
			</input>
			<output>
				<port id="2" precision="FP32">
					<dim>1</dim>
					<dim>32</dim>
					<dim>38</dim>
					<dim>38</dim>
				</port>
			</output>
		</layer>
		<layer id="89" name="data_add_2039520400" type="Const" version="opset1">
			<data element_type="f32" offset="214792" shape="1, 32, 1, 1" size="128"/>
			<output>
				<port id="0" precision="FP32">
					<dim>1</dim>
					<dim>32</dim>
					<dim>1</dim>
					<dim>1</dim>
				</port>
			</output>
		</layer>
		<layer id="90" name="FeatureExtractor/MobilenetV2/expanded_conv_5/project/BatchNorm/FusedBatchNorm/variance/Fused_Add_" type="Add" version="opset1">
			<data auto_broadcast="numpy"/>
			<input>
				<port id="0" precision="FP32">
					<dim>1</dim>
					<dim>32</dim>
					<dim>38</dim>
					<dim>38</dim>
				</port>
				<port id="1" precision="FP32">
					<dim>1</dim>
					<dim>32</dim>
					<dim>1</dim>
					<dim>1</dim>
				</port>
			</input>
			<output>
				<port id="2" names="FeatureExtractor/MobilenetV2/expanded_conv_5/project/BatchNorm/FusedBatchNorm:0,FeatureExtractor/MobilenetV2/expanded_conv_5/project/Identity:0" precision="FP32">
					<dim>1</dim>
					<dim>32</dim>
					<dim>38</dim>
					<dim>38</dim>
				</port>
			</output>
		</layer>
		<layer id="91" name="FeatureExtractor/MobilenetV2/expanded_conv_5/add" type="Add" version="opset1">
			<data auto_broadcast="numpy"/>
			<input>
				<port id="0" precision="FP32">
					<dim>1</dim>
					<dim>32</dim>
					<dim>38</dim>
					<dim>38</dim>
				</port>
				<port id="1" precision="FP32">
					<dim>1</dim>
					<dim>32</dim>
					<dim>38</dim>
					<dim>38</dim>
				</port>
			</input>
			<output>
				<port id="2" names="FeatureExtractor/MobilenetV2/expanded_conv_5/add:0,FeatureExtractor/MobilenetV2/expanded_conv_5/output:0,FeatureExtractor/MobilenetV2/expanded_conv_6/input:0" precision="FP32">
					<dim>1</dim>
					<dim>32</dim>
					<dim>38</dim>
					<dim>38</dim>
				</port>
			</output>
		</layer>
		<layer id="92" name="FeatureExtractor/MobilenetV2/expanded_conv_6/expand/BatchNorm/FusedBatchNorm/mean/Fused_Mul__copy" type="Const" version="opset1">
			<data element_type="f32" offset="214920" shape="192, 32, 1, 1" size="24576"/>
			<output>
				<port id="0" names="FeatureExtractor/MobilenetV2/expanded_conv_6/expand/weights/read:0" precision="FP32">
					<dim>192</dim>
					<dim>32</dim>
					<dim>1</dim>
					<dim>1</dim>
				</port>
			</output>
		</layer>
		<layer id="93" name="FeatureExtractor/MobilenetV2/expanded_conv_6/expand/Conv2D" type="Convolution" version="opset1">
			<data auto_pad="same_upper" dilations="1, 1" pads_begin="0, 0" pads_end="0, 0" strides="1, 1"/>
			<input>
				<port id="0" precision="FP32">
					<dim>1</dim>
					<dim>32</dim>
					<dim>38</dim>
					<dim>38</dim>
				</port>
				<port id="1" precision="FP32">
					<dim>192</dim>
					<dim>32</dim>
					<dim>1</dim>
					<dim>1</dim>
				</port>
			</input>
			<output>
				<port id="2" precision="FP32">
					<dim>1</dim>
					<dim>192</dim>
					<dim>38</dim>
					<dim>38</dim>
				</port>
			</output>
		</layer>
		<layer id="94" name="data_add_2040320408" type="Const" version="opset1">
			<data element_type="f32" offset="239496" shape="1, 192, 1, 1" size="768"/>
			<output>
				<port id="0" precision="FP32">
					<dim>1</dim>
					<dim>192</dim>
					<dim>1</dim>
					<dim>1</dim>
				</port>
			</output>
		</layer>
		<layer id="95" name="FeatureExtractor/MobilenetV2/expanded_conv_6/expand/BatchNorm/FusedBatchNorm/variance/Fused_Add_" type="Add" version="opset1">
			<data auto_broadcast="numpy"/>
			<input>
				<port id="0" precision="FP32">
					<dim>1</dim>
					<dim>192</dim>
					<dim>38</dim>
					<dim>38</dim>
				</port>
				<port id="1" precision="FP32">
					<dim>1</dim>
					<dim>192</dim>
					<dim>1</dim>
					<dim>1</dim>
				</port>
			</input>
			<output>
				<port id="2" names="FeatureExtractor/MobilenetV2/expanded_conv_6/expand/BatchNorm/FusedBatchNorm:0" precision="FP32">
					<dim>1</dim>
					<dim>192</dim>
					<dim>38</dim>
					<dim>38</dim>
				</port>
			</output>
		</layer>
		<layer id="96" name="FeatureExtractor/MobilenetV2/expanded_conv_6/expand/Relu6" type="Clamp" version="opset1">
			<data max="6" min="0"/>
			<input>
				<port id="0" precision="FP32">
					<dim>1</dim>
					<dim>192</dim>
					<dim>38</dim>
					<dim>38</dim>
				</port>
			</input>
			<output>
				<port id="1" names="FeatureExtractor/MobilenetV2/expanded_conv_6/expand/Relu6:0,FeatureExtractor/MobilenetV2/expanded_conv_6/expansion_output:0" precision="FP32">
					<dim>1</dim>
					<dim>192</dim>
					<dim>38</dim>
					<dim>38</dim>
				</port>
			</output>
		</layer>
		<layer id="97" name="FeatureExtractor/MobilenetV2/expanded_conv_6/depthwise/BatchNorm/FusedBatchNorm/mean/Fused_Mul__copy" type="Const" version="opset1">
			<data element_type="f32" offset="240264" shape="192, 1, 1, 3, 3" size="6912"/>
			<output>
				<port id="0" names="FeatureExtractor/MobilenetV2/expanded_conv_6/depthwise/depthwise_weights/read:0" precision="FP32">
					<dim>192</dim>
					<dim>1</dim>
					<dim>1</dim>
					<dim>3</dim>
					<dim>3</dim>
				</port>
			</output>
		</layer>
		<layer id="98" name="FeatureExtractor/MobilenetV2/expanded_conv_6/depthwise/depthwise" type="GroupConvolution" version="opset1">
			<data auto_pad="same_upper" dilations="1, 1" pads_begin="0, 0" pads_end="1, 1" strides="2, 2"/>
			<input>
				<port id="0" precision="FP32">
					<dim>1</dim>
					<dim>192</dim>
					<dim>38</dim>
					<dim>38</dim>
				</port>
				<port id="1" precision="FP32">
					<dim>192</dim>
					<dim>1</dim>
					<dim>1</dim>
					<dim>3</dim>
					<dim>3</dim>
				</port>
			</input>
			<output>
				<port id="2" precision="FP32">
					<dim>1</dim>
					<dim>192</dim>
					<dim>19</dim>
					<dim>19</dim>
				</port>
			</output>
		</layer>
		<layer id="99" name="data_add_2041120416" type="Const" version="opset1">
			<data element_type="f32" offset="247176" shape="1, 192, 1, 1" size="768"/>
			<output>
				<port id="0" precision="FP32">
					<dim>1</dim>
					<dim>192</dim>
					<dim>1</dim>
					<dim>1</dim>
				</port>
			</output>
		</layer>
		<layer id="100" name="FeatureExtractor/MobilenetV2/expanded_conv_6/depthwise/BatchNorm/FusedBatchNorm/variance/Fused_Add_" type="Add" version="opset1">
			<data auto_broadcast="numpy"/>
			<input>
				<port id="0" precision="FP32">
					<dim>1</dim>
					<dim>192</dim>
					<dim>19</dim>
					<dim>19</dim>
				</port>
				<port id="1" precision="FP32">
					<dim>1</dim>
					<dim>192</dim>
					<dim>1</dim>
					<dim>1</dim>
				</port>
			</input>
			<output>
				<port id="2" names="FeatureExtractor/MobilenetV2/expanded_conv_6/depthwise/BatchNorm/FusedBatchNorm:0" precision="FP32">
					<dim>1</dim>
					<dim>192</dim>
					<dim>19</dim>
					<dim>19</dim>
				</port>
			</output>
		</layer>
		<layer id="101" name="FeatureExtractor/MobilenetV2/expanded_conv_6/depthwise/Relu6" type="Clamp" version="opset1">
			<data max="6" min="0"/>
			<input>
				<port id="0" precision="FP32">
					<dim>1</dim>
					<dim>192</dim>
					<dim>19</dim>
					<dim>19</dim>
				</port>
			</input>
			<output>
				<port id="1" names="FeatureExtractor/MobilenetV2/expanded_conv_6/depthwise/Relu6:0,FeatureExtractor/MobilenetV2/expanded_conv_6/depthwise_output:0" precision="FP32">
					<dim>1</dim>
					<dim>192</dim>
					<dim>19</dim>
					<dim>19</dim>
				</port>
			</output>
		</layer>
		<layer id="102" name="FeatureExtractor/MobilenetV2/expanded_conv_6/project/BatchNorm/FusedBatchNorm/mean/Fused_Mul__copy" type="Const" version="opset1">
			<data element_type="f32" offset="247944" shape="64, 192, 1, 1" size="49152"/>
			<output>
				<port id="0" names="FeatureExtractor/MobilenetV2/expanded_conv_6/project/weights/read:0" precision="FP32">
					<dim>64</dim>
					<dim>192</dim>
					<dim>1</dim>
					<dim>1</dim>
				</port>
			</output>
		</layer>
		<layer id="103" name="FeatureExtractor/MobilenetV2/expanded_conv_6/project/Conv2D" type="Convolution" version="opset1">
			<data auto_pad="same_upper" dilations="1, 1" pads_begin="0, 0" pads_end="0, 0" strides="1, 1"/>
			<input>
				<port id="0" precision="FP32">
					<dim>1</dim>
					<dim>192</dim>
					<dim>19</dim>
					<dim>19</dim>
				</port>
				<port id="1" precision="FP32">
					<dim>64</dim>
					<dim>192</dim>
					<dim>1</dim>
					<dim>1</dim>
				</port>
			</input>
			<output>
				<port id="2" precision="FP32">
					<dim>1</dim>
					<dim>64</dim>
					<dim>19</dim>
					<dim>19</dim>
				</port>
			</output>
		</layer>
		<layer id="104" name="data_add_2041920424" type="Const" version="opset1">
			<data element_type="f32" offset="297096" shape="1, 64, 1, 1" size="256"/>
			<output>
				<port id="0" precision="FP32">
					<dim>1</dim>
					<dim>64</dim>
					<dim>1</dim>
					<dim>1</dim>
				</port>
			</output>
		</layer>
		<layer id="105" name="FeatureExtractor/MobilenetV2/expanded_conv_6/project/BatchNorm/FusedBatchNorm/variance/Fused_Add_" type="Add" version="opset1">
			<data auto_broadcast="numpy"/>
			<input>
				<port id="0" precision="FP32">
					<dim>1</dim>
					<dim>64</dim>
					<dim>19</dim>
					<dim>19</dim>
				</port>
				<port id="1" precision="FP32">
					<dim>1</dim>
					<dim>64</dim>
					<dim>1</dim>
					<dim>1</dim>
				</port>
			</input>
			<output>
				<port id="2" names="FeatureExtractor/MobilenetV2/expanded_conv_6/output:0,FeatureExtractor/MobilenetV2/expanded_conv_6/project/BatchNorm/FusedBatchNorm:0,FeatureExtractor/MobilenetV2/expanded_conv_6/project/Identity:0,FeatureExtractor/MobilenetV2/expanded_conv_7/input:0" precision="FP32">
					<dim>1</dim>
					<dim>64</dim>
					<dim>19</dim>
					<dim>19</dim>
				</port>
			</output>
		</layer>
		<layer id="106" name="FeatureExtractor/MobilenetV2/expanded_conv_7/expand/BatchNorm/FusedBatchNorm/mean/Fused_Mul__copy" type="Const" version="opset1">
			<data element_type="f32" offset="297352" shape="384, 64, 1, 1" size="98304"/>
			<output>
				<port id="0" names="FeatureExtractor/MobilenetV2/expanded_conv_7/expand/weights/read:0" precision="FP32">
					<dim>384</dim>
					<dim>64</dim>
					<dim>1</dim>
					<dim>1</dim>
				</port>
			</output>
		</layer>
		<layer id="107" name="FeatureExtractor/MobilenetV2/expanded_conv_7/expand/Conv2D" type="Convolution" version="opset1">
			<data auto_pad="same_upper" dilations="1, 1" pads_begin="0, 0" pads_end="0, 0" strides="1, 1"/>
			<input>
				<port id="0" precision="FP32">
					<dim>1</dim>
					<dim>64</dim>
					<dim>19</dim>
					<dim>19</dim>
				</port>
				<port id="1" precision="FP32">
					<dim>384</dim>
					<dim>64</dim>
					<dim>1</dim>
					<dim>1</dim>
				</port>
			</input>
			<output>
				<port id="2" precision="FP32">
					<dim>1</dim>
					<dim>384</dim>
					<dim>19</dim>
					<dim>19</dim>
				</port>
			</output>
		</layer>
		<layer id="108" name="data_add_2042720432" type="Const" version="opset1">
			<data element_type="f32" offset="395656" shape="1, 384, 1, 1" size="1536"/>
			<output>
				<port id="0" precision="FP32">
					<dim>1</dim>
					<dim>384</dim>
					<dim>1</dim>
					<dim>1</dim>
				</port>
			</output>
		</layer>
		<layer id="109" name="FeatureExtractor/MobilenetV2/expanded_conv_7/expand/BatchNorm/FusedBatchNorm/variance/Fused_Add_" type="Add" version="opset1">
			<data auto_broadcast="numpy"/>
			<input>
				<port id="0" precision="FP32">
					<dim>1</dim>
					<dim>384</dim>
					<dim>19</dim>
					<dim>19</dim>
				</port>
				<port id="1" precision="FP32">
					<dim>1</dim>
					<dim>384</dim>
					<dim>1</dim>
					<dim>1</dim>
				</port>
			</input>
			<output>
				<port id="2" names="FeatureExtractor/MobilenetV2/expanded_conv_7/expand/BatchNorm/FusedBatchNorm:0" precision="FP32">
					<dim>1</dim>
					<dim>384</dim>
					<dim>19</dim>
					<dim>19</dim>
				</port>
			</output>
		</layer>
		<layer id="110" name="FeatureExtractor/MobilenetV2/expanded_conv_7/expand/Relu6" type="Clamp" version="opset1">
			<data max="6" min="0"/>
			<input>
				<port id="0" precision="FP32">
					<dim>1</dim>
					<dim>384</dim>
					<dim>19</dim>
					<dim>19</dim>
				</port>
			</input>
			<output>
				<port id="1" names="FeatureExtractor/MobilenetV2/expanded_conv_7/expand/Relu6:0,FeatureExtractor/MobilenetV2/expanded_conv_7/expansion_output:0" precision="FP32">
					<dim>1</dim>
					<dim>384</dim>
					<dim>19</dim>
					<dim>19</dim>
				</port>
			</output>
		</layer>
		<layer id="111" name="FeatureExtractor/MobilenetV2/expanded_conv_7/depthwise/BatchNorm/FusedBatchNorm/mean/Fused_Mul__copy" type="Const" version="opset1">
			<data element_type="f32" offset="397192" shape="384, 1, 1, 3, 3" size="13824"/>
			<output>
				<port id="0" names="FeatureExtractor/MobilenetV2/expanded_conv_7/depthwise/depthwise_weights/read:0" precision="FP32">
					<dim>384</dim>
					<dim>1</dim>
					<dim>1</dim>
					<dim>3</dim>
					<dim>3</dim>
				</port>
			</output>
		</layer>
		<layer id="112" name="FeatureExtractor/MobilenetV2/expanded_conv_7/depthwise/depthwise" type="GroupConvolution" version="opset1">
			<data auto_pad="same_upper" dilations="1, 1" pads_begin="1, 1" pads_end="1, 1" strides="1, 1"/>
			<input>
				<port id="0" precision="FP32">
					<dim>1</dim>
					<dim>384</dim>
					<dim>19</dim>
					<dim>19</dim>
				</port>
				<port id="1" precision="FP32">
					<dim>384</dim>
					<dim>1</dim>
					<dim>1</dim>
					<dim>3</dim>
					<dim>3</dim>
				</port>
			</input>
			<output>
				<port id="2" precision="FP32">
					<dim>1</dim>
					<dim>384</dim>
					<dim>19</dim>
					<dim>19</dim>
				</port>
			</output>
		</layer>
		<layer id="113" name="data_add_2043520440" type="Const" version="opset1">
			<data element_type="f32" offset="411016" shape="1, 384, 1, 1" size="1536"/>
			<output>
				<port id="0" precision="FP32">
					<dim>1</dim>
					<dim>384</dim>
					<dim>1</dim>
					<dim>1</dim>
				</port>
			</output>
		</layer>
		<layer id="114" name="FeatureExtractor/MobilenetV2/expanded_conv_7/depthwise/BatchNorm/FusedBatchNorm/variance/Fused_Add_" type="Add" version="opset1">
			<data auto_broadcast="numpy"/>
			<input>
				<port id="0" precision="FP32">
					<dim>1</dim>
					<dim>384</dim>
					<dim>19</dim>
					<dim>19</dim>
				</port>
				<port id="1" precision="FP32">
					<dim>1</dim>
					<dim>384</dim>
					<dim>1</dim>
					<dim>1</dim>
				</port>
			</input>
			<output>
				<port id="2" names="FeatureExtractor/MobilenetV2/expanded_conv_7/depthwise/BatchNorm/FusedBatchNorm:0" precision="FP32">
					<dim>1</dim>
					<dim>384</dim>
					<dim>19</dim>
					<dim>19</dim>
				</port>
			</output>
		</layer>
		<layer id="115" name="FeatureExtractor/MobilenetV2/expanded_conv_7/depthwise/Relu6" type="Clamp" version="opset1">
			<data max="6" min="0"/>
			<input>
				<port id="0" precision="FP32">
					<dim>1</dim>
					<dim>384</dim>
					<dim>19</dim>
					<dim>19</dim>
				</port>
			</input>
			<output>
				<port id="1" names="FeatureExtractor/MobilenetV2/expanded_conv_7/depthwise/Relu6:0,FeatureExtractor/MobilenetV2/expanded_conv_7/depthwise_output:0" precision="FP32">
					<dim>1</dim>
					<dim>384</dim>
					<dim>19</dim>
					<dim>19</dim>
				</port>
			</output>
		</layer>
		<layer id="116" name="FeatureExtractor/MobilenetV2/expanded_conv_7/project/BatchNorm/FusedBatchNorm/mean/Fused_Mul__copy" type="Const" version="opset1">
			<data element_type="f32" offset="412552" shape="64, 384, 1, 1" size="98304"/>
			<output>
				<port id="0" names="FeatureExtractor/MobilenetV2/expanded_conv_7/project/weights/read:0" precision="FP32">
					<dim>64</dim>
					<dim>384</dim>
					<dim>1</dim>
					<dim>1</dim>
				</port>
			</output>
		</layer>
		<layer id="117" name="FeatureExtractor/MobilenetV2/expanded_conv_7/project/Conv2D" type="Convolution" version="opset1">
			<data auto_pad="same_upper" dilations="1, 1" pads_begin="0, 0" pads_end="0, 0" strides="1, 1"/>
			<input>
				<port id="0" precision="FP32">
					<dim>1</dim>
					<dim>384</dim>
					<dim>19</dim>
					<dim>19</dim>
				</port>
				<port id="1" precision="FP32">
					<dim>64</dim>
					<dim>384</dim>
					<dim>1</dim>
					<dim>1</dim>
				</port>
			</input>
			<output>
				<port id="2" precision="FP32">
					<dim>1</dim>
					<dim>64</dim>
					<dim>19</dim>
					<dim>19</dim>
				</port>
			</output>
		</layer>
		<layer id="118" name="data_add_2044320448" type="Const" version="opset1">
			<data element_type="f32" offset="510856" shape="1, 64, 1, 1" size="256"/>
			<output>
				<port id="0" precision="FP32">
					<dim>1</dim>
					<dim>64</dim>
					<dim>1</dim>
					<dim>1</dim>
				</port>
			</output>
		</layer>
		<layer id="119" name="FeatureExtractor/MobilenetV2/expanded_conv_7/project/BatchNorm/FusedBatchNorm/variance/Fused_Add_" type="Add" version="opset1">
			<data auto_broadcast="numpy"/>
			<input>
				<port id="0" precision="FP32">
					<dim>1</dim>
					<dim>64</dim>
					<dim>19</dim>
					<dim>19</dim>
				</port>
				<port id="1" precision="FP32">
					<dim>1</dim>
					<dim>64</dim>
					<dim>1</dim>
					<dim>1</dim>
				</port>
			</input>
			<output>
				<port id="2" names="FeatureExtractor/MobilenetV2/expanded_conv_7/project/BatchNorm/FusedBatchNorm:0,FeatureExtractor/MobilenetV2/expanded_conv_7/project/Identity:0" precision="FP32">
					<dim>1</dim>
					<dim>64</dim>
					<dim>19</dim>
					<dim>19</dim>
				</port>
			</output>
		</layer>
		<layer id="120" name="FeatureExtractor/MobilenetV2/expanded_conv_7/add" type="Add" version="opset1">
			<data auto_broadcast="numpy"/>
			<input>
				<port id="0" precision="FP32">
					<dim>1</dim>
					<dim>64</dim>
					<dim>19</dim>
					<dim>19</dim>
				</port>
				<port id="1" precision="FP32">
					<dim>1</dim>
					<dim>64</dim>
					<dim>19</dim>
					<dim>19</dim>
				</port>
			</input>
			<output>
				<port id="2" names="FeatureExtractor/MobilenetV2/expanded_conv_7/add:0,FeatureExtractor/MobilenetV2/expanded_conv_7/output:0,FeatureExtractor/MobilenetV2/expanded_conv_8/input:0" precision="FP32">
					<dim>1</dim>
					<dim>64</dim>
					<dim>19</dim>
					<dim>19</dim>
				</port>
			</output>
		</layer>
		<layer id="121" name="FeatureExtractor/MobilenetV2/expanded_conv_8/expand/BatchNorm/FusedBatchNorm/mean/Fused_Mul__copy" type="Const" version="opset1">
			<data element_type="f32" offset="511112" shape="384, 64, 1, 1" size="98304"/>
			<output>
				<port id="0" names="FeatureExtractor/MobilenetV2/expanded_conv_8/expand/weights/read:0" precision="FP32">
					<dim>384</dim>
					<dim>64</dim>
					<dim>1</dim>
					<dim>1</dim>
				</port>
			</output>
		</layer>
		<layer id="122" name="FeatureExtractor/MobilenetV2/expanded_conv_8/expand/Conv2D" type="Convolution" version="opset1">
			<data auto_pad="same_upper" dilations="1, 1" pads_begin="0, 0" pads_end="0, 0" strides="1, 1"/>
			<input>
				<port id="0" precision="FP32">
					<dim>1</dim>
					<dim>64</dim>
					<dim>19</dim>
					<dim>19</dim>
				</port>
				<port id="1" precision="FP32">
					<dim>384</dim>
					<dim>64</dim>
					<dim>1</dim>
					<dim>1</dim>
				</port>
			</input>
			<output>
				<port id="2" precision="FP32">
					<dim>1</dim>
					<dim>384</dim>
					<dim>19</dim>
					<dim>19</dim>
				</port>
			</output>
		</layer>
		<layer id="123" name="data_add_2045120456" type="Const" version="opset1">
			<data element_type="f32" offset="609416" shape="1, 384, 1, 1" size="1536"/>
			<output>
				<port id="0" precision="FP32">
					<dim>1</dim>
					<dim>384</dim>
					<dim>1</dim>
					<dim>1</dim>
				</port>
			</output>
		</layer>
		<layer id="124" name="FeatureExtractor/MobilenetV2/expanded_conv_8/expand/BatchNorm/FusedBatchNorm/variance/Fused_Add_" type="Add" version="opset1">
			<data auto_broadcast="numpy"/>
			<input>
				<port id="0" precision="FP32">
					<dim>1</dim>
					<dim>384</dim>
					<dim>19</dim>
					<dim>19</dim>
				</port>
				<port id="1" precision="FP32">
					<dim>1</dim>
					<dim>384</dim>
					<dim>1</dim>
					<dim>1</dim>
				</port>
			</input>
			<output>
				<port id="2" names="FeatureExtractor/MobilenetV2/expanded_conv_8/expand/BatchNorm/FusedBatchNorm:0" precision="FP32">
					<dim>1</dim>
					<dim>384</dim>
					<dim>19</dim>
					<dim>19</dim>
				</port>
			</output>
		</layer>
		<layer id="125" name="FeatureExtractor/MobilenetV2/expanded_conv_8/expand/Relu6" type="Clamp" version="opset1">
			<data max="6" min="0"/>
			<input>
				<port id="0" precision="FP32">
					<dim>1</dim>
					<dim>384</dim>
					<dim>19</dim>
					<dim>19</dim>
				</port>
			</input>
			<output>
				<port id="1" names="FeatureExtractor/MobilenetV2/expanded_conv_8/expand/Relu6:0,FeatureExtractor/MobilenetV2/expanded_conv_8/expansion_output:0" precision="FP32">
					<dim>1</dim>
					<dim>384</dim>
					<dim>19</dim>
					<dim>19</dim>
				</port>
			</output>
		</layer>
		<layer id="126" name="FeatureExtractor/MobilenetV2/expanded_conv_8/depthwise/BatchNorm/FusedBatchNorm/mean/Fused_Mul__copy" type="Const" version="opset1">
			<data element_type="f32" offset="610952" shape="384, 1, 1, 3, 3" size="13824"/>
			<output>
				<port id="0" names="FeatureExtractor/MobilenetV2/expanded_conv_8/depthwise/depthwise_weights/read:0" precision="FP32">
					<dim>384</dim>
					<dim>1</dim>
					<dim>1</dim>
					<dim>3</dim>
					<dim>3</dim>
				</port>
			</output>
		</layer>
		<layer id="127" name="FeatureExtractor/MobilenetV2/expanded_conv_8/depthwise/depthwise" type="GroupConvolution" version="opset1">
			<data auto_pad="same_upper" dilations="1, 1" pads_begin="1, 1" pads_end="1, 1" strides="1, 1"/>
			<input>
				<port id="0" precision="FP32">
					<dim>1</dim>
					<dim>384</dim>
					<dim>19</dim>
					<dim>19</dim>
				</port>
				<port id="1" precision="FP32">
					<dim>384</dim>
					<dim>1</dim>
					<dim>1</dim>
					<dim>3</dim>
					<dim>3</dim>
				</port>
			</input>
			<output>
				<port id="2" precision="FP32">
					<dim>1</dim>
					<dim>384</dim>
					<dim>19</dim>
					<dim>19</dim>
				</port>
			</output>
		</layer>
		<layer id="128" name="data_add_2045920464" type="Const" version="opset1">
			<data element_type="f32" offset="624776" shape="1, 384, 1, 1" size="1536"/>
			<output>
				<port id="0" precision="FP32">
					<dim>1</dim>
					<dim>384</dim>
					<dim>1</dim>
					<dim>1</dim>
				</port>
			</output>
		</layer>
		<layer id="129" name="FeatureExtractor/MobilenetV2/expanded_conv_8/depthwise/BatchNorm/FusedBatchNorm/variance/Fused_Add_" type="Add" version="opset1">
			<data auto_broadcast="numpy"/>
			<input>
				<port id="0" precision="FP32">
					<dim>1</dim>
					<dim>384</dim>
					<dim>19</dim>
					<dim>19</dim>
				</port>
				<port id="1" precision="FP32">
					<dim>1</dim>
					<dim>384</dim>
					<dim>1</dim>
					<dim>1</dim>
				</port>
			</input>
			<output>
				<port id="2" names="FeatureExtractor/MobilenetV2/expanded_conv_8/depthwise/BatchNorm/FusedBatchNorm:0" precision="FP32">
					<dim>1</dim>
					<dim>384</dim>
					<dim>19</dim>
					<dim>19</dim>
				</port>
			</output>
		</layer>
		<layer id="130" name="FeatureExtractor/MobilenetV2/expanded_conv_8/depthwise/Relu6" type="Clamp" version="opset1">
			<data max="6" min="0"/>
			<input>
				<port id="0" precision="FP32">
					<dim>1</dim>
					<dim>384</dim>
					<dim>19</dim>
					<dim>19</dim>
				</port>
			</input>
			<output>
				<port id="1" names="FeatureExtractor/MobilenetV2/expanded_conv_8/depthwise/Relu6:0,FeatureExtractor/MobilenetV2/expanded_conv_8/depthwise_output:0" precision="FP32">
					<dim>1</dim>
					<dim>384</dim>
					<dim>19</dim>
					<dim>19</dim>
				</port>
			</output>
		</layer>
		<layer id="131" name="FeatureExtractor/MobilenetV2/expanded_conv_8/project/BatchNorm/FusedBatchNorm/mean/Fused_Mul__copy" type="Const" version="opset1">
			<data element_type="f32" offset="626312" shape="64, 384, 1, 1" size="98304"/>
			<output>
				<port id="0" names="FeatureExtractor/MobilenetV2/expanded_conv_8/project/weights/read:0" precision="FP32">
					<dim>64</dim>
					<dim>384</dim>
					<dim>1</dim>
					<dim>1</dim>
				</port>
			</output>
		</layer>
		<layer id="132" name="FeatureExtractor/MobilenetV2/expanded_conv_8/project/Conv2D" type="Convolution" version="opset1">
			<data auto_pad="same_upper" dilations="1, 1" pads_begin="0, 0" pads_end="0, 0" strides="1, 1"/>
			<input>
				<port id="0" precision="FP32">
					<dim>1</dim>
					<dim>384</dim>
					<dim>19</dim>
					<dim>19</dim>
				</port>
				<port id="1" precision="FP32">
					<dim>64</dim>
					<dim>384</dim>
					<dim>1</dim>
					<dim>1</dim>
				</port>
			</input>
			<output>
				<port id="2" precision="FP32">
					<dim>1</dim>
					<dim>64</dim>
					<dim>19</dim>
					<dim>19</dim>
				</port>
			</output>
		</layer>
		<layer id="133" name="data_add_2046720472" type="Const" version="opset1">
			<data element_type="f32" offset="724616" shape="1, 64, 1, 1" size="256"/>
			<output>
				<port id="0" precision="FP32">
					<dim>1</dim>
					<dim>64</dim>
					<dim>1</dim>
					<dim>1</dim>
				</port>
			</output>
		</layer>
		<layer id="134" name="FeatureExtractor/MobilenetV2/expanded_conv_8/project/BatchNorm/FusedBatchNorm/variance/Fused_Add_" type="Add" version="opset1">
			<data auto_broadcast="numpy"/>
			<input>
				<port id="0" precision="FP32">
					<dim>1</dim>
					<dim>64</dim>
					<dim>19</dim>
					<dim>19</dim>
				</port>
				<port id="1" precision="FP32">
					<dim>1</dim>
					<dim>64</dim>
					<dim>1</dim>
					<dim>1</dim>
				</port>
			</input>
			<output>
				<port id="2" names="FeatureExtractor/MobilenetV2/expanded_conv_8/project/BatchNorm/FusedBatchNorm:0,FeatureExtractor/MobilenetV2/expanded_conv_8/project/Identity:0" precision="FP32">
					<dim>1</dim>
					<dim>64</dim>
					<dim>19</dim>
					<dim>19</dim>
				</port>
			</output>
		</layer>
		<layer id="135" name="FeatureExtractor/MobilenetV2/expanded_conv_8/add" type="Add" version="opset1">
			<data auto_broadcast="numpy"/>
			<input>
				<port id="0" precision="FP32">
					<dim>1</dim>
					<dim>64</dim>
					<dim>19</dim>
					<dim>19</dim>
				</port>
				<port id="1" precision="FP32">
					<dim>1</dim>
					<dim>64</dim>
					<dim>19</dim>
					<dim>19</dim>
				</port>
			</input>
			<output>
				<port id="2" names="FeatureExtractor/MobilenetV2/expanded_conv_8/add:0,FeatureExtractor/MobilenetV2/expanded_conv_8/output:0,FeatureExtractor/MobilenetV2/expanded_conv_9/input:0" precision="FP32">
					<dim>1</dim>
					<dim>64</dim>
					<dim>19</dim>
					<dim>19</dim>
				</port>
			</output>
		</layer>
		<layer id="136" name="FeatureExtractor/MobilenetV2/expanded_conv_9/expand/BatchNorm/FusedBatchNorm/mean/Fused_Mul__copy" type="Const" version="opset1">
			<data element_type="f32" offset="724872" shape="384, 64, 1, 1" size="98304"/>
			<output>
				<port id="0" names="FeatureExtractor/MobilenetV2/expanded_conv_9/expand/weights/read:0" precision="FP32">
					<dim>384</dim>
					<dim>64</dim>
					<dim>1</dim>
					<dim>1</dim>
				</port>
			</output>
		</layer>
		<layer id="137" name="FeatureExtractor/MobilenetV2/expanded_conv_9/expand/Conv2D" type="Convolution" version="opset1">
			<data auto_pad="same_upper" dilations="1, 1" pads_begin="0, 0" pads_end="0, 0" strides="1, 1"/>
			<input>
				<port id="0" precision="FP32">
					<dim>1</dim>
					<dim>64</dim>
					<dim>19</dim>
					<dim>19</dim>
				</port>
				<port id="1" precision="FP32">
					<dim>384</dim>
					<dim>64</dim>
					<dim>1</dim>
					<dim>1</dim>
				</port>
			</input>
			<output>
				<port id="2" precision="FP32">
					<dim>1</dim>
					<dim>384</dim>
					<dim>19</dim>
					<dim>19</dim>
				</port>
			</output>
		</layer>
		<layer id="138" name="data_add_2047520480" type="Const" version="opset1">
			<data element_type="f32" offset="823176" shape="1, 384, 1, 1" size="1536"/>
			<output>
				<port id="0" precision="FP32">
					<dim>1</dim>
					<dim>384</dim>
					<dim>1</dim>
					<dim>1</dim>
				</port>
			</output>
		</layer>
		<layer id="139" name="FeatureExtractor/MobilenetV2/expanded_conv_9/expand/BatchNorm/FusedBatchNorm/variance/Fused_Add_" type="Add" version="opset1">
			<data auto_broadcast="numpy"/>
			<input>
				<port id="0" precision="FP32">
					<dim>1</dim>
					<dim>384</dim>
					<dim>19</dim>
					<dim>19</dim>
				</port>
				<port id="1" precision="FP32">
					<dim>1</dim>
					<dim>384</dim>
					<dim>1</dim>
					<dim>1</dim>
				</port>
			</input>
			<output>
				<port id="2" names="FeatureExtractor/MobilenetV2/expanded_conv_9/expand/BatchNorm/FusedBatchNorm:0" precision="FP32">
					<dim>1</dim>
					<dim>384</dim>
					<dim>19</dim>
					<dim>19</dim>
				</port>
			</output>
		</layer>
		<layer id="140" name="FeatureExtractor/MobilenetV2/expanded_conv_9/expand/Relu6" type="Clamp" version="opset1">
			<data max="6" min="0"/>
			<input>
				<port id="0" precision="FP32">
					<dim>1</dim>
					<dim>384</dim>
					<dim>19</dim>
					<dim>19</dim>
				</port>
			</input>
			<output>
				<port id="1" names="FeatureExtractor/MobilenetV2/expanded_conv_9/expand/Relu6:0,FeatureExtractor/MobilenetV2/expanded_conv_9/expansion_output:0" precision="FP32">
					<dim>1</dim>
					<dim>384</dim>
					<dim>19</dim>
					<dim>19</dim>
				</port>
			</output>
		</layer>
		<layer id="141" name="FeatureExtractor/MobilenetV2/expanded_conv_9/depthwise/BatchNorm/FusedBatchNorm/mean/Fused_Mul__copy" type="Const" version="opset1">
			<data element_type="f32" offset="824712" shape="384, 1, 1, 3, 3" size="13824"/>
			<output>
				<port id="0" names="FeatureExtractor/MobilenetV2/expanded_conv_9/depthwise/depthwise_weights/read:0" precision="FP32">
					<dim>384</dim>
					<dim>1</dim>
					<dim>1</dim>
					<dim>3</dim>
					<dim>3</dim>
				</port>
			</output>
		</layer>
		<layer id="142" name="FeatureExtractor/MobilenetV2/expanded_conv_9/depthwise/depthwise" type="GroupConvolution" version="opset1">
			<data auto_pad="same_upper" dilations="1, 1" pads_begin="1, 1" pads_end="1, 1" strides="1, 1"/>
			<input>
				<port id="0" precision="FP32">
					<dim>1</dim>
					<dim>384</dim>
					<dim>19</dim>
					<dim>19</dim>
				</port>
				<port id="1" precision="FP32">
					<dim>384</dim>
					<dim>1</dim>
					<dim>1</dim>
					<dim>3</dim>
					<dim>3</dim>
				</port>
			</input>
			<output>
				<port id="2" precision="FP32">
					<dim>1</dim>
					<dim>384</dim>
					<dim>19</dim>
					<dim>19</dim>
				</port>
			</output>
		</layer>
		<layer id="143" name="data_add_2048320488" type="Const" version="opset1">
			<data element_type="f32" offset="838536" shape="1, 384, 1, 1" size="1536"/>
			<output>
				<port id="0" precision="FP32">
					<dim>1</dim>
					<dim>384</dim>
					<dim>1</dim>
					<dim>1</dim>
				</port>
			</output>
		</layer>
		<layer id="144" name="FeatureExtractor/MobilenetV2/expanded_conv_9/depthwise/BatchNorm/FusedBatchNorm/variance/Fused_Add_" type="Add" version="opset1">
			<data auto_broadcast="numpy"/>
			<input>
				<port id="0" precision="FP32">
					<dim>1</dim>
					<dim>384</dim>
					<dim>19</dim>
					<dim>19</dim>
				</port>
				<port id="1" precision="FP32">
					<dim>1</dim>
					<dim>384</dim>
					<dim>1</dim>
					<dim>1</dim>
				</port>
			</input>
			<output>
				<port id="2" names="FeatureExtractor/MobilenetV2/expanded_conv_9/depthwise/BatchNorm/FusedBatchNorm:0" precision="FP32">
					<dim>1</dim>
					<dim>384</dim>
					<dim>19</dim>
					<dim>19</dim>
				</port>
			</output>
		</layer>
		<layer id="145" name="FeatureExtractor/MobilenetV2/expanded_conv_9/depthwise/Relu6" type="Clamp" version="opset1">
			<data max="6" min="0"/>
			<input>
				<port id="0" precision="FP32">
					<dim>1</dim>
					<dim>384</dim>
					<dim>19</dim>
					<dim>19</dim>
				</port>
			</input>
			<output>
				<port id="1" names="FeatureExtractor/MobilenetV2/expanded_conv_9/depthwise/Relu6:0,FeatureExtractor/MobilenetV2/expanded_conv_9/depthwise_output:0" precision="FP32">
					<dim>1</dim>
					<dim>384</dim>
					<dim>19</dim>
					<dim>19</dim>
				</port>
			</output>
		</layer>
		<layer id="146" name="FeatureExtractor/MobilenetV2/expanded_conv_9/project/BatchNorm/FusedBatchNorm/mean/Fused_Mul__copy" type="Const" version="opset1">
			<data element_type="f32" offset="840072" shape="64, 384, 1, 1" size="98304"/>
			<output>
				<port id="0" names="FeatureExtractor/MobilenetV2/expanded_conv_9/project/weights/read:0" precision="FP32">
					<dim>64</dim>
					<dim>384</dim>
					<dim>1</dim>
					<dim>1</dim>
				</port>
			</output>
		</layer>
		<layer id="147" name="FeatureExtractor/MobilenetV2/expanded_conv_9/project/Conv2D" type="Convolution" version="opset1">
			<data auto_pad="same_upper" dilations="1, 1" pads_begin="0, 0" pads_end="0, 0" strides="1, 1"/>
			<input>
				<port id="0" precision="FP32">
					<dim>1</dim>
					<dim>384</dim>
					<dim>19</dim>
					<dim>19</dim>
				</port>
				<port id="1" precision="FP32">
					<dim>64</dim>
					<dim>384</dim>
					<dim>1</dim>
					<dim>1</dim>
				</port>
			</input>
			<output>
				<port id="2" precision="FP32">
					<dim>1</dim>
					<dim>64</dim>
					<dim>19</dim>
					<dim>19</dim>
				</port>
			</output>
		</layer>
		<layer id="148" name="data_add_2049120496" type="Const" version="opset1">
			<data element_type="f32" offset="938376" shape="1, 64, 1, 1" size="256"/>
			<output>
				<port id="0" precision="FP32">
					<dim>1</dim>
					<dim>64</dim>
					<dim>1</dim>
					<dim>1</dim>
				</port>
			</output>
		</layer>
		<layer id="149" name="FeatureExtractor/MobilenetV2/expanded_conv_9/project/BatchNorm/FusedBatchNorm/variance/Fused_Add_" type="Add" version="opset1">
			<data auto_broadcast="numpy"/>
			<input>
				<port id="0" precision="FP32">
					<dim>1</dim>
					<dim>64</dim>
					<dim>19</dim>
					<dim>19</dim>
				</port>
				<port id="1" precision="FP32">
					<dim>1</dim>
					<dim>64</dim>
					<dim>1</dim>
					<dim>1</dim>
				</port>
			</input>
			<output>
				<port id="2" names="FeatureExtractor/MobilenetV2/expanded_conv_9/project/BatchNorm/FusedBatchNorm:0,FeatureExtractor/MobilenetV2/expanded_conv_9/project/Identity:0" precision="FP32">
					<dim>1</dim>
					<dim>64</dim>
					<dim>19</dim>
					<dim>19</dim>
				</port>
			</output>
		</layer>
		<layer id="150" name="FeatureExtractor/MobilenetV2/expanded_conv_9/add" type="Add" version="opset1">
			<data auto_broadcast="numpy"/>
			<input>
				<port id="0" precision="FP32">
					<dim>1</dim>
					<dim>64</dim>
					<dim>19</dim>
					<dim>19</dim>
				</port>
				<port id="1" precision="FP32">
					<dim>1</dim>
					<dim>64</dim>
					<dim>19</dim>
					<dim>19</dim>
				</port>
			</input>
			<output>
				<port id="2" names="FeatureExtractor/MobilenetV2/expanded_conv_10/input:0,FeatureExtractor/MobilenetV2/expanded_conv_9/add:0,FeatureExtractor/MobilenetV2/expanded_conv_9/output:0" precision="FP32">
					<dim>1</dim>
					<dim>64</dim>
					<dim>19</dim>
					<dim>19</dim>
				</port>
			</output>
		</layer>
		<layer id="151" name="FeatureExtractor/MobilenetV2/expanded_conv_10/expand/BatchNorm/FusedBatchNorm/mean/Fused_Mul__copy" type="Const" version="opset1">
			<data element_type="f32" offset="938632" shape="384, 64, 1, 1" size="98304"/>
			<output>
				<port id="0" names="FeatureExtractor/MobilenetV2/expanded_conv_10/expand/weights/read:0" precision="FP32">
					<dim>384</dim>
					<dim>64</dim>
					<dim>1</dim>
					<dim>1</dim>
				</port>
			</output>
		</layer>
		<layer id="152" name="FeatureExtractor/MobilenetV2/expanded_conv_10/expand/Conv2D" type="Convolution" version="opset1">
			<data auto_pad="same_upper" dilations="1, 1" pads_begin="0, 0" pads_end="0, 0" strides="1, 1"/>
			<input>
				<port id="0" precision="FP32">
					<dim>1</dim>
					<dim>64</dim>
					<dim>19</dim>
					<dim>19</dim>
				</port>
				<port id="1" precision="FP32">
					<dim>384</dim>
					<dim>64</dim>
					<dim>1</dim>
					<dim>1</dim>
				</port>
			</input>
			<output>
				<port id="2" precision="FP32">
					<dim>1</dim>
					<dim>384</dim>
					<dim>19</dim>
					<dim>19</dim>
				</port>
			</output>
		</layer>
		<layer id="153" name="data_add_2049920504" type="Const" version="opset1">
			<data element_type="f32" offset="1036936" shape="1, 384, 1, 1" size="1536"/>
			<output>
				<port id="0" precision="FP32">
					<dim>1</dim>
					<dim>384</dim>
					<dim>1</dim>
					<dim>1</dim>
				</port>
			</output>
		</layer>
		<layer id="154" name="FeatureExtractor/MobilenetV2/expanded_conv_10/expand/BatchNorm/FusedBatchNorm/variance/Fused_Add_" type="Add" version="opset1">
			<data auto_broadcast="numpy"/>
			<input>
				<port id="0" precision="FP32">
					<dim>1</dim>
					<dim>384</dim>
					<dim>19</dim>
					<dim>19</dim>
				</port>
				<port id="1" precision="FP32">
					<dim>1</dim>
					<dim>384</dim>
					<dim>1</dim>
					<dim>1</dim>
				</port>
			</input>
			<output>
				<port id="2" names="FeatureExtractor/MobilenetV2/expanded_conv_10/expand/BatchNorm/FusedBatchNorm:0" precision="FP32">
					<dim>1</dim>
					<dim>384</dim>
					<dim>19</dim>
					<dim>19</dim>
				</port>
			</output>
		</layer>
		<layer id="155" name="FeatureExtractor/MobilenetV2/expanded_conv_10/expand/Relu6" type="Clamp" version="opset1">
			<data max="6" min="0"/>
			<input>
				<port id="0" precision="FP32">
					<dim>1</dim>
					<dim>384</dim>
					<dim>19</dim>
					<dim>19</dim>
				</port>
			</input>
			<output>
				<port id="1" names="FeatureExtractor/MobilenetV2/expanded_conv_10/expand/Relu6:0,FeatureExtractor/MobilenetV2/expanded_conv_10/expansion_output:0" precision="FP32">
					<dim>1</dim>
					<dim>384</dim>
					<dim>19</dim>
					<dim>19</dim>
				</port>
			</output>
		</layer>
		<layer id="156" name="FeatureExtractor/MobilenetV2/expanded_conv_10/depthwise/BatchNorm/FusedBatchNorm/mean/Fused_Mul__copy" type="Const" version="opset1">
			<data element_type="f32" offset="1038472" shape="384, 1, 1, 3, 3" size="13824"/>
			<output>
				<port id="0" names="FeatureExtractor/MobilenetV2/expanded_conv_10/depthwise/depthwise_weights/read:0" precision="FP32">
					<dim>384</dim>
					<dim>1</dim>
					<dim>1</dim>
					<dim>3</dim>
					<dim>3</dim>
				</port>
			</output>
		</layer>
		<layer id="157" name="FeatureExtractor/MobilenetV2/expanded_conv_10/depthwise/depthwise" type="GroupConvolution" version="opset1">
			<data auto_pad="same_upper" dilations="1, 1" pads_begin="1, 1" pads_end="1, 1" strides="1, 1"/>
			<input>
				<port id="0" precision="FP32">
					<dim>1</dim>
					<dim>384</dim>
					<dim>19</dim>
					<dim>19</dim>
				</port>
				<port id="1" precision="FP32">
					<dim>384</dim>
					<dim>1</dim>
					<dim>1</dim>
					<dim>3</dim>
					<dim>3</dim>
				</port>
			</input>
			<output>
				<port id="2" precision="FP32">
					<dim>1</dim>
					<dim>384</dim>
					<dim>19</dim>
					<dim>19</dim>
				</port>
			</output>
		</layer>
		<layer id="158" name="data_add_2050720512" type="Const" version="opset1">
			<data element_type="f32" offset="1052296" shape="1, 384, 1, 1" size="1536"/>
			<output>
				<port id="0" precision="FP32">
					<dim>1</dim>
					<dim>384</dim>
					<dim>1</dim>
					<dim>1</dim>
				</port>
			</output>
		</layer>
		<layer id="159" name="FeatureExtractor/MobilenetV2/expanded_conv_10/depthwise/BatchNorm/FusedBatchNorm/variance/Fused_Add_" type="Add" version="opset1">
			<data auto_broadcast="numpy"/>
			<input>
				<port id="0" precision="FP32">
					<dim>1</dim>
					<dim>384</dim>
					<dim>19</dim>
					<dim>19</dim>
				</port>
				<port id="1" precision="FP32">
					<dim>1</dim>
					<dim>384</dim>
					<dim>1</dim>
					<dim>1</dim>
				</port>
			</input>
			<output>
				<port id="2" names="FeatureExtractor/MobilenetV2/expanded_conv_10/depthwise/BatchNorm/FusedBatchNorm:0" precision="FP32">
					<dim>1</dim>
					<dim>384</dim>
					<dim>19</dim>
					<dim>19</dim>
				</port>
			</output>
		</layer>
		<layer id="160" name="FeatureExtractor/MobilenetV2/expanded_conv_10/depthwise/Relu6" type="Clamp" version="opset1">
			<data max="6" min="0"/>
			<input>
				<port id="0" precision="FP32">
					<dim>1</dim>
					<dim>384</dim>
					<dim>19</dim>
					<dim>19</dim>
				</port>
			</input>
			<output>
				<port id="1" names="FeatureExtractor/MobilenetV2/expanded_conv_10/depthwise/Relu6:0,FeatureExtractor/MobilenetV2/expanded_conv_10/depthwise_output:0" precision="FP32">
					<dim>1</dim>
					<dim>384</dim>
					<dim>19</dim>
					<dim>19</dim>
				</port>
			</output>
		</layer>
		<layer id="161" name="FeatureExtractor/MobilenetV2/expanded_conv_10/project/BatchNorm/FusedBatchNorm/mean/Fused_Mul__copy" type="Const" version="opset1">
			<data element_type="f32" offset="1053832" shape="96, 384, 1, 1" size="147456"/>
			<output>
				<port id="0" names="FeatureExtractor/MobilenetV2/expanded_conv_10/project/weights/read:0" precision="FP32">
					<dim>96</dim>
					<dim>384</dim>
					<dim>1</dim>
					<dim>1</dim>
				</port>
			</output>
		</layer>
		<layer id="162" name="FeatureExtractor/MobilenetV2/expanded_conv_10/project/Conv2D" type="Convolution" version="opset1">
			<data auto_pad="same_upper" dilations="1, 1" pads_begin="0, 0" pads_end="0, 0" strides="1, 1"/>
			<input>
				<port id="0" precision="FP32">
					<dim>1</dim>
					<dim>384</dim>
					<dim>19</dim>
					<dim>19</dim>
				</port>
				<port id="1" precision="FP32">
					<dim>96</dim>
					<dim>384</dim>
					<dim>1</dim>
					<dim>1</dim>
				</port>
			</input>
			<output>
				<port id="2" precision="FP32">
					<dim>1</dim>
					<dim>96</dim>
					<dim>19</dim>
					<dim>19</dim>
				</port>
			</output>
		</layer>
		<layer id="163" name="data_add_2051520520" type="Const" version="opset1">
			<data element_type="f32" offset="1201288" shape="1, 96, 1, 1" size="384"/>
			<output>
				<port id="0" precision="FP32">
					<dim>1</dim>
					<dim>96</dim>
					<dim>1</dim>
					<dim>1</dim>
				</port>
			</output>
		</layer>
		<layer id="164" name="FeatureExtractor/MobilenetV2/expanded_conv_10/project/BatchNorm/FusedBatchNorm/variance/Fused_Add_" type="Add" version="opset1">
			<data auto_broadcast="numpy"/>
			<input>
				<port id="0" precision="FP32">
					<dim>1</dim>
					<dim>96</dim>
					<dim>19</dim>
					<dim>19</dim>
				</port>
				<port id="1" precision="FP32">
					<dim>1</dim>
					<dim>96</dim>
					<dim>1</dim>
					<dim>1</dim>
				</port>
			</input>
			<output>
				<port id="2" names="FeatureExtractor/MobilenetV2/expanded_conv_10/output:0,FeatureExtractor/MobilenetV2/expanded_conv_10/project/BatchNorm/FusedBatchNorm:0,FeatureExtractor/MobilenetV2/expanded_conv_10/project/Identity:0,FeatureExtractor/MobilenetV2/expanded_conv_11/input:0" precision="FP32">
					<dim>1</dim>
					<dim>96</dim>
					<dim>19</dim>
					<dim>19</dim>
				</port>
			</output>
		</layer>
		<layer id="165" name="FeatureExtractor/MobilenetV2/expanded_conv_11/expand/BatchNorm/FusedBatchNorm/mean/Fused_Mul__copy" type="Const" version="opset1">
			<data element_type="f32" offset="1201672" shape="576, 96, 1, 1" size="221184"/>
			<output>
				<port id="0" names="FeatureExtractor/MobilenetV2/expanded_conv_11/expand/weights/read:0" precision="FP32">
					<dim>576</dim>
					<dim>96</dim>
					<dim>1</dim>
					<dim>1</dim>
				</port>
			</output>
		</layer>
		<layer id="166" name="FeatureExtractor/MobilenetV2/expanded_conv_11/expand/Conv2D" type="Convolution" version="opset1">
			<data auto_pad="same_upper" dilations="1, 1" pads_begin="0, 0" pads_end="0, 0" strides="1, 1"/>
			<input>
				<port id="0" precision="FP32">
					<dim>1</dim>
					<dim>96</dim>
					<dim>19</dim>
					<dim>19</dim>
				</port>
				<port id="1" precision="FP32">
					<dim>576</dim>
					<dim>96</dim>
					<dim>1</dim>
					<dim>1</dim>
				</port>
			</input>
			<output>
				<port id="2" precision="FP32">
					<dim>1</dim>
					<dim>576</dim>
					<dim>19</dim>
					<dim>19</dim>
				</port>
			</output>
		</layer>
		<layer id="167" name="data_add_2052320528" type="Const" version="opset1">
			<data element_type="f32" offset="1422856" shape="1, 576, 1, 1" size="2304"/>
			<output>
				<port id="0" precision="FP32">
					<dim>1</dim>
					<dim>576</dim>
					<dim>1</dim>
					<dim>1</dim>
				</port>
			</output>
		</layer>
		<layer id="168" name="FeatureExtractor/MobilenetV2/expanded_conv_11/expand/BatchNorm/FusedBatchNorm/variance/Fused_Add_" type="Add" version="opset1">
			<data auto_broadcast="numpy"/>
			<input>
				<port id="0" precision="FP32">
					<dim>1</dim>
					<dim>576</dim>
					<dim>19</dim>
					<dim>19</dim>
				</port>
				<port id="1" precision="FP32">
					<dim>1</dim>
					<dim>576</dim>
					<dim>1</dim>
					<dim>1</dim>
				</port>
			</input>
			<output>
				<port id="2" names="FeatureExtractor/MobilenetV2/expanded_conv_11/expand/BatchNorm/FusedBatchNorm:0" precision="FP32">
					<dim>1</dim>
					<dim>576</dim>
					<dim>19</dim>
					<dim>19</dim>
				</port>
			</output>
		</layer>
		<layer id="169" name="FeatureExtractor/MobilenetV2/expanded_conv_11/expand/Relu6" type="Clamp" version="opset1">
			<data max="6" min="0"/>
			<input>
				<port id="0" precision="FP32">
					<dim>1</dim>
					<dim>576</dim>
					<dim>19</dim>
					<dim>19</dim>
				</port>
			</input>
			<output>
				<port id="1" names="FeatureExtractor/MobilenetV2/expanded_conv_11/expand/Relu6:0,FeatureExtractor/MobilenetV2/expanded_conv_11/expansion_output:0" precision="FP32">
					<dim>1</dim>
					<dim>576</dim>
					<dim>19</dim>
					<dim>19</dim>
				</port>
			</output>
		</layer>
		<layer id="170" name="FeatureExtractor/MobilenetV2/expanded_conv_11/depthwise/BatchNorm/FusedBatchNorm/mean/Fused_Mul__copy" type="Const" version="opset1">
			<data element_type="f32" offset="1425160" shape="576, 1, 1, 3, 3" size="20736"/>
			<output>
				<port id="0" names="FeatureExtractor/MobilenetV2/expanded_conv_11/depthwise/depthwise_weights/read:0" precision="FP32">
					<dim>576</dim>
					<dim>1</dim>
					<dim>1</dim>
					<dim>3</dim>
					<dim>3</dim>
				</port>
			</output>
		</layer>
		<layer id="171" name="FeatureExtractor/MobilenetV2/expanded_conv_11/depthwise/depthwise" type="GroupConvolution" version="opset1">
			<data auto_pad="same_upper" dilations="1, 1" pads_begin="1, 1" pads_end="1, 1" strides="1, 1"/>
			<input>
				<port id="0" precision="FP32">
					<dim>1</dim>
					<dim>576</dim>
					<dim>19</dim>
					<dim>19</dim>
				</port>
				<port id="1" precision="FP32">
					<dim>576</dim>
					<dim>1</dim>
					<dim>1</dim>
					<dim>3</dim>
					<dim>3</dim>
				</port>
			</input>
			<output>
				<port id="2" precision="FP32">
					<dim>1</dim>
					<dim>576</dim>
					<dim>19</dim>
					<dim>19</dim>
				</port>
			</output>
		</layer>
		<layer id="172" name="data_add_2053120536" type="Const" version="opset1">
			<data element_type="f32" offset="1445896" shape="1, 576, 1, 1" size="2304"/>
			<output>
				<port id="0" precision="FP32">
					<dim>1</dim>
					<dim>576</dim>
					<dim>1</dim>
					<dim>1</dim>
				</port>
			</output>
		</layer>
		<layer id="173" name="FeatureExtractor/MobilenetV2/expanded_conv_11/depthwise/BatchNorm/FusedBatchNorm/variance/Fused_Add_" type="Add" version="opset1">
			<data auto_broadcast="numpy"/>
			<input>
				<port id="0" precision="FP32">
					<dim>1</dim>
					<dim>576</dim>
					<dim>19</dim>
					<dim>19</dim>
				</port>
				<port id="1" precision="FP32">
					<dim>1</dim>
					<dim>576</dim>
					<dim>1</dim>
					<dim>1</dim>
				</port>
			</input>
			<output>
				<port id="2" names="FeatureExtractor/MobilenetV2/expanded_conv_11/depthwise/BatchNorm/FusedBatchNorm:0" precision="FP32">
					<dim>1</dim>
					<dim>576</dim>
					<dim>19</dim>
					<dim>19</dim>
				</port>
			</output>
		</layer>
		<layer id="174" name="FeatureExtractor/MobilenetV2/expanded_conv_11/depthwise/Relu6" type="Clamp" version="opset1">
			<data max="6" min="0"/>
			<input>
				<port id="0" precision="FP32">
					<dim>1</dim>
					<dim>576</dim>
					<dim>19</dim>
					<dim>19</dim>
				</port>
			</input>
			<output>
				<port id="1" names="FeatureExtractor/MobilenetV2/expanded_conv_11/depthwise/Relu6:0,FeatureExtractor/MobilenetV2/expanded_conv_11/depthwise_output:0" precision="FP32">
					<dim>1</dim>
					<dim>576</dim>
					<dim>19</dim>
					<dim>19</dim>
				</port>
			</output>
		</layer>
		<layer id="175" name="FeatureExtractor/MobilenetV2/expanded_conv_11/project/BatchNorm/FusedBatchNorm/mean/Fused_Mul__copy" type="Const" version="opset1">
			<data element_type="f32" offset="1448200" shape="96, 576, 1, 1" size="221184"/>
			<output>
				<port id="0" names="FeatureExtractor/MobilenetV2/expanded_conv_11/project/weights/read:0" precision="FP32">
					<dim>96</dim>
					<dim>576</dim>
					<dim>1</dim>
					<dim>1</dim>
				</port>
			</output>
		</layer>
		<layer id="176" name="FeatureExtractor/MobilenetV2/expanded_conv_11/project/Conv2D" type="Convolution" version="opset1">
			<data auto_pad="same_upper" dilations="1, 1" pads_begin="0, 0" pads_end="0, 0" strides="1, 1"/>
			<input>
				<port id="0" precision="FP32">
					<dim>1</dim>
					<dim>576</dim>
					<dim>19</dim>
					<dim>19</dim>
				</port>
				<port id="1" precision="FP32">
					<dim>96</dim>
					<dim>576</dim>
					<dim>1</dim>
					<dim>1</dim>
				</port>
			</input>
			<output>
				<port id="2" precision="FP32">
					<dim>1</dim>
					<dim>96</dim>
					<dim>19</dim>
					<dim>19</dim>
				</port>
			</output>
		</layer>
		<layer id="177" name="data_add_2053920544" type="Const" version="opset1">
			<data element_type="f32" offset="1669384" shape="1, 96, 1, 1" size="384"/>
			<output>
				<port id="0" precision="FP32">
					<dim>1</dim>
					<dim>96</dim>
					<dim>1</dim>
					<dim>1</dim>
				</port>
			</output>
		</layer>
		<layer id="178" name="FeatureExtractor/MobilenetV2/expanded_conv_11/project/BatchNorm/FusedBatchNorm/variance/Fused_Add_" type="Add" version="opset1">
			<data auto_broadcast="numpy"/>
			<input>
				<port id="0" precision="FP32">
					<dim>1</dim>
					<dim>96</dim>
					<dim>19</dim>
					<dim>19</dim>
				</port>
				<port id="1" precision="FP32">
					<dim>1</dim>
					<dim>96</dim>
					<dim>1</dim>
					<dim>1</dim>
				</port>
			</input>
			<output>
				<port id="2" names="FeatureExtractor/MobilenetV2/expanded_conv_11/project/BatchNorm/FusedBatchNorm:0,FeatureExtractor/MobilenetV2/expanded_conv_11/project/Identity:0" precision="FP32">
					<dim>1</dim>
					<dim>96</dim>
					<dim>19</dim>
					<dim>19</dim>
				</port>
			</output>
		</layer>
		<layer id="179" name="FeatureExtractor/MobilenetV2/expanded_conv_11/add" type="Add" version="opset1">
			<data auto_broadcast="numpy"/>
			<input>
				<port id="0" precision="FP32">
					<dim>1</dim>
					<dim>96</dim>
					<dim>19</dim>
					<dim>19</dim>
				</port>
				<port id="1" precision="FP32">
					<dim>1</dim>
					<dim>96</dim>
					<dim>19</dim>
					<dim>19</dim>
				</port>
			</input>
			<output>
				<port id="2" names="FeatureExtractor/MobilenetV2/expanded_conv_11/add:0,FeatureExtractor/MobilenetV2/expanded_conv_11/output:0,FeatureExtractor/MobilenetV2/expanded_conv_12/input:0" precision="FP32">
					<dim>1</dim>
					<dim>96</dim>
					<dim>19</dim>
					<dim>19</dim>
				</port>
			</output>
		</layer>
		<layer id="180" name="FeatureExtractor/MobilenetV2/expanded_conv_12/expand/BatchNorm/FusedBatchNorm/mean/Fused_Mul__copy" type="Const" version="opset1">
			<data element_type="f32" offset="1669768" shape="576, 96, 1, 1" size="221184"/>
			<output>
				<port id="0" names="FeatureExtractor/MobilenetV2/expanded_conv_12/expand/weights/read:0" precision="FP32">
					<dim>576</dim>
					<dim>96</dim>
					<dim>1</dim>
					<dim>1</dim>
				</port>
			</output>
		</layer>
		<layer id="181" name="FeatureExtractor/MobilenetV2/expanded_conv_12/expand/Conv2D" type="Convolution" version="opset1">
			<data auto_pad="same_upper" dilations="1, 1" pads_begin="0, 0" pads_end="0, 0" strides="1, 1"/>
			<input>
				<port id="0" precision="FP32">
					<dim>1</dim>
					<dim>96</dim>
					<dim>19</dim>
					<dim>19</dim>
				</port>
				<port id="1" precision="FP32">
					<dim>576</dim>
					<dim>96</dim>
					<dim>1</dim>
					<dim>1</dim>
				</port>
			</input>
			<output>
				<port id="2" precision="FP32">
					<dim>1</dim>
					<dim>576</dim>
					<dim>19</dim>
					<dim>19</dim>
				</port>
			</output>
		</layer>
		<layer id="182" name="data_add_2054720552" type="Const" version="opset1">
			<data element_type="f32" offset="1890952" shape="1, 576, 1, 1" size="2304"/>
			<output>
				<port id="0" precision="FP32">
					<dim>1</dim>
					<dim>576</dim>
					<dim>1</dim>
					<dim>1</dim>
				</port>
			</output>
		</layer>
		<layer id="183" name="FeatureExtractor/MobilenetV2/expanded_conv_12/expand/BatchNorm/FusedBatchNorm/variance/Fused_Add_" type="Add" version="opset1">
			<data auto_broadcast="numpy"/>
			<input>
				<port id="0" precision="FP32">
					<dim>1</dim>
					<dim>576</dim>
					<dim>19</dim>
					<dim>19</dim>
				</port>
				<port id="1" precision="FP32">
					<dim>1</dim>
					<dim>576</dim>
					<dim>1</dim>
					<dim>1</dim>
				</port>
			</input>
			<output>
				<port id="2" names="FeatureExtractor/MobilenetV2/expanded_conv_12/expand/BatchNorm/FusedBatchNorm:0" precision="FP32">
					<dim>1</dim>
					<dim>576</dim>
					<dim>19</dim>
					<dim>19</dim>
				</port>
			</output>
		</layer>
		<layer id="184" name="FeatureExtractor/MobilenetV2/expanded_conv_12/expand/Relu6" type="Clamp" version="opset1">
			<data max="6" min="0"/>
			<input>
				<port id="0" precision="FP32">
					<dim>1</dim>
					<dim>576</dim>
					<dim>19</dim>
					<dim>19</dim>
				</port>
			</input>
			<output>
				<port id="1" names="FeatureExtractor/MobilenetV2/expanded_conv_12/expand/Relu6:0,FeatureExtractor/MobilenetV2/expanded_conv_12/expansion_output:0" precision="FP32">
					<dim>1</dim>
					<dim>576</dim>
					<dim>19</dim>
					<dim>19</dim>
				</port>
			</output>
		</layer>
		<layer id="185" name="FeatureExtractor/MobilenetV2/expanded_conv_12/depthwise/BatchNorm/FusedBatchNorm/mean/Fused_Mul__copy" type="Const" version="opset1">
			<data element_type="f32" offset="1893256" shape="576, 1, 1, 3, 3" size="20736"/>
			<output>
				<port id="0" names="FeatureExtractor/MobilenetV2/expanded_conv_12/depthwise/depthwise_weights/read:0" precision="FP32">
					<dim>576</dim>
					<dim>1</dim>
					<dim>1</dim>
					<dim>3</dim>
					<dim>3</dim>
				</port>
			</output>
		</layer>
		<layer id="186" name="FeatureExtractor/MobilenetV2/expanded_conv_12/depthwise/depthwise" type="GroupConvolution" version="opset1">
			<data auto_pad="same_upper" dilations="1, 1" pads_begin="1, 1" pads_end="1, 1" strides="1, 1"/>
			<input>
				<port id="0" precision="FP32">
					<dim>1</dim>
					<dim>576</dim>
					<dim>19</dim>
					<dim>19</dim>
				</port>
				<port id="1" precision="FP32">
					<dim>576</dim>
					<dim>1</dim>
					<dim>1</dim>
					<dim>3</dim>
					<dim>3</dim>
				</port>
			</input>
			<output>
				<port id="2" precision="FP32">
					<dim>1</dim>
					<dim>576</dim>
					<dim>19</dim>
					<dim>19</dim>
				</port>
			</output>
		</layer>
		<layer id="187" name="data_add_2055520560" type="Const" version="opset1">
			<data element_type="f32" offset="1913992" shape="1, 576, 1, 1" size="2304"/>
			<output>
				<port id="0" precision="FP32">
					<dim>1</dim>
					<dim>576</dim>
					<dim>1</dim>
					<dim>1</dim>
				</port>
			</output>
		</layer>
		<layer id="188" name="FeatureExtractor/MobilenetV2/expanded_conv_12/depthwise/BatchNorm/FusedBatchNorm/variance/Fused_Add_" type="Add" version="opset1">
			<data auto_broadcast="numpy"/>
			<input>
				<port id="0" precision="FP32">
					<dim>1</dim>
					<dim>576</dim>
					<dim>19</dim>
					<dim>19</dim>
				</port>
				<port id="1" precision="FP32">
					<dim>1</dim>
					<dim>576</dim>
					<dim>1</dim>
					<dim>1</dim>
				</port>
			</input>
			<output>
				<port id="2" names="FeatureExtractor/MobilenetV2/expanded_conv_12/depthwise/BatchNorm/FusedBatchNorm:0" precision="FP32">
					<dim>1</dim>
					<dim>576</dim>
					<dim>19</dim>
					<dim>19</dim>
				</port>
			</output>
		</layer>
		<layer id="189" name="FeatureExtractor/MobilenetV2/expanded_conv_12/depthwise/Relu6" type="Clamp" version="opset1">
			<data max="6" min="0"/>
			<input>
				<port id="0" precision="FP32">
					<dim>1</dim>
					<dim>576</dim>
					<dim>19</dim>
					<dim>19</dim>
				</port>
			</input>
			<output>
				<port id="1" names="FeatureExtractor/MobilenetV2/expanded_conv_12/depthwise/Relu6:0,FeatureExtractor/MobilenetV2/expanded_conv_12/depthwise_output:0" precision="FP32">
					<dim>1</dim>
					<dim>576</dim>
					<dim>19</dim>
					<dim>19</dim>
				</port>
			</output>
		</layer>
		<layer id="190" name="FeatureExtractor/MobilenetV2/expanded_conv_12/project/BatchNorm/FusedBatchNorm/mean/Fused_Mul__copy" type="Const" version="opset1">
			<data element_type="f32" offset="1916296" shape="96, 576, 1, 1" size="221184"/>
			<output>
				<port id="0" names="FeatureExtractor/MobilenetV2/expanded_conv_12/project/weights/read:0" precision="FP32">
					<dim>96</dim>
					<dim>576</dim>
					<dim>1</dim>
					<dim>1</dim>
				</port>
			</output>
		</layer>
		<layer id="191" name="FeatureExtractor/MobilenetV2/expanded_conv_12/project/Conv2D" type="Convolution" version="opset1">
			<data auto_pad="same_upper" dilations="1, 1" pads_begin="0, 0" pads_end="0, 0" strides="1, 1"/>
			<input>
				<port id="0" precision="FP32">
					<dim>1</dim>
					<dim>576</dim>
					<dim>19</dim>
					<dim>19</dim>
				</port>
				<port id="1" precision="FP32">
					<dim>96</dim>
					<dim>576</dim>
					<dim>1</dim>
					<dim>1</dim>
				</port>
			</input>
			<output>
				<port id="2" precision="FP32">
					<dim>1</dim>
					<dim>96</dim>
					<dim>19</dim>
					<dim>19</dim>
				</port>
			</output>
		</layer>
		<layer id="192" name="data_add_2056320568" type="Const" version="opset1">
			<data element_type="f32" offset="2137480" shape="1, 96, 1, 1" size="384"/>
			<output>
				<port id="0" precision="FP32">
					<dim>1</dim>
					<dim>96</dim>
					<dim>1</dim>
					<dim>1</dim>
				</port>
			</output>
		</layer>
		<layer id="193" name="FeatureExtractor/MobilenetV2/expanded_conv_12/project/BatchNorm/FusedBatchNorm/variance/Fused_Add_" type="Add" version="opset1">
			<data auto_broadcast="numpy"/>
			<input>
				<port id="0" precision="FP32">
					<dim>1</dim>
					<dim>96</dim>
					<dim>19</dim>
					<dim>19</dim>
				</port>
				<port id="1" precision="FP32">
					<dim>1</dim>
					<dim>96</dim>
					<dim>1</dim>
					<dim>1</dim>
				</port>
			</input>
			<output>
				<port id="2" names="FeatureExtractor/MobilenetV2/expanded_conv_12/project/BatchNorm/FusedBatchNorm:0,FeatureExtractor/MobilenetV2/expanded_conv_12/project/Identity:0" precision="FP32">
					<dim>1</dim>
					<dim>96</dim>
					<dim>19</dim>
					<dim>19</dim>
				</port>
			</output>
		</layer>
		<layer id="194" name="FeatureExtractor/MobilenetV2/expanded_conv_12/add" type="Add" version="opset1">
			<data auto_broadcast="numpy"/>
			<input>
				<port id="0" precision="FP32">
					<dim>1</dim>
					<dim>96</dim>
					<dim>19</dim>
					<dim>19</dim>
				</port>
				<port id="1" precision="FP32">
					<dim>1</dim>
					<dim>96</dim>
					<dim>19</dim>
					<dim>19</dim>
				</port>
			</input>
			<output>
				<port id="2" names="FeatureExtractor/MobilenetV2/expanded_conv_12/add:0,FeatureExtractor/MobilenetV2/expanded_conv_12/output:0,FeatureExtractor/MobilenetV2/expanded_conv_13/input:0" precision="FP32">
					<dim>1</dim>
					<dim>96</dim>
					<dim>19</dim>
					<dim>19</dim>
				</port>
			</output>
		</layer>
		<layer id="195" name="FeatureExtractor/MobilenetV2/expanded_conv_13/expand/BatchNorm/FusedBatchNorm/mean/Fused_Mul__copy" type="Const" version="opset1">
			<data element_type="f32" offset="2137864" shape="576, 96, 1, 1" size="221184"/>
			<output>
				<port id="0" names="FeatureExtractor/MobilenetV2/expanded_conv_13/expand/weights/read:0" precision="FP32">
					<dim>576</dim>
					<dim>96</dim>
					<dim>1</dim>
					<dim>1</dim>
				</port>
			</output>
		</layer>
		<layer id="196" name="FeatureExtractor/MobilenetV2/expanded_conv_13/expand/Conv2D" type="Convolution" version="opset1">
			<data auto_pad="same_upper" dilations="1, 1" pads_begin="0, 0" pads_end="0, 0" strides="1, 1"/>
			<input>
				<port id="0" precision="FP32">
					<dim>1</dim>
					<dim>96</dim>
					<dim>19</dim>
					<dim>19</dim>
				</port>
				<port id="1" precision="FP32">
					<dim>576</dim>
					<dim>96</dim>
					<dim>1</dim>
					<dim>1</dim>
				</port>
			</input>
			<output>
				<port id="2" precision="FP32">
					<dim>1</dim>
					<dim>576</dim>
					<dim>19</dim>
					<dim>19</dim>
				</port>
			</output>
		</layer>
		<layer id="197" name="data_add_2057120576" type="Const" version="opset1">
			<data element_type="f32" offset="2359048" shape="1, 576, 1, 1" size="2304"/>
			<output>
				<port id="0" precision="FP32">
					<dim>1</dim>
					<dim>576</dim>
					<dim>1</dim>
					<dim>1</dim>
				</port>
			</output>
		</layer>
		<layer id="198" name="FeatureExtractor/MobilenetV2/expanded_conv_13/expand/BatchNorm/FusedBatchNorm/variance/Fused_Add_" type="Add" version="opset1">
			<data auto_broadcast="numpy"/>
			<input>
				<port id="0" precision="FP32">
					<dim>1</dim>
					<dim>576</dim>
					<dim>19</dim>
					<dim>19</dim>
				</port>
				<port id="1" precision="FP32">
					<dim>1</dim>
					<dim>576</dim>
					<dim>1</dim>
					<dim>1</dim>
				</port>
			</input>
			<output>
				<port id="2" names="FeatureExtractor/MobilenetV2/expanded_conv_13/expand/BatchNorm/FusedBatchNorm:0" precision="FP32">
					<dim>1</dim>
					<dim>576</dim>
					<dim>19</dim>
					<dim>19</dim>
				</port>
			</output>
		</layer>
		<layer id="199" name="FeatureExtractor/MobilenetV2/expanded_conv_13/expand/Relu6" type="Clamp" version="opset1">
			<data max="6" min="0"/>
			<input>
				<port id="0" precision="FP32">
					<dim>1</dim>
					<dim>576</dim>
					<dim>19</dim>
					<dim>19</dim>
				</port>
			</input>
			<output>
				<port id="1" names="FeatureExtractor/MobilenetV2/expanded_conv_13/expand/Relu6:0,FeatureExtractor/MobilenetV2/expanded_conv_13/expansion_output:0" precision="FP32">
					<dim>1</dim>
					<dim>576</dim>
					<dim>19</dim>
					<dim>19</dim>
				</port>
			</output>
		</layer>
		<layer id="200" name="BoxPredictor_0/BoxEncodingPredictor_depthwise/BatchNorm/FusedBatchNorm/mean/Fused_Mul__copy" type="Const" version="opset1">
			<data element_type="f32" offset="2361352" shape="576, 1, 1, 3, 3" size="20736"/>
			<output>
				<port id="0" names="BoxPredictor_0/BoxEncodingPredictor_depthwise/depthwise_weights/read:0" precision="FP32">
					<dim>576</dim>
					<dim>1</dim>
					<dim>1</dim>
					<dim>3</dim>
					<dim>3</dim>
				</port>
			</output>
		</layer>
		<layer id="201" name="BoxPredictor_0/BoxEncodingPredictor_depthwise/depthwise" type="GroupConvolution" version="opset1">
			<data auto_pad="same_upper" dilations="1, 1" pads_begin="1, 1" pads_end="1, 1" strides="1, 1"/>
			<input>
				<port id="0" precision="FP32">
					<dim>1</dim>
					<dim>576</dim>
					<dim>19</dim>
					<dim>19</dim>
				</port>
				<port id="1" precision="FP32">
					<dim>576</dim>
					<dim>1</dim>
					<dim>1</dim>
					<dim>3</dim>
					<dim>3</dim>
				</port>
			</input>
			<output>
				<port id="2" precision="FP32">
					<dim>1</dim>
					<dim>576</dim>
					<dim>19</dim>
					<dim>19</dim>
				</port>
			</output>
		</layer>
		<layer id="202" name="data_add_2058720592" type="Const" version="opset1">
			<data element_type="f32" offset="2382088" shape="1, 576, 1, 1" size="2304"/>
			<output>
				<port id="0" precision="FP32">
					<dim>1</dim>
					<dim>576</dim>
					<dim>1</dim>
					<dim>1</dim>
				</port>
			</output>
		</layer>
		<layer id="203" name="BoxPredictor_0/BoxEncodingPredictor_depthwise/BatchNorm/FusedBatchNorm/variance/Fused_Add_" type="Add" version="opset1">
			<data auto_broadcast="numpy"/>
			<input>
				<port id="0" precision="FP32">
					<dim>1</dim>
					<dim>576</dim>
					<dim>19</dim>
					<dim>19</dim>
				</port>
				<port id="1" precision="FP32">
					<dim>1</dim>
					<dim>576</dim>
					<dim>1</dim>
					<dim>1</dim>
				</port>
			</input>
			<output>
				<port id="2" names="BoxPredictor_0/BoxEncodingPredictor_depthwise/BatchNorm/FusedBatchNorm:0" precision="FP32">
					<dim>1</dim>
					<dim>576</dim>
					<dim>19</dim>
					<dim>19</dim>
				</port>
			</output>
		</layer>
		<layer id="204" name="BoxPredictor_0/BoxEncodingPredictor_depthwise/Relu6" type="Clamp" version="opset1">
			<data max="6" min="0"/>
			<input>
				<port id="0" precision="FP32">
					<dim>1</dim>
					<dim>576</dim>
					<dim>19</dim>
					<dim>19</dim>
				</port>
			</input>
			<output>
				<port id="1" names="BoxPredictor_0/BoxEncodingPredictor_depthwise/Relu6:0" precision="FP32">
					<dim>1</dim>
					<dim>576</dim>
					<dim>19</dim>
					<dim>19</dim>
				</port>
			</output>
		</layer>
		<layer id="205" name="BoxPredictor_0/BoxEncodingPredictor/weights/read/ReshapeBack" type="Const" version="opset1">
			<data element_type="f32" offset="2384392" shape="12, 576, 1, 1" size="27648"/>
			<output>
				<port id="0" names="BoxPredictor_0/BoxEncodingPredictor/weights/read:0" precision="FP32">
					<dim>12</dim>
					<dim>576</dim>
					<dim>1</dim>
					<dim>1</dim>
				</port>
			</output>
		</layer>
		<layer id="206" name="BoxPredictor_0/BoxEncodingPredictor/Conv2D" type="Convolution" version="opset1">
			<data auto_pad="same_upper" dilations="1, 1" pads_begin="0, 0" pads_end="0, 0" strides="1, 1"/>
			<input>
				<port id="0" precision="FP32">
					<dim>1</dim>
					<dim>576</dim>
					<dim>19</dim>
					<dim>19</dim>
				</port>
				<port id="1" precision="FP32">
					<dim>12</dim>
					<dim>576</dim>
					<dim>1</dim>
					<dim>1</dim>
				</port>
			</input>
			<output>
				<port id="2" names="BoxPredictor_0/BoxEncodingPredictor/Conv2D:0" precision="FP32">
					<dim>1</dim>
					<dim>12</dim>
					<dim>19</dim>
					<dim>19</dim>
				</port>
			</output>
		</layer>
		<layer id="207" name="BoxPredictor_0/BoxEncodingPredictor/biases/read/ReshapeBack" type="Const" version="opset1">
			<data element_type="f32" offset="2412040" shape="1, 12, 1, 1" size="48"/>
			<output>
				<port id="0" names="BoxPredictor_0/BoxEncodingPredictor/biases/read:0" precision="FP32">
					<dim>1</dim>
					<dim>12</dim>
					<dim>1</dim>
					<dim>1</dim>
				</port>
			</output>
		</layer>
		<layer id="208" name="BoxPredictor_0/BoxEncodingPredictor/BiasAdd/Add" type="Add" version="opset1">
			<data auto_broadcast="numpy"/>
			<input>
				<port id="0" precision="FP32">
					<dim>1</dim>
					<dim>12</dim>
					<dim>19</dim>
					<dim>19</dim>
				</port>
				<port id="1" precision="FP32">
					<dim>1</dim>
					<dim>12</dim>
					<dim>1</dim>
					<dim>1</dim>
				</port>
			</input>
			<output>
				<port id="2" precision="FP32">
					<dim>1</dim>
					<dim>12</dim>
					<dim>19</dim>
					<dim>19</dim>
				</port>
			</output>
		</layer>
		<layer id="209" name="BoxPredictor_0/BoxEncodingPredictor/BiasAdd/Add/Transpose/value2579636912" type="Const" version="opset1">
			<data element_type="i64" offset="2412088" shape="4" size="32"/>
			<output>
				<port id="0" precision="I64">
					<dim>4</dim>
				</port>
			</output>
		</layer>
		<layer id="210" name="BoxPredictor_0/BoxEncodingPredictor/BiasAdd/Add/Transpose" type="Transpose" version="opset1">
			<input>
				<port id="0" precision="FP32">
					<dim>1</dim>
					<dim>12</dim>
					<dim>19</dim>
					<dim>19</dim>
				</port>
				<port id="1" precision="I64">
					<dim>4</dim>
				</port>
			</input>
			<output>
				<port id="2" names="BoxPredictor_0/BoxEncodingPredictor/BiasAdd:0" precision="FP32">
					<dim>1</dim>
					<dim>19</dim>
					<dim>19</dim>
					<dim>12</dim>
				</port>
			</output>
		</layer>
		<layer id="211" name="3070" type="Const" version="opset1">
			<data element_type="i64" offset="2412120" shape="4" size="32"/>
			<output>
				<port id="0" precision="I64">
					<dim>4</dim>
				</port>
			</output>
		</layer>
		<layer id="212" name="BoxPredictor_0/BoxEncodingPredictor/BiasAdd/Reshape" type="Reshape" version="opset1">
			<data special_zero="true"/>
			<input>
				<port id="0" precision="FP32">
					<dim>1</dim>
					<dim>19</dim>
					<dim>19</dim>
					<dim>12</dim>
				</port>
				<port id="1" precision="I64">
					<dim>4</dim>
				</port>
			</input>
			<output>
				<port id="2" names="BoxPredictor_0/Reshape:0" precision="FP32">
					<dim>1</dim>
					<dim>1083</dim>
					<dim>1</dim>
					<dim>4</dim>
				</port>
			</output>
		</layer>
		<layer id="213" name="FeatureExtractor/MobilenetV2/expanded_conv_13/depthwise/BatchNorm/FusedBatchNorm/mean/Fused_Mul__copy" type="Const" version="opset1">
			<data element_type="f32" offset="2412152" shape="576, 1, 1, 3, 3" size="20736"/>
			<output>
				<port id="0" names="FeatureExtractor/MobilenetV2/expanded_conv_13/depthwise/depthwise_weights/read:0" precision="FP32">
					<dim>576</dim>
					<dim>1</dim>
					<dim>1</dim>
					<dim>3</dim>
					<dim>3</dim>
				</port>
			</output>
		</layer>
		<layer id="214" name="FeatureExtractor/MobilenetV2/expanded_conv_13/depthwise/depthwise" type="GroupConvolution" version="opset1">
			<data auto_pad="same_upper" dilations="1, 1" pads_begin="1, 1" pads_end="1, 1" strides="2, 2"/>
			<input>
				<port id="0" precision="FP32">
					<dim>1</dim>
					<dim>576</dim>
					<dim>19</dim>
					<dim>19</dim>
				</port>
				<port id="1" precision="FP32">
					<dim>576</dim>
					<dim>1</dim>
					<dim>1</dim>
					<dim>3</dim>
					<dim>3</dim>
				</port>
			</input>
			<output>
				<port id="2" precision="FP32">
					<dim>1</dim>
					<dim>576</dim>
					<dim>10</dim>
					<dim>10</dim>
				</port>
			</output>
		</layer>
		<layer id="215" name="data_add_2059520600" type="Const" version="opset1">
			<data element_type="f32" offset="2432888" shape="1, 576, 1, 1" size="2304"/>
			<output>
				<port id="0" precision="FP32">
					<dim>1</dim>
					<dim>576</dim>
					<dim>1</dim>
					<dim>1</dim>
				</port>
			</output>
		</layer>
		<layer id="216" name="FeatureExtractor/MobilenetV2/expanded_conv_13/depthwise/BatchNorm/FusedBatchNorm/variance/Fused_Add_" type="Add" version="opset1">
			<data auto_broadcast="numpy"/>
			<input>
				<port id="0" precision="FP32">
					<dim>1</dim>
					<dim>576</dim>
					<dim>10</dim>
					<dim>10</dim>
				</port>
				<port id="1" precision="FP32">
					<dim>1</dim>
					<dim>576</dim>
					<dim>1</dim>
					<dim>1</dim>
				</port>
			</input>
			<output>
				<port id="2" names="FeatureExtractor/MobilenetV2/expanded_conv_13/depthwise/BatchNorm/FusedBatchNorm:0" precision="FP32">
					<dim>1</dim>
					<dim>576</dim>
					<dim>10</dim>
					<dim>10</dim>
				</port>
			</output>
		</layer>
		<layer id="217" name="FeatureExtractor/MobilenetV2/expanded_conv_13/depthwise/Relu6" type="Clamp" version="opset1">
			<data max="6" min="0"/>
			<input>
				<port id="0" precision="FP32">
					<dim>1</dim>
					<dim>576</dim>
					<dim>10</dim>
					<dim>10</dim>
				</port>
			</input>
			<output>
				<port id="1" names="FeatureExtractor/MobilenetV2/expanded_conv_13/depthwise/Relu6:0,FeatureExtractor/MobilenetV2/expanded_conv_13/depthwise_output:0" precision="FP32">
					<dim>1</dim>
					<dim>576</dim>
					<dim>10</dim>
					<dim>10</dim>
				</port>
			</output>
		</layer>
		<layer id="218" name="FeatureExtractor/MobilenetV2/expanded_conv_13/project/BatchNorm/FusedBatchNorm/mean/Fused_Mul__copy" type="Const" version="opset1">
			<data element_type="f32" offset="2435192" shape="160, 576, 1, 1" size="368640"/>
			<output>
				<port id="0" names="FeatureExtractor/MobilenetV2/expanded_conv_13/project/weights/read:0" precision="FP32">
					<dim>160</dim>
					<dim>576</dim>
					<dim>1</dim>
					<dim>1</dim>
				</port>
			</output>
		</layer>
		<layer id="219" name="FeatureExtractor/MobilenetV2/expanded_conv_13/project/Conv2D" type="Convolution" version="opset1">
			<data auto_pad="same_upper" dilations="1, 1" pads_begin="0, 0" pads_end="0, 0" strides="1, 1"/>
			<input>
				<port id="0" precision="FP32">
					<dim>1</dim>
					<dim>576</dim>
					<dim>10</dim>
					<dim>10</dim>
				</port>
				<port id="1" precision="FP32">
					<dim>160</dim>
					<dim>576</dim>
					<dim>1</dim>
					<dim>1</dim>
				</port>
			</input>
			<output>
				<port id="2" precision="FP32">
					<dim>1</dim>
					<dim>160</dim>
					<dim>10</dim>
					<dim>10</dim>
				</port>
			</output>
		</layer>
		<layer id="220" name="data_add_2060320608" type="Const" version="opset1">
			<data element_type="f32" offset="2803832" shape="1, 160, 1, 1" size="640"/>
			<output>
				<port id="0" precision="FP32">
					<dim>1</dim>
					<dim>160</dim>
					<dim>1</dim>
					<dim>1</dim>
				</port>
			</output>
		</layer>
		<layer id="221" name="FeatureExtractor/MobilenetV2/expanded_conv_13/project/BatchNorm/FusedBatchNorm/variance/Fused_Add_" type="Add" version="opset1">
			<data auto_broadcast="numpy"/>
			<input>
				<port id="0" precision="FP32">
					<dim>1</dim>
					<dim>160</dim>
					<dim>10</dim>
					<dim>10</dim>
				</port>
				<port id="1" precision="FP32">
					<dim>1</dim>
					<dim>160</dim>
					<dim>1</dim>
					<dim>1</dim>
				</port>
			</input>
			<output>
				<port id="2" names="FeatureExtractor/MobilenetV2/expanded_conv_13/output:0,FeatureExtractor/MobilenetV2/expanded_conv_13/project/BatchNorm/FusedBatchNorm:0,FeatureExtractor/MobilenetV2/expanded_conv_13/project/Identity:0,FeatureExtractor/MobilenetV2/expanded_conv_14/input:0" precision="FP32">
					<dim>1</dim>
					<dim>160</dim>
					<dim>10</dim>
					<dim>10</dim>
				</port>
			</output>
		</layer>
		<layer id="222" name="FeatureExtractor/MobilenetV2/expanded_conv_14/expand/BatchNorm/FusedBatchNorm/mean/Fused_Mul__copy" type="Const" version="opset1">
			<data element_type="f32" offset="2804472" shape="960, 160, 1, 1" size="614400"/>
			<output>
				<port id="0" names="FeatureExtractor/MobilenetV2/expanded_conv_14/expand/weights/read:0" precision="FP32">
					<dim>960</dim>
					<dim>160</dim>
					<dim>1</dim>
					<dim>1</dim>
				</port>
			</output>
		</layer>
		<layer id="223" name="FeatureExtractor/MobilenetV2/expanded_conv_14/expand/Conv2D" type="Convolution" version="opset1">
			<data auto_pad="same_upper" dilations="1, 1" pads_begin="0, 0" pads_end="0, 0" strides="1, 1"/>
			<input>
				<port id="0" precision="FP32">
					<dim>1</dim>
					<dim>160</dim>
					<dim>10</dim>
					<dim>10</dim>
				</port>
				<port id="1" precision="FP32">
					<dim>960</dim>
					<dim>160</dim>
					<dim>1</dim>
					<dim>1</dim>
				</port>
			</input>
			<output>
				<port id="2" precision="FP32">
					<dim>1</dim>
					<dim>960</dim>
					<dim>10</dim>
					<dim>10</dim>
				</port>
			</output>
		</layer>
		<layer id="224" name="data_add_2061120616" type="Const" version="opset1">
			<data element_type="f32" offset="3418872" shape="1, 960, 1, 1" size="3840"/>
			<output>
				<port id="0" precision="FP32">
					<dim>1</dim>
					<dim>960</dim>
					<dim>1</dim>
					<dim>1</dim>
				</port>
			</output>
		</layer>
		<layer id="225" name="FeatureExtractor/MobilenetV2/expanded_conv_14/expand/BatchNorm/FusedBatchNorm/variance/Fused_Add_" type="Add" version="opset1">
			<data auto_broadcast="numpy"/>
			<input>
				<port id="0" precision="FP32">
					<dim>1</dim>
					<dim>960</dim>
					<dim>10</dim>
					<dim>10</dim>
				</port>
				<port id="1" precision="FP32">
					<dim>1</dim>
					<dim>960</dim>
					<dim>1</dim>
					<dim>1</dim>
				</port>
			</input>
			<output>
				<port id="2" names="FeatureExtractor/MobilenetV2/expanded_conv_14/expand/BatchNorm/FusedBatchNorm:0" precision="FP32">
					<dim>1</dim>
					<dim>960</dim>
					<dim>10</dim>
					<dim>10</dim>
				</port>
			</output>
		</layer>
		<layer id="226" name="FeatureExtractor/MobilenetV2/expanded_conv_14/expand/Relu6" type="Clamp" version="opset1">
			<data max="6" min="0"/>
			<input>
				<port id="0" precision="FP32">
					<dim>1</dim>
					<dim>960</dim>
					<dim>10</dim>
					<dim>10</dim>
				</port>
			</input>
			<output>
				<port id="1" names="FeatureExtractor/MobilenetV2/expanded_conv_14/expand/Relu6:0,FeatureExtractor/MobilenetV2/expanded_conv_14/expansion_output:0" precision="FP32">
					<dim>1</dim>
					<dim>960</dim>
					<dim>10</dim>
					<dim>10</dim>
				</port>
			</output>
		</layer>
		<layer id="227" name="FeatureExtractor/MobilenetV2/expanded_conv_14/depthwise/BatchNorm/FusedBatchNorm/mean/Fused_Mul__copy" type="Const" version="opset1">
			<data element_type="f32" offset="3422712" shape="960, 1, 1, 3, 3" size="34560"/>
			<output>
				<port id="0" names="FeatureExtractor/MobilenetV2/expanded_conv_14/depthwise/depthwise_weights/read:0" precision="FP32">
					<dim>960</dim>
					<dim>1</dim>
					<dim>1</dim>
					<dim>3</dim>
					<dim>3</dim>
				</port>
			</output>
		</layer>
		<layer id="228" name="FeatureExtractor/MobilenetV2/expanded_conv_14/depthwise/depthwise" type="GroupConvolution" version="opset1">
			<data auto_pad="same_upper" dilations="1, 1" pads_begin="1, 1" pads_end="1, 1" strides="1, 1"/>
			<input>
				<port id="0" precision="FP32">
					<dim>1</dim>
					<dim>960</dim>
					<dim>10</dim>
					<dim>10</dim>
				</port>
				<port id="1" precision="FP32">
					<dim>960</dim>
					<dim>1</dim>
					<dim>1</dim>
					<dim>3</dim>
					<dim>3</dim>
				</port>
			</input>
			<output>
				<port id="2" precision="FP32">
					<dim>1</dim>
					<dim>960</dim>
					<dim>10</dim>
					<dim>10</dim>
				</port>
			</output>
		</layer>
		<layer id="229" name="data_add_2061920624" type="Const" version="opset1">
			<data element_type="f32" offset="3457272" shape="1, 960, 1, 1" size="3840"/>
			<output>
				<port id="0" precision="FP32">
					<dim>1</dim>
					<dim>960</dim>
					<dim>1</dim>
					<dim>1</dim>
				</port>
			</output>
		</layer>
		<layer id="230" name="FeatureExtractor/MobilenetV2/expanded_conv_14/depthwise/BatchNorm/FusedBatchNorm/variance/Fused_Add_" type="Add" version="opset1">
			<data auto_broadcast="numpy"/>
			<input>
				<port id="0" precision="FP32">
					<dim>1</dim>
					<dim>960</dim>
					<dim>10</dim>
					<dim>10</dim>
				</port>
				<port id="1" precision="FP32">
					<dim>1</dim>
					<dim>960</dim>
					<dim>1</dim>
					<dim>1</dim>
				</port>
			</input>
			<output>
				<port id="2" names="FeatureExtractor/MobilenetV2/expanded_conv_14/depthwise/BatchNorm/FusedBatchNorm:0" precision="FP32">
					<dim>1</dim>
					<dim>960</dim>
					<dim>10</dim>
					<dim>10</dim>
				</port>
			</output>
		</layer>
		<layer id="231" name="FeatureExtractor/MobilenetV2/expanded_conv_14/depthwise/Relu6" type="Clamp" version="opset1">
			<data max="6" min="0"/>
			<input>
				<port id="0" precision="FP32">
					<dim>1</dim>
					<dim>960</dim>
					<dim>10</dim>
					<dim>10</dim>
				</port>
			</input>
			<output>
				<port id="1" names="FeatureExtractor/MobilenetV2/expanded_conv_14/depthwise/Relu6:0,FeatureExtractor/MobilenetV2/expanded_conv_14/depthwise_output:0" precision="FP32">
					<dim>1</dim>
					<dim>960</dim>
					<dim>10</dim>
					<dim>10</dim>
				</port>
			</output>
		</layer>
		<layer id="232" name="FeatureExtractor/MobilenetV2/expanded_conv_14/project/BatchNorm/FusedBatchNorm/mean/Fused_Mul__copy" type="Const" version="opset1">
			<data element_type="f32" offset="3461112" shape="160, 960, 1, 1" size="614400"/>
			<output>
				<port id="0" names="FeatureExtractor/MobilenetV2/expanded_conv_14/project/weights/read:0" precision="FP32">
					<dim>160</dim>
					<dim>960</dim>
					<dim>1</dim>
					<dim>1</dim>
				</port>
			</output>
		</layer>
		<layer id="233" name="FeatureExtractor/MobilenetV2/expanded_conv_14/project/Conv2D" type="Convolution" version="opset1">
			<data auto_pad="same_upper" dilations="1, 1" pads_begin="0, 0" pads_end="0, 0" strides="1, 1"/>
			<input>
				<port id="0" precision="FP32">
					<dim>1</dim>
					<dim>960</dim>
					<dim>10</dim>
					<dim>10</dim>
				</port>
				<port id="1" precision="FP32">
					<dim>160</dim>
					<dim>960</dim>
					<dim>1</dim>
					<dim>1</dim>
				</port>
			</input>
			<output>
				<port id="2" precision="FP32">
					<dim>1</dim>
					<dim>160</dim>
					<dim>10</dim>
					<dim>10</dim>
				</port>
			</output>
		</layer>
		<layer id="234" name="data_add_2062720632" type="Const" version="opset1">
			<data element_type="f32" offset="4075512" shape="1, 160, 1, 1" size="640"/>
			<output>
				<port id="0" precision="FP32">
					<dim>1</dim>
					<dim>160</dim>
					<dim>1</dim>
					<dim>1</dim>
				</port>
			</output>
		</layer>
		<layer id="235" name="FeatureExtractor/MobilenetV2/expanded_conv_14/project/BatchNorm/FusedBatchNorm/variance/Fused_Add_" type="Add" version="opset1">
			<data auto_broadcast="numpy"/>
			<input>
				<port id="0" precision="FP32">
					<dim>1</dim>
					<dim>160</dim>
					<dim>10</dim>
					<dim>10</dim>
				</port>
				<port id="1" precision="FP32">
					<dim>1</dim>
					<dim>160</dim>
					<dim>1</dim>
					<dim>1</dim>
				</port>
			</input>
			<output>
				<port id="2" names="FeatureExtractor/MobilenetV2/expanded_conv_14/project/BatchNorm/FusedBatchNorm:0,FeatureExtractor/MobilenetV2/expanded_conv_14/project/Identity:0" precision="FP32">
					<dim>1</dim>
					<dim>160</dim>
					<dim>10</dim>
					<dim>10</dim>
				</port>
			</output>
		</layer>
		<layer id="236" name="FeatureExtractor/MobilenetV2/expanded_conv_14/add" type="Add" version="opset1">
			<data auto_broadcast="numpy"/>
			<input>
				<port id="0" precision="FP32">
					<dim>1</dim>
					<dim>160</dim>
					<dim>10</dim>
					<dim>10</dim>
				</port>
				<port id="1" precision="FP32">
					<dim>1</dim>
					<dim>160</dim>
					<dim>10</dim>
					<dim>10</dim>
				</port>
			</input>
			<output>
				<port id="2" names="FeatureExtractor/MobilenetV2/expanded_conv_14/add:0,FeatureExtractor/MobilenetV2/expanded_conv_14/output:0,FeatureExtractor/MobilenetV2/expanded_conv_15/input:0" precision="FP32">
					<dim>1</dim>
					<dim>160</dim>
					<dim>10</dim>
					<dim>10</dim>
				</port>
			</output>
		</layer>
		<layer id="237" name="FeatureExtractor/MobilenetV2/expanded_conv_15/expand/BatchNorm/FusedBatchNorm/mean/Fused_Mul__copy" type="Const" version="opset1">
			<data element_type="f32" offset="4076152" shape="960, 160, 1, 1" size="614400"/>
			<output>
				<port id="0" names="FeatureExtractor/MobilenetV2/expanded_conv_15/expand/weights/read:0" precision="FP32">
					<dim>960</dim>
					<dim>160</dim>
					<dim>1</dim>
					<dim>1</dim>
				</port>
			</output>
		</layer>
		<layer id="238" name="FeatureExtractor/MobilenetV2/expanded_conv_15/expand/Conv2D" type="Convolution" version="opset1">
			<data auto_pad="same_upper" dilations="1, 1" pads_begin="0, 0" pads_end="0, 0" strides="1, 1"/>
			<input>
				<port id="0" precision="FP32">
					<dim>1</dim>
					<dim>160</dim>
					<dim>10</dim>
					<dim>10</dim>
				</port>
				<port id="1" precision="FP32">
					<dim>960</dim>
					<dim>160</dim>
					<dim>1</dim>
					<dim>1</dim>
				</port>
			</input>
			<output>
				<port id="2" precision="FP32">
					<dim>1</dim>
					<dim>960</dim>
					<dim>10</dim>
					<dim>10</dim>
				</port>
			</output>
		</layer>
		<layer id="239" name="data_add_2063520640" type="Const" version="opset1">
			<data element_type="f32" offset="4690552" shape="1, 960, 1, 1" size="3840"/>
			<output>
				<port id="0" precision="FP32">
					<dim>1</dim>
					<dim>960</dim>
					<dim>1</dim>
					<dim>1</dim>
				</port>
			</output>
		</layer>
		<layer id="240" name="FeatureExtractor/MobilenetV2/expanded_conv_15/expand/BatchNorm/FusedBatchNorm/variance/Fused_Add_" type="Add" version="opset1">
			<data auto_broadcast="numpy"/>
			<input>
				<port id="0" precision="FP32">
					<dim>1</dim>
					<dim>960</dim>
					<dim>10</dim>
					<dim>10</dim>
				</port>
				<port id="1" precision="FP32">
					<dim>1</dim>
					<dim>960</dim>
					<dim>1</dim>
					<dim>1</dim>
				</port>
			</input>
			<output>
				<port id="2" names="FeatureExtractor/MobilenetV2/expanded_conv_15/expand/BatchNorm/FusedBatchNorm:0" precision="FP32">
					<dim>1</dim>
					<dim>960</dim>
					<dim>10</dim>
					<dim>10</dim>
				</port>
			</output>
		</layer>
		<layer id="241" name="FeatureExtractor/MobilenetV2/expanded_conv_15/expand/Relu6" type="Clamp" version="opset1">
			<data max="6" min="0"/>
			<input>
				<port id="0" precision="FP32">
					<dim>1</dim>
					<dim>960</dim>
					<dim>10</dim>
					<dim>10</dim>
				</port>
			</input>
			<output>
				<port id="1" names="FeatureExtractor/MobilenetV2/expanded_conv_15/expand/Relu6:0,FeatureExtractor/MobilenetV2/expanded_conv_15/expansion_output:0" precision="FP32">
					<dim>1</dim>
					<dim>960</dim>
					<dim>10</dim>
					<dim>10</dim>
				</port>
			</output>
		</layer>
		<layer id="242" name="FeatureExtractor/MobilenetV2/expanded_conv_15/depthwise/BatchNorm/FusedBatchNorm/mean/Fused_Mul__copy" type="Const" version="opset1">
			<data element_type="f32" offset="4694392" shape="960, 1, 1, 3, 3" size="34560"/>
			<output>
				<port id="0" names="FeatureExtractor/MobilenetV2/expanded_conv_15/depthwise/depthwise_weights/read:0" precision="FP32">
					<dim>960</dim>
					<dim>1</dim>
					<dim>1</dim>
					<dim>3</dim>
					<dim>3</dim>
				</port>
			</output>
		</layer>
		<layer id="243" name="FeatureExtractor/MobilenetV2/expanded_conv_15/depthwise/depthwise" type="GroupConvolution" version="opset1">
			<data auto_pad="same_upper" dilations="1, 1" pads_begin="1, 1" pads_end="1, 1" strides="1, 1"/>
			<input>
				<port id="0" precision="FP32">
					<dim>1</dim>
					<dim>960</dim>
					<dim>10</dim>
					<dim>10</dim>
				</port>
				<port id="1" precision="FP32">
					<dim>960</dim>
					<dim>1</dim>
					<dim>1</dim>
					<dim>3</dim>
					<dim>3</dim>
				</port>
			</input>
			<output>
				<port id="2" precision="FP32">
					<dim>1</dim>
					<dim>960</dim>
					<dim>10</dim>
					<dim>10</dim>
				</port>
			</output>
		</layer>
		<layer id="244" name="data_add_2064320648" type="Const" version="opset1">
			<data element_type="f32" offset="4728952" shape="1, 960, 1, 1" size="3840"/>
			<output>
				<port id="0" precision="FP32">
					<dim>1</dim>
					<dim>960</dim>
					<dim>1</dim>
					<dim>1</dim>
				</port>
			</output>
		</layer>
		<layer id="245" name="FeatureExtractor/MobilenetV2/expanded_conv_15/depthwise/BatchNorm/FusedBatchNorm/variance/Fused_Add_" type="Add" version="opset1">
			<data auto_broadcast="numpy"/>
			<input>
				<port id="0" precision="FP32">
					<dim>1</dim>
					<dim>960</dim>
					<dim>10</dim>
					<dim>10</dim>
				</port>
				<port id="1" precision="FP32">
					<dim>1</dim>
					<dim>960</dim>
					<dim>1</dim>
					<dim>1</dim>
				</port>
			</input>
			<output>
				<port id="2" names="FeatureExtractor/MobilenetV2/expanded_conv_15/depthwise/BatchNorm/FusedBatchNorm:0" precision="FP32">
					<dim>1</dim>
					<dim>960</dim>
					<dim>10</dim>
					<dim>10</dim>
				</port>
			</output>
		</layer>
		<layer id="246" name="FeatureExtractor/MobilenetV2/expanded_conv_15/depthwise/Relu6" type="Clamp" version="opset1">
			<data max="6" min="0"/>
			<input>
				<port id="0" precision="FP32">
					<dim>1</dim>
					<dim>960</dim>
					<dim>10</dim>
					<dim>10</dim>
				</port>
			</input>
			<output>
				<port id="1" names="FeatureExtractor/MobilenetV2/expanded_conv_15/depthwise/Relu6:0,FeatureExtractor/MobilenetV2/expanded_conv_15/depthwise_output:0" precision="FP32">
					<dim>1</dim>
					<dim>960</dim>
					<dim>10</dim>
					<dim>10</dim>
				</port>
			</output>
		</layer>
		<layer id="247" name="FeatureExtractor/MobilenetV2/expanded_conv_15/project/BatchNorm/FusedBatchNorm/mean/Fused_Mul__copy" type="Const" version="opset1">
			<data element_type="f32" offset="4732792" shape="160, 960, 1, 1" size="614400"/>
			<output>
				<port id="0" names="FeatureExtractor/MobilenetV2/expanded_conv_15/project/weights/read:0" precision="FP32">
					<dim>160</dim>
					<dim>960</dim>
					<dim>1</dim>
					<dim>1</dim>
				</port>
			</output>
		</layer>
		<layer id="248" name="FeatureExtractor/MobilenetV2/expanded_conv_15/project/Conv2D" type="Convolution" version="opset1">
			<data auto_pad="same_upper" dilations="1, 1" pads_begin="0, 0" pads_end="0, 0" strides="1, 1"/>
			<input>
				<port id="0" precision="FP32">
					<dim>1</dim>
					<dim>960</dim>
					<dim>10</dim>
					<dim>10</dim>
				</port>
				<port id="1" precision="FP32">
					<dim>160</dim>
					<dim>960</dim>
					<dim>1</dim>
					<dim>1</dim>
				</port>
			</input>
			<output>
				<port id="2" precision="FP32">
					<dim>1</dim>
					<dim>160</dim>
					<dim>10</dim>
					<dim>10</dim>
				</port>
			</output>
		</layer>
		<layer id="249" name="data_add_2065120656" type="Const" version="opset1">
			<data element_type="f32" offset="5347192" shape="1, 160, 1, 1" size="640"/>
			<output>
				<port id="0" precision="FP32">
					<dim>1</dim>
					<dim>160</dim>
					<dim>1</dim>
					<dim>1</dim>
				</port>
			</output>
		</layer>
		<layer id="250" name="FeatureExtractor/MobilenetV2/expanded_conv_15/project/BatchNorm/FusedBatchNorm/variance/Fused_Add_" type="Add" version="opset1">
			<data auto_broadcast="numpy"/>
			<input>
				<port id="0" precision="FP32">
					<dim>1</dim>
					<dim>160</dim>
					<dim>10</dim>
					<dim>10</dim>
				</port>
				<port id="1" precision="FP32">
					<dim>1</dim>
					<dim>160</dim>
					<dim>1</dim>
					<dim>1</dim>
				</port>
			</input>
			<output>
				<port id="2" names="FeatureExtractor/MobilenetV2/expanded_conv_15/project/BatchNorm/FusedBatchNorm:0,FeatureExtractor/MobilenetV2/expanded_conv_15/project/Identity:0" precision="FP32">
					<dim>1</dim>
					<dim>160</dim>
					<dim>10</dim>
					<dim>10</dim>
				</port>
			</output>
		</layer>
		<layer id="251" name="FeatureExtractor/MobilenetV2/expanded_conv_15/add" type="Add" version="opset1">
			<data auto_broadcast="numpy"/>
			<input>
				<port id="0" precision="FP32">
					<dim>1</dim>
					<dim>160</dim>
					<dim>10</dim>
					<dim>10</dim>
				</port>
				<port id="1" precision="FP32">
					<dim>1</dim>
					<dim>160</dim>
					<dim>10</dim>
					<dim>10</dim>
				</port>
			</input>
			<output>
				<port id="2" names="FeatureExtractor/MobilenetV2/expanded_conv_15/add:0,FeatureExtractor/MobilenetV2/expanded_conv_15/output:0,FeatureExtractor/MobilenetV2/expanded_conv_16/input:0" precision="FP32">
					<dim>1</dim>
					<dim>160</dim>
					<dim>10</dim>
					<dim>10</dim>
				</port>
			</output>
		</layer>
		<layer id="252" name="FeatureExtractor/MobilenetV2/expanded_conv_16/expand/BatchNorm/FusedBatchNorm/mean/Fused_Mul__copy" type="Const" version="opset1">
			<data element_type="f32" offset="5347832" shape="960, 160, 1, 1" size="614400"/>
			<output>
				<port id="0" names="FeatureExtractor/MobilenetV2/expanded_conv_16/expand/weights/read:0" precision="FP32">
					<dim>960</dim>
					<dim>160</dim>
					<dim>1</dim>
					<dim>1</dim>
				</port>
			</output>
		</layer>
		<layer id="253" name="FeatureExtractor/MobilenetV2/expanded_conv_16/expand/Conv2D" type="Convolution" version="opset1">
			<data auto_pad="same_upper" dilations="1, 1" pads_begin="0, 0" pads_end="0, 0" strides="1, 1"/>
			<input>
				<port id="0" precision="FP32">
					<dim>1</dim>
					<dim>160</dim>
					<dim>10</dim>
					<dim>10</dim>
				</port>
				<port id="1" precision="FP32">
					<dim>960</dim>
					<dim>160</dim>
					<dim>1</dim>
					<dim>1</dim>
				</port>
			</input>
			<output>
				<port id="2" precision="FP32">
					<dim>1</dim>
					<dim>960</dim>
					<dim>10</dim>
					<dim>10</dim>
				</port>
			</output>
		</layer>
		<layer id="254" name="data_add_2065920664" type="Const" version="opset1">
			<data element_type="f32" offset="5962232" shape="1, 960, 1, 1" size="3840"/>
			<output>
				<port id="0" precision="FP32">
					<dim>1</dim>
					<dim>960</dim>
					<dim>1</dim>
					<dim>1</dim>
				</port>
			</output>
		</layer>
		<layer id="255" name="FeatureExtractor/MobilenetV2/expanded_conv_16/expand/BatchNorm/FusedBatchNorm/variance/Fused_Add_" type="Add" version="opset1">
			<data auto_broadcast="numpy"/>
			<input>
				<port id="0" precision="FP32">
					<dim>1</dim>
					<dim>960</dim>
					<dim>10</dim>
					<dim>10</dim>
				</port>
				<port id="1" precision="FP32">
					<dim>1</dim>
					<dim>960</dim>
					<dim>1</dim>
					<dim>1</dim>
				</port>
			</input>
			<output>
				<port id="2" names="FeatureExtractor/MobilenetV2/expanded_conv_16/expand/BatchNorm/FusedBatchNorm:0" precision="FP32">
					<dim>1</dim>
					<dim>960</dim>
					<dim>10</dim>
					<dim>10</dim>
				</port>
			</output>
		</layer>
		<layer id="256" name="FeatureExtractor/MobilenetV2/expanded_conv_16/expand/Relu6" type="Clamp" version="opset1">
			<data max="6" min="0"/>
			<input>
				<port id="0" precision="FP32">
					<dim>1</dim>
					<dim>960</dim>
					<dim>10</dim>
					<dim>10</dim>
				</port>
			</input>
			<output>
				<port id="1" names="FeatureExtractor/MobilenetV2/expanded_conv_16/expand/Relu6:0,FeatureExtractor/MobilenetV2/expanded_conv_16/expansion_output:0" precision="FP32">
					<dim>1</dim>
					<dim>960</dim>
					<dim>10</dim>
					<dim>10</dim>
				</port>
			</output>
		</layer>
		<layer id="257" name="FeatureExtractor/MobilenetV2/expanded_conv_16/depthwise/BatchNorm/FusedBatchNorm/mean/Fused_Mul__copy" type="Const" version="opset1">
			<data element_type="f32" offset="5966072" shape="960, 1, 1, 3, 3" size="34560"/>
			<output>
				<port id="0" names="FeatureExtractor/MobilenetV2/expanded_conv_16/depthwise/depthwise_weights/read:0" precision="FP32">
					<dim>960</dim>
					<dim>1</dim>
					<dim>1</dim>
					<dim>3</dim>
					<dim>3</dim>
				</port>
			</output>
		</layer>
		<layer id="258" name="FeatureExtractor/MobilenetV2/expanded_conv_16/depthwise/depthwise" type="GroupConvolution" version="opset1">
			<data auto_pad="same_upper" dilations="1, 1" pads_begin="1, 1" pads_end="1, 1" strides="1, 1"/>
			<input>
				<port id="0" precision="FP32">
					<dim>1</dim>
					<dim>960</dim>
					<dim>10</dim>
					<dim>10</dim>
				</port>
				<port id="1" precision="FP32">
					<dim>960</dim>
					<dim>1</dim>
					<dim>1</dim>
					<dim>3</dim>
					<dim>3</dim>
				</port>
			</input>
			<output>
				<port id="2" precision="FP32">
					<dim>1</dim>
					<dim>960</dim>
					<dim>10</dim>
					<dim>10</dim>
				</port>
			</output>
		</layer>
		<layer id="259" name="data_add_2066720672" type="Const" version="opset1">
			<data element_type="f32" offset="6000632" shape="1, 960, 1, 1" size="3840"/>
			<output>
				<port id="0" precision="FP32">
					<dim>1</dim>
					<dim>960</dim>
					<dim>1</dim>
					<dim>1</dim>
				</port>
			</output>
		</layer>
		<layer id="260" name="FeatureExtractor/MobilenetV2/expanded_conv_16/depthwise/BatchNorm/FusedBatchNorm/variance/Fused_Add_" type="Add" version="opset1">
			<data auto_broadcast="numpy"/>
			<input>
				<port id="0" precision="FP32">
					<dim>1</dim>
					<dim>960</dim>
					<dim>10</dim>
					<dim>10</dim>
				</port>
				<port id="1" precision="FP32">
					<dim>1</dim>
					<dim>960</dim>
					<dim>1</dim>
					<dim>1</dim>
				</port>
			</input>
			<output>
				<port id="2" names="FeatureExtractor/MobilenetV2/expanded_conv_16/depthwise/BatchNorm/FusedBatchNorm:0" precision="FP32">
					<dim>1</dim>
					<dim>960</dim>
					<dim>10</dim>
					<dim>10</dim>
				</port>
			</output>
		</layer>
		<layer id="261" name="FeatureExtractor/MobilenetV2/expanded_conv_16/depthwise/Relu6" type="Clamp" version="opset1">
			<data max="6" min="0"/>
			<input>
				<port id="0" precision="FP32">
					<dim>1</dim>
					<dim>960</dim>
					<dim>10</dim>
					<dim>10</dim>
				</port>
			</input>
			<output>
				<port id="1" names="FeatureExtractor/MobilenetV2/expanded_conv_16/depthwise/Relu6:0,FeatureExtractor/MobilenetV2/expanded_conv_16/depthwise_output:0" precision="FP32">
					<dim>1</dim>
					<dim>960</dim>
					<dim>10</dim>
					<dim>10</dim>
				</port>
			</output>
		</layer>
		<layer id="262" name="FeatureExtractor/MobilenetV2/expanded_conv_16/project/BatchNorm/FusedBatchNorm/mean/Fused_Mul__copy" type="Const" version="opset1">
			<data element_type="f32" offset="6004472" shape="320, 960, 1, 1" size="1228800"/>
			<output>
				<port id="0" names="FeatureExtractor/MobilenetV2/expanded_conv_16/project/weights/read:0" precision="FP32">
					<dim>320</dim>
					<dim>960</dim>
					<dim>1</dim>
					<dim>1</dim>
				</port>
			</output>
		</layer>
		<layer id="263" name="FeatureExtractor/MobilenetV2/expanded_conv_16/project/Conv2D" type="Convolution" version="opset1">
			<data auto_pad="same_upper" dilations="1, 1" pads_begin="0, 0" pads_end="0, 0" strides="1, 1"/>
			<input>
				<port id="0" precision="FP32">
					<dim>1</dim>
					<dim>960</dim>
					<dim>10</dim>
					<dim>10</dim>
				</port>
				<port id="1" precision="FP32">
					<dim>320</dim>
					<dim>960</dim>
					<dim>1</dim>
					<dim>1</dim>
				</port>
			</input>
			<output>
				<port id="2" precision="FP32">
					<dim>1</dim>
					<dim>320</dim>
					<dim>10</dim>
					<dim>10</dim>
				</port>
			</output>
		</layer>
		<layer id="264" name="data_add_2067520680" type="Const" version="opset1">
			<data element_type="f32" offset="7233272" shape="1, 320, 1, 1" size="1280"/>
			<output>
				<port id="0" precision="FP32">
					<dim>1</dim>
					<dim>320</dim>
					<dim>1</dim>
					<dim>1</dim>
				</port>
			</output>
		</layer>
		<layer id="265" name="FeatureExtractor/MobilenetV2/expanded_conv_16/project/BatchNorm/FusedBatchNorm/variance/Fused_Add_" type="Add" version="opset1">
			<data auto_broadcast="numpy"/>
			<input>
				<port id="0" precision="FP32">
					<dim>1</dim>
					<dim>320</dim>
					<dim>10</dim>
					<dim>10</dim>
				</port>
				<port id="1" precision="FP32">
					<dim>1</dim>
					<dim>320</dim>
					<dim>1</dim>
					<dim>1</dim>
				</port>
			</input>
			<output>
				<port id="2" names="FeatureExtractor/MobilenetV2/expanded_conv_16/output:0,FeatureExtractor/MobilenetV2/expanded_conv_16/project/BatchNorm/FusedBatchNorm:0,FeatureExtractor/MobilenetV2/expanded_conv_16/project/Identity:0" precision="FP32">
					<dim>1</dim>
					<dim>320</dim>
					<dim>10</dim>
					<dim>10</dim>
				</port>
			</output>
		</layer>
		<layer id="266" name="FeatureExtractor/MobilenetV2/Conv_1/BatchNorm/FusedBatchNorm/mean/Fused_Mul__copy" type="Const" version="opset1">
			<data element_type="f32" offset="7234552" shape="1280, 320, 1, 1" size="1638400"/>
			<output>
				<port id="0" names="FeatureExtractor/MobilenetV2/Conv_1/weights/read:0" precision="FP32">
					<dim>1280</dim>
					<dim>320</dim>
					<dim>1</dim>
					<dim>1</dim>
				</port>
			</output>
		</layer>
		<layer id="267" name="FeatureExtractor/MobilenetV2/Conv_1/Conv2D" type="Convolution" version="opset1">
			<data auto_pad="same_upper" dilations="1, 1" pads_begin="0, 0" pads_end="0, 0" strides="1, 1"/>
			<input>
				<port id="0" precision="FP32">
					<dim>1</dim>
					<dim>320</dim>
					<dim>10</dim>
					<dim>10</dim>
				</port>
				<port id="1" precision="FP32">
					<dim>1280</dim>
					<dim>320</dim>
					<dim>1</dim>
					<dim>1</dim>
				</port>
			</input>
			<output>
				<port id="2" precision="FP32">
					<dim>1</dim>
					<dim>1280</dim>
					<dim>10</dim>
					<dim>10</dim>
				</port>
			</output>
		</layer>
		<layer id="268" name="data_add_2068320688" type="Const" version="opset1">
			<data element_type="f32" offset="8872952" shape="1, 1280, 1, 1" size="5120"/>
			<output>
				<port id="0" precision="FP32">
					<dim>1</dim>
					<dim>1280</dim>
					<dim>1</dim>
					<dim>1</dim>
				</port>
			</output>
		</layer>
		<layer id="269" name="FeatureExtractor/MobilenetV2/Conv_1/BatchNorm/FusedBatchNorm/variance/Fused_Add_" type="Add" version="opset1">
			<data auto_broadcast="numpy"/>
			<input>
				<port id="0" precision="FP32">
					<dim>1</dim>
					<dim>1280</dim>
					<dim>10</dim>
					<dim>10</dim>
				</port>
				<port id="1" precision="FP32">
					<dim>1</dim>
					<dim>1280</dim>
					<dim>1</dim>
					<dim>1</dim>
				</port>
			</input>
			<output>
				<port id="2" names="FeatureExtractor/MobilenetV2/Conv_1/BatchNorm/FusedBatchNorm:0" precision="FP32">
					<dim>1</dim>
					<dim>1280</dim>
					<dim>10</dim>
					<dim>10</dim>
				</port>
			</output>
		</layer>
		<layer id="270" name="FeatureExtractor/MobilenetV2/Conv_1/Relu6" type="Clamp" version="opset1">
			<data max="6" min="0"/>
			<input>
				<port id="0" precision="FP32">
					<dim>1</dim>
					<dim>1280</dim>
					<dim>10</dim>
					<dim>10</dim>
				</port>
			</input>
			<output>
				<port id="1" names="FeatureExtractor/MobilenetV2/Conv_1/Relu6:0" precision="FP32">
					<dim>1</dim>
					<dim>1280</dim>
					<dim>10</dim>
					<dim>10</dim>
				</port>
			</output>
		</layer>
		<layer id="271" name="BoxPredictor_1/BoxEncodingPredictor_depthwise/BatchNorm/FusedBatchNorm/mean/Fused_Mul__copy" type="Const" version="opset1">
			<data element_type="f32" offset="8878072" shape="1280, 1, 1, 3, 3" size="46080"/>
			<output>
				<port id="0" names="BoxPredictor_1/BoxEncodingPredictor_depthwise/depthwise_weights/read:0" precision="FP32">
					<dim>1280</dim>
					<dim>1</dim>
					<dim>1</dim>
					<dim>3</dim>
					<dim>3</dim>
				</port>
			</output>
		</layer>
		<layer id="272" name="BoxPredictor_1/BoxEncodingPredictor_depthwise/depthwise" type="GroupConvolution" version="opset1">
…
					<dim>96</dim>
				</port>
			</output>
		</layer>
		<layer id="546" name="PriorBoxClustered_4/unsqueeze/value2755636825" type="Const" version="opset1">
			<data element_type="i64" offset="12079168" shape="1" size="8"/>
			<output>
				<port id="0" precision="I64">
					<dim>1</dim>
				</port>
			</output>
		</layer>
		<layer id="547" name="PriorBoxClustered_4" type="Unsqueeze" version="opset1">
			<input>
				<port id="0" precision="FP32">
					<dim>2</dim>
					<dim>96</dim>
				</port>
				<port id="1" precision="I64">
					<dim>1</dim>
				</port>
			</input>
			<output>
				<port id="2" precision="FP32">
					<dim>1</dim>
					<dim>2</dim>
					<dim>96</dim>
				</port>
			</output>
		</layer>
		<layer id="548" name="PriorBoxClustered_5/0_port" type="ShapeOf" version="opset3">
			<data output_type="i64"/>
			<input>
				<port id="0" precision="FP32">
					<dim>1</dim>
					<dim>24</dim>
					<dim>1</dim>
					<dim>1</dim>
				</port>
			</input>
			<output>
				<port id="1" precision="I64">
					<dim>4</dim>
				</port>
			</output>
		</layer>
		<layer id="549" name="PriorBoxClustered_5/ss_begin2751036726" type="Const" version="opset1">
			<data element_type="i64" offset="12079144" shape="1" size="8"/>
			<output>
				<port id="0" precision="I64">
					<dim>1</dim>
				</port>
			</output>
		</layer>
		<layer id="550" name="PriorBoxClustered_5/ss_end2751137227" type="Const" version="opset1">
			<data element_type="i64" offset="12079152" shape="1" size="8"/>
			<output>
				<port id="0" precision="I64">
					<dim>1</dim>
				</port>
			</output>
		</layer>
		<layer id="551" name="PriorBoxClustered_5/ss_stride2751237284" type="Const" version="opset1">
			<data element_type="i64" offset="12079160" shape="1" size="8"/>
			<output>
				<port id="0" precision="I64">
					<dim>1</dim>
				</port>
			</output>
		</layer>
		<layer id="552" name="PriorBoxClustered_5/ss_0_port" type="StridedSlice" version="opset1">
			<data begin_mask="0" ellipsis_mask="0" end_mask="1" new_axis_mask="0" shrink_axis_mask="0"/>
			<input>
				<port id="0" precision="I64">
					<dim>4</dim>
				</port>
				<port id="1" precision="I64">
					<dim>1</dim>
				</port>
				<port id="2" precision="I64">
					<dim>1</dim>
				</port>
				<port id="3" precision="I64">
					<dim>1</dim>
				</port>
			</input>
			<output>
				<port id="4" precision="I64">
					<dim>2</dim>
				</port>
			</output>
		</layer>
		<layer id="553" name="PriorBoxClustered_5/1_port" type="ShapeOf" version="opset3">
			<data output_type="i64"/>
			<input>
				<port id="0" precision="FP32">
					<dim>1</dim>
					<dim>3</dim>
					<dim>300</dim>
					<dim>300</dim>
				</port>
			</input>
			<output>
				<port id="1" precision="I64">
					<dim>4</dim>
				</port>
			</output>
		</layer>
		<layer id="554" name="PriorBoxClustered_5/ss_begin2751037368" type="Const" version="opset1">
			<data element_type="i64" offset="12079144" shape="1" size="8"/>
			<output>
				<port id="0" precision="I64">
					<dim>1</dim>
				</port>
			</output>
		</layer>
		<layer id="555" name="PriorBoxClustered_5/ss_end2751136732" type="Const" version="opset1">
			<data element_type="i64" offset="12079152" shape="1" size="8"/>
			<output>
				<port id="0" precision="I64">
					<dim>1</dim>
				</port>
			</output>
		</layer>
		<layer id="556" name="PriorBoxClustered_5/ss_stride2751236852" type="Const" version="opset1">
			<data element_type="i64" offset="12079160" shape="1" size="8"/>
			<output>
				<port id="0" precision="I64">
					<dim>1</dim>
				</port>
			</output>
		</layer>
		<layer id="557" name="PriorBoxClustered_5/ss_1_port" type="StridedSlice" version="opset1">
			<data begin_mask="0" ellipsis_mask="0" end_mask="1" new_axis_mask="0" shrink_axis_mask="0"/>
			<input>
				<port id="0" precision="I64">
					<dim>4</dim>
				</port>
				<port id="1" precision="I64">
					<dim>1</dim>
				</port>
				<port id="2" precision="I64">
					<dim>1</dim>
				</port>
				<port id="3" precision="I64">
					<dim>1</dim>
				</port>
			</input>
			<output>
				<port id="4" precision="I64">
					<dim>2</dim>
				</port>
			</output>
		</layer>
		<layer id="558" name="PriorBoxClustered_5/naked_not_unsqueezed" type="PriorBoxClustered" version="opset1">
			<data clip="false" height="285, 201.525, 403.051, 164.545, 493.659, 292.404" offset="0.5" step="0" step_h="0" step_w="0" variance="0.1, 0.1, 0.2, 0.2" width="285, 403.051, 201.525, 493.634, 164.537, 292.404"/>
			<input>
				<port id="0" precision="I64">
					<dim>2</dim>
				</port>
				<port id="1" precision="I64">
					<dim>2</dim>
				</port>
			</input>
			<output>
				<port id="2" precision="FP32">
					<dim>2</dim>
					<dim>24</dim>
				</port>
			</output>
		</layer>
		<layer id="559" name="PriorBoxClustered_5/unsqueeze/value2752036897" type="Const" version="opset1">
			<data element_type="i64" offset="12079168" shape="1" size="8"/>
			<output>
				<port id="0" precision="I64">
					<dim>1</dim>
				</port>
			</output>
		</layer>
		<layer id="560" name="PriorBoxClustered_5" type="Unsqueeze" version="opset1">
			<input>
				<port id="0" precision="FP32">
					<dim>2</dim>
					<dim>24</dim>
				</port>
				<port id="1" precision="I64">
					<dim>1</dim>
				</port>
			</input>
			<output>
				<port id="2" precision="FP32">
					<dim>1</dim>
					<dim>2</dim>
					<dim>24</dim>
				</port>
			</output>
		</layer>
		<layer id="561" name="ConcatPriorBoxesClustered" type="Concat" version="opset1">
			<data axis="2"/>
			<input>
				<port id="0" precision="FP32">
					<dim>1</dim>
					<dim>2</dim>
					<dim>4332</dim>
				</port>
				<port id="1" precision="FP32">
					<dim>1</dim>
					<dim>2</dim>
					<dim>2400</dim>
				</port>
				<port id="2" precision="FP32">
					<dim>1</dim>
					<dim>2</dim>
					<dim>600</dim>
				</port>
				<port id="3" precision="FP32">
					<dim>1</dim>
					<dim>2</dim>
					<dim>216</dim>
				</port>
				<port id="4" precision="FP32">
					<dim>1</dim>
					<dim>2</dim>
					<dim>96</dim>
				</port>
				<port id="5" precision="FP32">
					<dim>1</dim>
					<dim>2</dim>
					<dim>24</dim>
				</port>
			</input>
			<output>
				<port id="6" precision="FP32">
					<dim>1</dim>
					<dim>2</dim>
					<dim>7668</dim>
				</port>
			</output>
		</layer>
		<layer id="562" name="DetectionOutput" type="DetectionOutput" version="opset1">
			<data background_label_id="0" clip_after_nms="true" clip_before_nms="false" code_type="caffe.PriorBoxParameter.CENTER_SIZE" confidence_threshold="0.30000001192092896" decrease_label_id="false" input_height="1" input_width="1" keep_top_k="100" nms_threshold="0.60000002384185791" normalized="true" num_classes="2" objectness_score="0" share_location="true" top_k="100" variance_encoded_in_target="false"/>
			<input>
				<port id="0" precision="FP32">
					<dim>1</dim>
					<dim>7668</dim>
				</port>
				<port id="1" precision="FP32">
					<dim>1</dim>
					<dim>3834</dim>
				</port>
				<port id="2" precision="FP32">
					<dim>1</dim>
					<dim>2</dim>
					<dim>7668</dim>
				</port>
			</input>
			<output>
				<port id="3" names="detection_boxes:0" precision="FP32">
					<dim>1</dim>
					<dim>1</dim>
					<dim>100</dim>
					<dim>7</dim>
				</port>
			</output>
		</layer>
		<layer id="563" name="detection_boxes:0" type="Result" version="opset1">
			<input>
				<port id="0" precision="FP32">
					<dim>1</dim>
					<dim>1</dim>
					<dim>100</dim>
					<dim>7</dim>
				</port>
			</input>
		</layer>
	</layers>
	<edges>
		<edge from-layer="0" from-port="0" to-layer="2" to-port="1"/>
		<edge from-layer="0" from-port="0" to-layer="553" to-port="0"/>
		<edge from-layer="0" from-port="0" to-layer="540" to-port="0"/>
		<edge from-layer="0" from-port="0" to-layer="527" to-port="0"/>
		<edge from-layer="0" from-port="0" to-layer="514" to-port="0"/>
		<edge from-layer="0" from-port="0" to-layer="501" to-port="0"/>
		<edge from-layer="0" from-port="0" to-layer="488" to-port="0"/>
		<edge from-layer="1" from-port="0" to-layer="2" to-port="0"/>
		<edge from-layer="2" from-port="2" to-layer="4" to-port="0"/>
		<edge from-layer="3" from-port="0" to-layer="4" to-port="1"/>
		<edge from-layer="4" from-port="2" to-layer="6" to-port="0"/>
		<edge from-layer="5" from-port="0" to-layer="6" to-port="1"/>
		<edge from-layer="6" from-port="2" to-layer="8" to-port="0"/>
		<edge from-layer="7" from-port="0" to-layer="8" to-port="1"/>
		<edge from-layer="8" from-port="2" to-layer="9" to-port="0"/>
		<edge from-layer="9" from-port="1" to-layer="11" to-port="0"/>
		<edge from-layer="10" from-port="0" to-layer="11" to-port="1"/>
		<edge from-layer="11" from-port="2" to-layer="13" to-port="0"/>
		<edge from-layer="12" from-port="0" to-layer="13" to-port="1"/>
		<edge from-layer="13" from-port="2" to-layer="14" to-port="0"/>
		<edge from-layer="14" from-port="1" to-layer="16" to-port="0"/>
		<edge from-layer="15" from-port="0" to-layer="16" to-port="1"/>
		<edge from-layer="16" from-port="2" to-layer="18" to-port="0"/>
		<edge from-layer="17" from-port="0" to-layer="18" to-port="1"/>
		<edge from-layer="18" from-port="2" to-layer="20" to-port="0"/>
		<edge from-layer="19" from-port="0" to-layer="20" to-port="1"/>
		<edge from-layer="20" from-port="2" to-layer="22" to-port="0"/>
		<edge from-layer="21" from-port="0" to-layer="22" to-port="1"/>
		<edge from-layer="22" from-port="2" to-layer="23" to-port="0"/>
		<edge from-layer="23" from-port="1" to-layer="25" to-port="0"/>
		<edge from-layer="24" from-port="0" to-layer="25" to-port="1"/>
		<edge from-layer="25" from-port="2" to-layer="27" to-port="0"/>
		<edge from-layer="26" from-port="0" to-layer="27" to-port="1"/>
		<edge from-layer="27" from-port="2" to-layer="28" to-port="0"/>
		<edge from-layer="28" from-port="1" to-layer="30" to-port="0"/>
		<edge from-layer="29" from-port="0" to-layer="30" to-port="1"/>
		<edge from-layer="30" from-port="2" to-layer="32" to-port="0"/>
		<edge from-layer="31" from-port="0" to-layer="32" to-port="1"/>
		<edge from-layer="32" from-port="2" to-layer="34" to-port="0"/>
		<edge from-layer="32" from-port="2" to-layer="47" to-port="1"/>
		<edge from-layer="33" from-port="0" to-layer="34" to-port="1"/>
		<edge from-layer="34" from-port="2" to-layer="36" to-port="0"/>
		<edge from-layer="35" from-port="0" to-layer="36" to-port="1"/>
		<edge from-layer="36" from-port="2" to-layer="37" to-port="0"/>
		<edge from-layer="37" from-port="1" to-layer="39" to-port="0"/>
		<edge from-layer="38" from-port="0" to-layer="39" to-port="1"/>
		<edge from-layer="39" from-port="2" to-layer="41" to-port="0"/>
		<edge from-layer="40" from-port="0" to-layer="41" to-port="1"/>
		<edge from-layer="41" from-port="2" to-layer="42" to-port="0"/>
		<edge from-layer="42" from-port="1" to-layer="44" to-port="0"/>
		<edge from-layer="43" from-port="0" to-layer="44" to-port="1"/>
		<edge from-layer="44" from-port="2" to-layer="46" to-port="0"/>
		<edge from-layer="45" from-port="0" to-layer="46" to-port="1"/>
		<edge from-layer="46" from-port="2" to-layer="47" to-port="0"/>
		<edge from-layer="47" from-port="2" to-layer="49" to-port="0"/>
		<edge from-layer="48" from-port="0" to-layer="49" to-port="1"/>
		<edge from-layer="49" from-port="2" to-layer="51" to-port="0"/>
		<edge from-layer="50" from-port="0" to-layer="51" to-port="1"/>
		<edge from-layer="51" from-port="2" to-layer="52" to-port="0"/>
		<edge from-layer="52" from-port="1" to-layer="54" to-port="0"/>
		<edge from-layer="53" from-port="0" to-layer="54" to-port="1"/>
		<edge from-layer="54" from-port="2" to-layer="56" to-port="0"/>
		<edge from-layer="55" from-port="0" to-layer="56" to-port="1"/>
		<edge from-layer="56" from-port="2" to-layer="57" to-port="0"/>
		<edge from-layer="57" from-port="1" to-layer="59" to-port="0"/>
		<edge from-layer="58" from-port="0" to-layer="59" to-port="1"/>
		<edge from-layer="59" from-port="2" to-layer="61" to-port="0"/>
		<edge from-layer="60" from-port="0" to-layer="61" to-port="1"/>
		<edge from-layer="61" from-port="2" to-layer="76" to-port="1"/>
		<edge from-layer="61" from-port="2" to-layer="63" to-port="0"/>
		<edge from-layer="62" from-port="0" to-layer="63" to-port="1"/>
		<edge from-layer="63" from-port="2" to-layer="65" to-port="0"/>
		<edge from-layer="64" from-port="0" to-layer="65" to-port="1"/>
		<edge from-layer="65" from-port="2" to-layer="66" to-port="0"/>
		<edge from-layer="66" from-port="1" to-layer="68" to-port="0"/>
		<edge from-layer="67" from-port="0" to-layer="68" to-port="1"/>
		<edge from-layer="68" from-port="2" to-layer="70" to-port="0"/>
		<edge from-layer="69" from-port="0" to-layer="70" to-port="1"/>
		<edge from-layer="70" from-port="2" to-layer="71" to-port="0"/>
		<edge from-layer="71" from-port="1" to-layer="73" to-port="0"/>
		<edge from-layer="72" from-port="0" to-layer="73" to-port="1"/>
		<edge from-layer="73" from-port="2" to-layer="75" to-port="0"/>
		<edge from-layer="74" from-port="0" to-layer="75" to-port="1"/>
		<edge from-layer="75" from-port="2" to-layer="76" to-port="0"/>
		<edge from-layer="76" from-port="2" to-layer="91" to-port="1"/>
		<edge from-layer="76" from-port="2" to-layer="78" to-port="0"/>
		<edge from-layer="77" from-port="0" to-layer="78" to-port="1"/>
		<edge from-layer="78" from-port="2" to-layer="80" to-port="0"/>
		<edge from-layer="79" from-port="0" to-layer="80" to-port="1"/>
		<edge from-layer="80" from-port="2" to-layer="81" to-port="0"/>
		<edge from-layer="81" from-port="1" to-layer="83" to-port="0"/>
		<edge from-layer="82" from-port="0" to-layer="83" to-port="1"/>
		<edge from-layer="83" from-port="2" to-layer="85" to-port="0"/>
		<edge from-layer="84" from-port="0" to-layer="85" to-port="1"/>
		<edge from-layer="85" from-port="2" to-layer="86" to-port="0"/>
		<edge from-layer="86" from-port="1" to-layer="88" to-port="0"/>
		<edge from-layer="87" from-port="0" to-layer="88" to-port="1"/>
		<edge from-layer="88" from-port="2" to-layer="90" to-port="0"/>
		<edge from-layer="89" from-port="0" to-layer="90" to-port="1"/>
		<edge from-layer="90" from-port="2" to-layer="91" to-port="0"/>
		<edge from-layer="91" from-port="2" to-layer="93" to-port="0"/>
		<edge from-layer="92" from-port="0" to-layer="93" to-port="1"/>
		<edge from-layer="93" from-port="2" to-layer="95" to-port="0"/>
		<edge from-layer="94" from-port="0" to-layer="95" to-port="1"/>
		<edge from-layer="95" from-port="2" to-layer="96" to-port="0"/>
		<edge from-layer="96" from-port="1" to-layer="98" to-port="0"/>
		<edge from-layer="97" from-port="0" to-layer="98" to-port="1"/>
		<edge from-layer="98" from-port="2" to-layer="100" to-port="0"/>
		<edge from-layer="99" from-port="0" to-layer="100" to-port="1"/>
		<edge from-layer="100" from-port="2" to-layer="101" to-port="0"/>
		<edge from-layer="101" from-port="1" to-layer="103" to-port="0"/>
		<edge from-layer="102" from-port="0" to-layer="103" to-port="1"/>
		<edge from-layer="103" from-port="2" to-layer="105" to-port="0"/>
		<edge from-layer="104" from-port="0" to-layer="105" to-port="1"/>
		<edge from-layer="105" from-port="2" to-layer="107" to-port="0"/>
		<edge from-layer="105" from-port="2" to-layer="120" to-port="1"/>
		<edge from-layer="106" from-port="0" to-layer="107" to-port="1"/>
		<edge from-layer="107" from-port="2" to-layer="109" to-port="0"/>
		<edge from-layer="108" from-port="0" to-layer="109" to-port="1"/>
		<edge from-layer="109" from-port="2" to-layer="110" to-port="0"/>
		<edge from-layer="110" from-port="1" to-layer="112" to-port="0"/>
		<edge from-layer="111" from-port="0" to-layer="112" to-port="1"/>
		<edge from-layer="112" from-port="2" to-layer="114" to-port="0"/>
		<edge from-layer="113" from-port="0" to-layer="114" to-port="1"/>
		<edge from-layer="114" from-port="2" to-layer="115" to-port="0"/>
		<edge from-layer="115" from-port="1" to-layer="117" to-port="0"/>
		<edge from-layer="116" from-port="0" to-layer="117" to-port="1"/>
		<edge from-layer="117" from-port="2" to-layer="119" to-port="0"/>
		<edge from-layer="118" from-port="0" to-layer="119" to-port="1"/>
		<edge from-layer="119" from-port="2" to-layer="120" to-port="0"/>
		<edge from-layer="120" from-port="2" to-layer="135" to-port="1"/>
		<edge from-layer="120" from-port="2" to-layer="122" to-port="0"/>
		<edge from-layer="121" from-port="0" to-layer="122" to-port="1"/>
		<edge from-layer="122" from-port="2" to-layer="124" to-port="0"/>
		<edge from-layer="123" from-port="0" to-layer="124" to-port="1"/>
		<edge from-layer="124" from-port="2" to-layer="125" to-port="0"/>
		<edge from-layer="125" from-port="1" to-layer="127" to-port="0"/>
		<edge from-layer="126" from-port="0" to-layer="127" to-port="1"/>
		<edge from-layer="127" from-port="2" to-layer="129" to-port="0"/>
		<edge from-layer="128" from-port="0" to-layer="129" to-port="1"/>
		<edge from-layer="129" from-port="2" to-layer="130" to-port="0"/>
		<edge from-layer="130" from-port="1" to-layer="132" to-port="0"/>
		<edge from-layer="131" from-port="0" to-layer="132" to-port="1"/>
		<edge from-layer="132" from-port="2" to-layer="134" to-port="0"/>
		<edge from-layer="133" from-port="0" to-layer="134" to-port="1"/>
		<edge from-layer="134" from-port="2" to-layer="135" to-port="0"/>
		<edge from-layer="135" from-port="2" to-layer="150" to-port="1"/>
		<edge from-layer="135" from-port="2" to-layer="137" to-port="0"/>
		<edge from-layer="136" from-port="0" to-layer="137" to-port="1"/>
		<edge from-layer="137" from-port="2" to-layer="139" to-port="0"/>
		<edge from-layer="138" from-port="0" to-layer="139" to-port="1"/>
		<edge from-layer="139" from-port="2" to-layer="140" to-port="0"/>
		<edge from-layer="140" from-port="1" to-layer="142" to-port="0"/>
		<edge from-layer="141" from-port="0" to-layer="142" to-port="1"/>
		<edge from-layer="142" from-port="2" to-layer="144" to-port="0"/>
		<edge from-layer="143" from-port="0" to-layer="144" to-port="1"/>
		<edge from-layer="144" from-port="2" to-layer="145" to-port="0"/>
		<edge from-layer="145" from-port="1" to-layer="147" to-port="0"/>
		<edge from-layer="146" from-port="0" to-layer="147" to-port="1"/>
		<edge from-layer="147" from-port="2" to-layer="149" to-port="0"/>
		<edge from-layer="148" from-port="0" to-layer="149" to-port="1"/>
		<edge from-layer="149" from-port="2" to-layer="150" to-port="0"/>
		<edge from-layer="150" from-port="2" to-layer="152" to-port="0"/>
		<edge from-layer="151" from-port="0" to-layer="152" to-port="1"/>
		<edge from-layer="152" from-port="2" to-layer="154" to-port="0"/>
		<edge from-layer="153" from-port="0" to-layer="154" to-port="1"/>
		<edge from-layer="154" from-port="2" to-layer="155" to-port="0"/>
		<edge from-layer="155" from-port="1" to-layer="157" to-port="0"/>
		<edge from-layer="156" from-port="0" to-layer="157" to-port="1"/>
		<edge from-layer="157" from-port="2" to-layer="159" to-port="0"/>
		<edge from-layer="158" from-port="0" to-layer="159" to-port="1"/>
		<edge from-layer="159" from-port="2" to-layer="160" to-port="0"/>
		<edge from-layer="160" from-port="1" to-layer="162" to-port="0"/>
		<edge from-layer="161" from-port="0" to-layer="162" to-port="1"/>
		<edge from-layer="162" from-port="2" to-layer="164" to-port="0"/>
		<edge from-layer="163" from-port="0" to-layer="164" to-port="1"/>
		<edge from-layer="164" from-port="2" to-layer="179" to-port="1"/>
		<edge from-layer="164" from-port="2" to-layer="166" to-port="0"/>
		<edge from-layer="165" from-port="0" to-layer="166" to-port="1"/>
		<edge from-layer="166" from-port="2" to-layer="168" to-port="0"/>
		<edge from-layer="167" from-port="0" to-layer="168" to-port="1"/>
		<edge from-layer="168" from-port="2" to-layer="169" to-port="0"/>
		<edge from-layer="169" from-port="1" to-layer="171" to-port="0"/>
		<edge from-layer="170" from-port="0" to-layer="171" to-port="1"/>
		<edge from-layer="171" from-port="2" to-layer="173" to-port="0"/>
		<edge from-layer="172" from-port="0" to-layer="173" to-port="1"/>
		<edge from-layer="173" from-port="2" to-layer="174" to-port="0"/>
		<edge from-layer="174" from-port="1" to-layer="176" to-port="0"/>
		<edge from-layer="175" from-port="0" to-layer="176" to-port="1"/>
		<edge from-layer="176" from-port="2" to-layer="178" to-port="0"/>
		<edge from-layer="177" from-port="0" to-layer="178" to-port="1"/>
		<edge from-layer="178" from-port="2" to-layer="179" to-port="0"/>
		<edge from-layer="179" from-port="2" to-layer="181" to-port="0"/>
		<edge from-layer="179" from-port="2" to-layer="194" to-port="1"/>
		<edge from-layer="180" from-port="0" to-layer="181" to-port="1"/>
		<edge from-layer="181" from-port="2" to-layer="183" to-port="0"/>
		<edge from-layer="182" from-port="0" to-layer="183" to-port="1"/>
		<edge from-layer="183" from-port="2" to-layer="184" to-port="0"/>
		<edge from-layer="184" from-port="1" to-layer="186" to-port="0"/>
		<edge from-layer="185" from-port="0" to-layer="186" to-port="1"/>
		<edge from-layer="186" from-port="2" to-layer="188" to-port="0"/>
		<edge from-layer="187" from-port="0" to-layer="188" to-port="1"/>
		<edge from-layer="188" from-port="2" to-layer="189" to-port="0"/>
		<edge from-layer="189" from-port="1" to-layer="191" to-port="0"/>
		<edge from-layer="190" from-port="0" to-layer="191" to-port="1"/>
		<edge from-layer="191" from-port="2" to-layer="193" to-port="0"/>
		<edge from-layer="192" from-port="0" to-layer="193" to-port="1"/>
		<edge from-layer="193" from-port="2" to-layer="194" to-port="0"/>
		<edge from-layer="194" from-port="2" to-layer="196" to-port="0"/>
		<edge from-layer="195" from-port="0" to-layer="196" to-port="1"/>
		<edge from-layer="196" from-port="2" to-layer="198" to-port="0"/>
		<edge from-layer="197" from-port="0" to-layer="198" to-port="1"/>
		<edge from-layer="198" from-port="2" to-layer="199" to-port="0"/>
		<edge from-layer="199" from-port="1" to-layer="201" to-port="0"/>
		<edge from-layer="199" from-port="1" to-layer="214" to-port="0"/>
		<edge from-layer="199" from-port="1" to-layer="400" to-port="0"/>
		<edge from-layer="200" from-port="0" to-layer="201" to-port="1"/>
		<edge from-layer="201" from-port="2" to-layer="203" to-port="0"/>
		<edge from-layer="202" from-port="0" to-layer="203" to-port="1"/>
		<edge from-layer="203" from-port="2" to-layer="204" to-port="0"/>
		<edge from-layer="204" from-port="1" to-layer="206" to-port="0"/>
		<edge from-layer="205" from-port="0" to-layer="206" to-port="1"/>
		<edge from-layer="206" from-port="2" to-layer="208" to-port="0"/>
		<edge from-layer="207" from-port="0" to-layer="208" to-port="1"/>
		<edge from-layer="208" from-port="2" to-layer="483" to-port="0"/>
		<edge from-layer="208" from-port="2" to-layer="210" to-port="0"/>
		<edge from-layer="209" from-port="0" to-layer="210" to-port="1"/>
		<edge from-layer="210" from-port="2" to-layer="212" to-port="0"/>
		<edge from-layer="211" from-port="0" to-layer="212" to-port="1"/>
		<edge from-layer="212" from-port="2" to-layer="396" to-port="0"/>
		<edge from-layer="213" from-port="0" to-layer="214" to-port="1"/>
		<edge from-layer="214" from-port="2" to-layer="216" to-port="0"/>
		<edge from-layer="215" from-port="0" to-layer="216" to-port="1"/>
		<edge from-layer="216" from-port="2" to-layer="217" to-port="0"/>
		<edge from-layer="217" from-port="1" to-layer="219" to-port="0"/>
		<edge from-layer="218" from-port="0" to-layer="219" to-port="1"/>
		<edge from-layer="219" from-port="2" to-layer="221" to-port="0"/>
		<edge from-layer="220" from-port="0" to-layer="221" to-port="1"/>
		<edge from-layer="221" from-port="2" to-layer="223" to-port="0"/>
		<edge from-layer="221" from-port="2" to-layer="236" to-port="1"/>
		<edge from-layer="222" from-port="0" to-layer="223" to-port="1"/>
		<edge from-layer="223" from-port="2" to-layer="225" to-port="0"/>
		<edge from-layer="224" from-port="0" to-layer="225" to-port="1"/>
		<edge from-layer="225" from-port="2" to-layer="226" to-port="0"/>
		<edge from-layer="226" from-port="1" to-layer="228" to-port="0"/>
		<edge from-layer="227" from-port="0" to-layer="228" to-port="1"/>
		<edge from-layer="228" from-port="2" to-layer="230" to-port="0"/>
		<edge from-layer="229" from-port="0" to-layer="230" to-port="1"/>
		<edge from-layer="230" from-port="2" to-layer="231" to-port="0"/>
		<edge from-layer="231" from-port="1" to-layer="233" to-port="0"/>
		<edge from-layer="232" from-port="0" to-layer="233" to-port="1"/>
		<edge from-layer="233" from-port="2" to-layer="235" to-port="0"/>
		<edge from-layer="234" from-port="0" to-layer="235" to-port="1"/>
		<edge from-layer="235" from-port="2" to-layer="236" to-port="0"/>
		<edge from-layer="236" from-port="2" to-layer="238" to-port="0"/>
		<edge from-layer="236" from-port="2" to-layer="251" to-port="1"/>
		<edge from-layer="237" from-port="0" to-layer="238" to-port="1"/>
		<edge from-layer="238" from-port="2" to-layer="240" to-port="0"/>
		<edge from-layer="239" from-port="0" to-layer="240" to-port="1"/>
		<edge from-layer="240" from-port="2" to-layer="241" to-port="0"/>
		<edge from-layer="241" from-port="1" to-layer="243" to-port="0"/>
		<edge from-layer="242" from-port="0" to-layer="243" to-port="1"/>
		<edge from-layer="243" from-port="2" to-layer="245" to-port="0"/>
		<edge from-layer="244" from-port="0" to-layer="245" to-port="1"/>
		<edge from-layer="245" from-port="2" to-layer="246" to-port="0"/>
		<edge from-layer="246" from-port="1" to-layer="248" to-port="0"/>
		<edge from-layer="247" from-port="0" to-layer="248" to-port="1"/>
		<edge from-layer="248" from-port="2" to-layer="250" to-port="0"/>
		<edge from-layer="249" from-port="0" to-layer="250" to-port="1"/>
		<edge from-layer="250" from-port="2" to-layer="251" to-port="0"/>
		<edge from-layer="251" from-port="2" to-layer="253" to-port="0"/>
		<edge from-layer="252" from-port="0" to-layer="253" to-port="1"/>
		<edge from-layer="253" from-port="2" to-layer="255" to-port="0"/>
		<edge from-layer="254" from-port="0" to-layer="255" to-port="1"/>
		<edge from-layer="255" from-port="2" to-layer="256" to-port="0"/>
		<edge from-layer="256" from-port="1" to-layer="258" to-port="0"/>
		<edge from-layer="257" from-port="0" to-layer="258" to-port="1"/>
		<edge from-layer="258" from-port="2" to-layer="260" to-port="0"/>
		<edge from-layer="259" from-port="0" to-layer="260" to-port="1"/>
		<edge from-layer="260" from-port="2" to-layer="261" to-port="0"/>
		<edge from-layer="261" from-port="1" to-layer="263" to-port="0"/>
		<edge from-layer="262" from-port="0" to-layer="263" to-port="1"/>
		<edge from-layer="263" from-port="2" to-layer="265" to-port="0"/>
		<edge from-layer="264" from-port="0" to-layer="265" to-port="1"/>
		<edge from-layer="265" from-port="2" to-layer="267" to-port="0"/>
		<edge from-layer="266" from-port="0" to-layer="267" to-port="1"/>
		<edge from-layer="267" from-port="2" to-layer="269" to-port="0"/>
		<edge from-layer="268" from-port="0" to-layer="269" to-port="1"/>
		<edge from-layer="269" from-port="2" to-layer="270" to-port="0"/>
		<edge from-layer="270" from-port="1" to-layer="413" to-port="0"/>
		<edge from-layer="270" from-port="1" to-layer="272" to-port="0"/>
		<edge from-layer="270" from-port="1" to-layer="285" to-port="0"/>
		<edge from-layer="271" from-port="0" to-layer="272" to-port="1"/>
		<edge from-layer="272" from-port="2" to-layer="274" to-port="0"/>
		<edge from-layer="273" from-port="0" to-layer="274" to-port="1"/>
		<edge from-layer="274" from-port="2" to-layer="275" to-port="0"/>
		<edge from-layer="275" from-port="1" to-layer="277" to-port="0"/>
		<edge from-layer="276" from-port="0" to-layer="277" to-port="1"/>
		<edge from-layer="277" from-port="2" to-layer="279" to-port="0"/>
		<edge from-layer="278" from-port="0" to-layer="279" to-port="1"/>
		<edge from-layer="279" from-port="2" to-layer="281" to-port="0"/>
		<edge from-layer="279" from-port="2" to-layer="496" to-port="0"/>
		<edge from-layer="280" from-port="0" to-layer="281" to-port="1"/>
		<edge from-layer="281" from-port="2" to-layer="283" to-port="0"/>
		<edge from-layer="282" from-port="0" to-layer="283" to-port="1"/>
		<edge from-layer="283" from-port="2" to-layer="396" to-port="1"/>
		<edge from-layer="284" from-port="0" to-layer="285" to-port="1"/>
		<edge from-layer="285" from-port="2" to-layer="287" to-port="0"/>
		<edge from-layer="286" from-port="0" to-layer="287" to-port="1"/>
		<edge from-layer="287" from-port="2" to-layer="288" to-port="0"/>
		<edge from-layer="288" from-port="1" to-layer="290" to-port="0"/>
		<edge from-layer="289" from-port="0" to-layer="290" to-port="1"/>
		<edge from-layer="290" from-port="2" to-layer="292" to-port="0"/>
		<edge from-layer="291" from-port="0" to-layer="292" to-port="1"/>
		<edge from-layer="292" from-port="2" to-layer="293" to-port="0"/>
		<edge from-layer="293" from-port="1" to-layer="295" to-port="0"/>
		<edge from-layer="294" from-port="0" to-layer="295" to-port="1"/>
		<edge from-layer="295" from-port="2" to-layer="297" to-port="0"/>
		<edge from-layer="296" from-port="0" to-layer="297" to-port="1"/>
		<edge from-layer="297" from-port="2" to-layer="298" to-port="0"/>
		<edge from-layer="298" from-port="1" to-layer="300" to-port="0"/>
		<edge from-layer="298" from-port="1" to-layer="426" to-port="0"/>
		<edge from-layer="298" from-port="1" to-layer="313" to-port="0"/>
		<edge from-layer="299" from-port="0" to-layer="300" to-port="1"/>
		<edge from-layer="300" from-port="2" to-layer="302" to-port="0"/>
		<edge from-layer="301" from-port="0" to-layer="302" to-port="1"/>
		<edge from-layer="302" from-port="2" to-layer="303" to-port="0"/>
		<edge from-layer="303" from-port="1" to-layer="305" to-port="0"/>
		<edge from-layer="304" from-port="0" to-layer="305" to-port="1"/>
		<edge from-layer="305" from-port="2" to-layer="307" to-port="0"/>
		<edge from-layer="306" from-port="0" to-layer="307" to-port="1"/>
		<edge from-layer="307" from-port="2" to-layer="509" to-port="0"/>
		<edge from-layer="307" from-port="2" to-layer="309" to-port="0"/>
		<edge from-layer="308" from-port="0" to-layer="309" to-port="1"/>
		<edge from-layer="309" from-port="2" to-layer="311" to-port="0"/>
		<edge from-layer="310" from-port="0" to-layer="311" to-port="1"/>
		<edge from-layer="311" from-port="2" to-layer="396" to-port="2"/>
		<edge from-layer="312" from-port="0" to-layer="313" to-port="1"/>
		<edge from-layer="313" from-port="2" to-layer="315" to-port="0"/>
		<edge from-layer="314" from-port="0" to-layer="315" to-port="1"/>
		<edge from-layer="315" from-port="2" to-layer="316" to-port="0"/>
		<edge from-layer="316" from-port="1" to-layer="318" to-port="0"/>
		<edge from-layer="317" from-port="0" to-layer="318" to-port="1"/>
		<edge from-layer="318" from-port="2" to-layer="320" to-port="0"/>
		<edge from-layer="319" from-port="0" to-layer="320" to-port="1"/>
		<edge from-layer="320" from-port="2" to-layer="321" to-port="0"/>
		<edge from-layer="321" from-port="1" to-layer="323" to-port="0"/>
		<edge from-layer="322" from-port="0" to-layer="323" to-port="1"/>
		<edge from-layer="323" from-port="2" to-layer="325" to-port="0"/>
		<edge from-layer="324" from-port="0" to-layer="325" to-port="1"/>
		<edge from-layer="325" from-port="2" to-layer="326" to-port="0"/>
		<edge from-layer="326" from-port="1" to-layer="341" to-port="0"/>
		<edge from-layer="326" from-port="1" to-layer="328" to-port="0"/>
		<edge from-layer="326" from-port="1" to-layer="439" to-port="0"/>
		<edge from-layer="327" from-port="0" to-layer="328" to-port="1"/>
		<edge from-layer="328" from-port="2" to-layer="330" to-port="0"/>
		<edge from-layer="329" from-port="0" to-layer="330" to-port="1"/>
		<edge from-layer="330" from-port="2" to-layer="331" to-port="0"/>
		<edge from-layer="331" from-port="1" to-layer="333" to-port="0"/>
		<edge from-layer="332" from-port="0" to-layer="333" to-port="1"/>
		<edge from-layer="333" from-port="2" to-layer="335" to-port="0"/>
		<edge from-layer="334" from-port="0" to-layer="335" to-port="1"/>
		<edge from-layer="335" from-port="2" to-layer="337" to-port="0"/>
		<edge from-layer="335" from-port="2" to-layer="522" to-port="0"/>
		<edge from-layer="336" from-port="0" to-layer="337" to-port="1"/>
		<edge from-layer="337" from-port="2" to-layer="339" to-port="0"/>
		<edge from-layer="338" from-port="0" to-layer="339" to-port="1"/>
		<edge from-layer="339" from-port="2" to-layer="396" to-port="3"/>
		<edge from-layer="340" from-port="0" to-layer="341" to-port="1"/>
		<edge from-layer="341" from-port="2" to-layer="343" to-port="0"/>
		<edge from-layer="342" from-port="0" to-layer="343" to-port="1"/>
		<edge from-layer="343" from-port="2" to-layer="344" to-port="0"/>
		<edge from-layer="344" from-port="1" to-layer="346" to-port="0"/>
		<edge from-layer="345" from-port="0" to-layer="346" to-port="1"/>
		<edge from-layer="346" from-port="2" to-layer="348" to-port="0"/>
		<edge from-layer="347" from-port="0" to-layer="348" to-port="1"/>
		<edge from-layer="348" from-port="2" to-layer="349" to-port="0"/>
		<edge from-layer="349" from-port="1" to-layer="351" to-port="0"/>
		<edge from-layer="350" from-port="0" to-layer="351" to-port="1"/>
		<edge from-layer="351" from-port="2" to-layer="353" to-port="0"/>
		<edge from-layer="352" from-port="0" to-layer="353" to-port="1"/>
		<edge from-layer="353" from-port="2" to-layer="354" to-port="0"/>
		<edge from-layer="354" from-port="1" to-layer="369" to-port="0"/>
		<edge from-layer="354" from-port="1" to-layer="452" to-port="0"/>
		<edge from-layer="354" from-port="1" to-layer="356" to-port="0"/>
		<edge from-layer="355" from-port="0" to-layer="356" to-port="1"/>
		<edge from-layer="356" from-port="2" to-layer="358" to-port="0"/>
		<edge from-layer="357" from-port="0" to-layer="358" to-port="1"/>
		<edge from-layer="358" from-port="2" to-layer="359" to-port="0"/>
		<edge from-layer="359" from-port="1" to-layer="361" to-port="0"/>
		<edge from-layer="360" from-port="0" to-layer="361" to-port="1"/>
		<edge from-layer="361" from-port="2" to-layer="363" to-port="0"/>
		<edge from-layer="362" from-port="0" to-layer="363" to-port="1"/>
		<edge from-layer="363" from-port="2" to-layer="535" to-port="0"/>
		<edge from-layer="363" from-port="2" to-layer="365" to-port="0"/>
		<edge from-layer="364" from-port="0" to-layer="365" to-port="1"/>
		<edge from-layer="365" from-port="2" to-layer="367" to-port="0"/>
		<edge from-layer="366" from-port="0" to-layer="367" to-port="1"/>
		<edge from-layer="367" from-port="2" to-layer="396" to-port="4"/>
		<edge from-layer="368" from-port="0" to-layer="369" to-port="1"/>
		<edge from-layer="369" from-port="2" to-layer="371" to-port="0"/>
		<edge from-layer="370" from-port="0" to-layer="371" to-port="1"/>
		<edge from-layer="371" from-port="2" to-layer="372" to-port="0"/>
		<edge from-layer="372" from-port="1" to-layer="374" to-port="0"/>
		<edge from-layer="373" from-port="0" to-layer="374" to-port="1"/>
		<edge from-layer="374" from-port="2" to-layer="376" to-port="0"/>
		<edge from-layer="375" from-port="0" to-layer="376" to-port="1"/>
		<edge from-layer="376" from-port="2" to-layer="377" to-port="0"/>
		<edge from-layer="377" from-port="1" to-layer="379" to-port="0"/>
		<edge from-layer="378" from-port="0" to-layer="379" to-port="1"/>
		<edge from-layer="379" from-port="2" to-layer="381" to-port="0"/>
		<edge from-layer="380" from-port="0" to-layer="381" to-port="1"/>
		<edge from-layer="381" from-port="2" to-layer="382" to-port="0"/>
		<edge from-layer="382" from-port="1" to-layer="465" to-port="0"/>
		<edge from-layer="382" from-port="1" to-layer="384" to-port="0"/>
		<edge from-layer="383" from-port="0" to-layer="384" to-port="1"/>
		<edge from-layer="384" from-port="2" to-layer="386" to-port="0"/>
		<edge from-layer="385" from-port="0" to-layer="386" to-port="1"/>
		<edge from-layer="386" from-port="2" to-layer="387" to-port="0"/>
		<edge from-layer="387" from-port="1" to-layer="389" to-port="0"/>
		<edge from-layer="388" from-port="0" to-layer="389" to-port="1"/>
		<edge from-layer="389" from-port="2" to-layer="391" to-port="0"/>
		<edge from-layer="390" from-port="0" to-layer="391" to-port="1"/>
		<edge from-layer="391" from-port="2" to-layer="393" to-port="0"/>
		<edge from-layer="391" from-port="2" to-layer="548" to-port="0"/>
		<edge from-layer="392" from-port="0" to-layer="393" to-port="1"/>
		<edge from-layer="393" from-port="2" to-layer="395" to-port="0"/>
		<edge from-layer="394" from-port="0" to-layer="395" to-port="1"/>
		<edge from-layer="395" from-port="2" to-layer="396" to-port="5"/>
		<edge from-layer="396" from-port="6" to-layer="398" to-port="0"/>
		<edge from-layer="397" from-port="0" to-layer="398" to-port="1"/>
		<edge from-layer="398" from-port="2" to-layer="562" to-port="0"/>
		<edge from-layer="399" from-port="0" to-layer="400" to-port="1"/>
		<edge from-layer="400" from-port="2" to-layer="402" to-port="0"/>
		<edge from-layer="401" from-port="0" to-layer="402" to-port="1"/>
		<edge from-layer="402" from-port="2" to-layer="403" to-port="0"/>
		<edge from-layer="403" from-port="1" to-layer="405" to-port="0"/>
		<edge from-layer="404" from-port="0" to-layer="405" to-port="1"/>
		<edge from-layer="405" from-port="2" to-layer="407" to-port="0"/>
		<edge from-layer="406" from-port="0" to-layer="407" to-port="1"/>
		<edge from-layer="407" from-port="2" to-layer="409" to-port="0"/>
		<edge from-layer="408" from-port="0" to-layer="409" to-port="1"/>
		<edge from-layer="409" from-port="2" to-layer="411" to-port="0"/>
		<edge from-layer="410" from-port="0" to-layer="411" to-port="1"/>
		<edge from-layer="411" from-port="2" to-layer="477" to-port="0"/>
		<edge from-layer="412" from-port="0" to-layer="413" to-port="1"/>
		<edge from-layer="413" from-port="2" to-layer="415" to-port="0"/>
		<edge from-layer="414" from-port="0" to-layer="415" to-port="1"/>
		<edge from-layer="415" from-port="2" to-layer="416" to-port="0"/>
		<edge from-layer="416" from-port="1" to-layer="418" to-port="0"/>
		<edge from-layer="417" from-port="0" to-layer="418" to-port="1"/>
		<edge from-layer="418" from-port="2" to-layer="420" to-port="0"/>
		<edge from-layer="419" from-port="0" to-layer="420" to-port="1"/>
		<edge from-layer="420" from-port="2" to-layer="422" to-port="0"/>
		<edge from-layer="421" from-port="0" to-layer="422" to-port="1"/>
		<edge from-layer="422" from-port="2" to-layer="424" to-port="0"/>
		<edge from-layer="423" from-port="0" to-layer="424" to-port="1"/>
		<edge from-layer="424" from-port="2" to-layer="477" to-port="1"/>
		<edge from-layer="425" from-port="0" to-layer="426" to-port="1"/>
		<edge from-layer="426" from-port="2" to-layer="428" to-port="0"/>
		<edge from-layer="427" from-port="0" to-layer="428" to-port="1"/>
		<edge from-layer="428" from-port="2" to-layer="429" to-port="0"/>
		<edge from-layer="429" from-port="1" to-layer="431" to-port="0"/>
		<edge from-layer="430" from-port="0" to-layer="431" to-port="1"/>
		<edge from-layer="431" from-port="2" to-layer="433" to-port="0"/>
		<edge from-layer="432" from-port="0" to-layer="433" to-port="1"/>
		<edge from-layer="433" from-port="2" to-layer="435" to-port="0"/>
		<edge from-layer="434" from-port="0" to-layer="435" to-port="1"/>
		<edge from-layer="435" from-port="2" to-layer="437" to-port="0"/>
		<edge from-layer="436" from-port="0" to-layer="437" to-port="1"/>
		<edge from-layer="437" from-port="2" to-layer="477" to-port="2"/>
		<edge from-layer="438" from-port="0" to-layer="439" to-port="1"/>
		<edge from-layer="439" from-port="2" to-layer="441" to-port="0"/>
		<edge from-layer="440" from-port="0" to-layer="441" to-port="1"/>
		<edge from-layer="441" from-port="2" to-layer="442" to-port="0"/>
		<edge from-layer="442" from-port="1" to-layer="444" to-port="0"/>
		<edge from-layer="443" from-port="0" to-layer="444" to-port="1"/>
		<edge from-layer="444" from-port="2" to-layer="446" to-port="0"/>
		<edge from-layer="445" from-port="0" to-layer="446" to-port="1"/>
		<edge from-layer="446" from-port="2" to-layer="448" to-port="0"/>
		<edge from-layer="447" from-port="0" to-layer="448" to-port="1"/>
		<edge from-layer="448" from-port="2" to-layer="450" to-port="0"/>
		<edge from-layer="449" from-port="0" to-layer="450" to-port="1"/>
		<edge from-layer="450" from-port="2" to-layer="477" to-port="3"/>
		<edge from-layer="451" from-port="0" to-layer="452" to-port="1"/>
		<edge from-layer="452" from-port="2" to-layer="454" to-port="0"/>
		<edge from-layer="453" from-port="0" to-layer="454" to-port="1"/>
		<edge from-layer="454" from-port="2" to-layer="455" to-port="0"/>
		<edge from-layer="455" from-port="1" to-layer="457" to-port="0"/>
		<edge from-layer="456" from-port="0" to-layer="457" to-port="1"/>
		<edge from-layer="457" from-port="2" to-layer="459" to-port="0"/>
		<edge from-layer="458" from-port="0" to-layer="459" to-port="1"/>
		<edge from-layer="459" from-port="2" to-layer="461" to-port="0"/>
		<edge from-layer="460" from-port="0" to-layer="461" to-port="1"/>
		<edge from-layer="461" from-port="2" to-layer="463" to-port="0"/>
		<edge from-layer="462" from-port="0" to-layer="463" to-port="1"/>
		<edge from-layer="463" from-port="2" to-layer="477" to-port="4"/>
		<edge from-layer="464" from-port="0" to-layer="465" to-port="1"/>
		<edge from-layer="465" from-port="2" to-layer="467" to-port="0"/>
		<edge from-layer="466" from-port="0" to-layer="467" to-port="1"/>
		<edge from-layer="467" from-port="2" to-layer="468" to-port="0"/>
		<edge from-layer="468" from-port="1" to-layer="470" to-port="0"/>
		<edge from-layer="469" from-port="0" to-layer="470" to-port="1"/>
		<edge from-layer="470" from-port="2" to-layer="472" to-port="0"/>
		<edge from-layer="471" from-port="0" to-layer="472" to-port="1"/>
		<edge from-layer="472" from-port="2" to-layer="474" to-port="0"/>
		<edge from-layer="473" from-port="0" to-layer="474" to-port="1"/>
		<edge from-layer="474" from-port="2" to-layer="476" to-port="0"/>
		<edge from-layer="475" from-port="0" to-layer="476" to-port="1"/>
		<edge from-layer="476" from-port="2" to-layer="477" to-port="5"/>
		<edge from-layer="477" from-port="6" to-layer="479" to-port="0"/>
		<edge from-layer="478" from-port="0" to-layer="479" to-port="1"/>
		<edge from-layer="479" from-port="2" to-layer="480" to-port="0"/>
		<edge from-layer="480" from-port="1" to-layer="482" to-port="0"/>
		<edge from-layer="481" from-port="0" to-layer="482" to-port="1"/>
		<edge from-layer="482" from-port="2" to-layer="562" to-port="1"/>
		<edge from-layer="483" from-port="1" to-layer="487" to-port="0"/>
		<edge from-layer="484" from-port="0" to-layer="487" to-port="1"/>
		<edge from-layer="485" from-port="0" to-layer="487" to-port="2"/>
		<edge from-layer="486" from-port="0" to-layer="487" to-port="3"/>
		<edge from-layer="487" from-port="4" to-layer="493" to-port="0"/>
		<edge from-layer="488" from-port="1" to-layer="492" to-port="0"/>
		<edge from-layer="489" from-port="0" to-layer="492" to-port="1"/>
		<edge from-layer="490" from-port="0" to-layer="492" to-port="2"/>
		<edge from-layer="491" from-port="0" to-layer="492" to-port="3"/>
		<edge from-layer="492" from-port="4" to-layer="493" to-port="1"/>
		<edge from-layer="493" from-port="2" to-layer="495" to-port="0"/>
		<edge from-layer="494" from-port="0" to-layer="495" to-port="1"/>
		<edge from-layer="495" from-port="2" to-layer="561" to-port="0"/>
		<edge from-layer="496" from-port="1" to-layer="500" to-port="0"/>
		<edge from-layer="497" from-port="0" to-layer="500" to-port="1"/>
		<edge from-layer="498" from-port="0" to-layer="500" to-port="2"/>
		<edge from-layer="499" from-port="0" to-layer="500" to-port="3"/>
		<edge from-layer="500" from-port="4" to-layer="506" to-port="0"/>
		<edge from-layer="501" from-port="1" to-layer="505" to-port="0"/>
		<edge from-layer="502" from-port="0" to-layer="505" to-port="1"/>
		<edge from-layer="503" from-port="0" to-layer="505" to-port="2"/>
		<edge from-layer="504" from-port="0" to-layer="505" to-port="3"/>
		<edge from-layer="505" from-port="4" to-layer="506" to-port="1"/>
		<edge from-layer="506" from-port="2" to-layer="508" to-port="0"/>
		<edge from-layer="507" from-port="0" to-layer="508" to-port="1"/>
		<edge from-layer="508" from-port="2" to-layer="561" to-port="1"/>
		<edge from-layer="509" from-port="1" to-layer="513" to-port="0"/>
		<edge from-layer="510" from-port="0" to-layer="513" to-port="1"/>
		<edge from-layer="511" from-port="0" to-layer="513" to-port="2"/>
		<edge from-layer="512" from-port="0" to-layer="513" to-port="3"/>
		<edge from-layer="513" from-port="4" to-layer="519" to-port="0"/>
		<edge from-layer="514" from-port="1" to-layer="518" to-port="0"/>
		<edge from-layer="515" from-port="0" to-layer="518" to-port="1"/>
		<edge from-layer="516" from-port="0" to-layer="518" to-port="2"/>
		<edge from-layer="517" from-port="0" to-layer="518" to-port="3"/>
		<edge from-layer="518" from-port="4" to-layer="519" to-port="1"/>
		<edge from-layer="519" from-port="2" to-layer="521" to-port="0"/>
		<edge from-layer="520" from-port="0" to-layer="521" to-port="1"/>
		<edge from-layer="521" from-port="2" to-layer="561" to-port="2"/>
		<edge from-layer="522" from-port="1" to-layer="526" to-port="0"/>
		<edge from-layer="523" from-port="0" to-layer="526" to-port="1"/>
		<edge from-layer="524" from-port="0" to-layer="526" to-port="2"/>
		<edge from-layer="525" from-port="0" to-layer="526" to-port="3"/>
		<edge from-layer="526" from-port="4" to-layer="532" to-port="0"/>
		<edge from-layer="527" from-port="1" to-layer="531" to-port="0"/>
		<edge from-layer="528" from-port="0" to-layer="531" to-port="1"/>
		<edge from-layer="529" from-port="0" to-layer="531" to-port="2"/>
		<edge from-layer="530" from-port="0" to-layer="531" to-port="3"/>
		<edge from-layer="531" from-port="4" to-layer="532" to-port="1"/>
		<edge from-layer="532" from-port="2" to-layer="534" to-port="0"/>
		<edge from-layer="533" from-port="0" to-layer="534" to-port="1"/>
		<edge from-layer="534" from-port="2" to-layer="561" to-port="3"/>
		<edge from-layer="535" from-port="1" to-layer="539" to-port="0"/>
		<edge from-layer="536" from-port="0" to-layer="539" to-port="1"/>
		<edge from-layer="537" from-port="0" to-layer="539" to-port="2"/>
		<edge from-layer="538" from-port="0" to-layer="539" to-port="3"/>
		<edge from-layer="539" from-port="4" to-layer="545" to-port="0"/>
		<edge from-layer="540" from-port="1" to-layer="544" to-port="0"/>
		<edge from-layer="541" from-port="0" to-layer="544" to-port="1"/>
		<edge from-layer="542" from-port="0" to-layer="544" to-port="2"/>
		<edge from-layer="543" from-port="0" to-layer="544" to-port="3"/>
		<edge from-layer="544" from-port="4" to-layer="545" to-port="1"/>
		<edge from-layer="545" from-port="2" to-layer="547" to-port="0"/>
		<edge from-layer="546" from-port="0" to-layer="547" to-port="1"/>
		<edge from-layer="547" from-port="2" to-layer="561" to-port="4"/>
		<edge from-layer="548" from-port="1" to-layer="552" to-port="0"/>
		<edge from-layer="549" from-port="0" to-layer="552" to-port="1"/>
		<edge from-layer="550" from-port="0" to-layer="552" to-port="2"/>
		<edge from-layer="551" from-port="0" to-layer="552" to-port="3"/>
		<edge from-layer="552" from-port="4" to-layer="558" to-port="0"/>
		<edge from-layer="553" from-port="1" to-layer="557" to-port="0"/>
		<edge from-layer="554" from-port="0" to-layer="557" to-port="1"/>
		<edge from-layer="555" from-port="0" to-layer="557" to-port="2"/>
		<edge from-layer="556" from-port="0" to-layer="557" to-port="3"/>
		<edge from-layer="557" from-port="4" to-layer="558" to-port="1"/>
		<edge from-layer="558" from-port="2" to-layer="560" to-port="0"/>
		<edge from-layer="559" from-port="0" to-layer="560" to-port="1"/>
		<edge from-layer="560" from-port="2" to-layer="561" to-port="5"/>
		<edge from-layer="561" from-port="6" to-layer="562" to-port="2"/>
		<edge from-layer="562" from-port="3" to-layer="563" to-port="0"/>
	</edges>
	<meta_data>
		<MO_version value="2021.4.2-3976-0943ed67223-refs/pull/539/head"/>
		<cli_parameters>
			<caffe_parser_path value="DIR"/>
			<data_type value="float"/>
			<disable_nhwc_to_nchw value="False"/>
			<disable_omitting_optional value="False"/>
			<disable_resnet_optimization value="False"/>
			<disable_weights_compression value="False"/>
			<enable_concat_optimization value="False"/>
			<enable_flattening_nested_params value="False"/>
			<enable_ssd_gluoncv value="False"/>
			<extensions value="DIR"/>
			<framework value="tf"/>
			<freeze_placeholder_with_value value="{}"/>
			<generate_deprecated_IR_V7 value="False"/>
			<input_model value="DIR/frozen_inference_graph.pb"/>
			<input_model_is_text value="False"/>
			<input_shape value="[1,300,300,3]"/>
			<k value="DIR/CustomLayersMapping.xml"/>
			<keep_shape_ops value="True"/>
			<legacy_ir_generation value="False"/>
			<legacy_mxnet_model value="False"/>
			<log_level value="DEBUG"/>
			<mean_scale_values value="{}"/>
			<mean_values value="()"/>
			<model_name value="ssdlite_mobilenet_v2"/>
			<output_dir value="DIR"/>
			<placeholder_data_types value="{}"/>
			<placeholder_shapes value="[  1 300 300   3]"/>
			<progress value="False"/>
			<remove_memory value="False"/>
			<remove_output_softmax value="False"/>
			<reverse_input_channels value="False"/>
			<save_params_from_nd value="False"/>
			<scale_values value="()"/>
			<silent value="False"/>
			<static_shape value="False"/>
			<stream_output value="False"/>
			<tensorflow_object_detection_api_pipeline_config value="DIR/pipeline.config"/>
			<tensorflow_use_custom_operations_config value="DIR/ssd_support_api_v1.15.json"/>
			<transform value=""/>
			<transformations_config value="DIR/ssd_support_api_v1.15.json"/>
			<unset unset_cli_parameters="batch, counts, disable_fusing, disable_gfusing, finegrain_fusing, input, input_checkpoint, input_meta_graph, input_proto, input_symbol, mean_file, mean_file_offsets, move_to_preprocess, nd_prefix_name, output, pretrained_model_name, saved_model_dir, saved_model_tags, scale, tensorboard_logdir, tensorflow_custom_layer_libraries, tensorflow_custom_operations_config_update"/>
		</cli_parameters>
	</meta_data>
</net>
